p1_navigation/qnetwork_target.pt (torch_old, 28444 bytes, 6 tensors)

layer1.weight f4 [64, 37]
-0.017165693 0.12682797 0.010455319 0.2586784 0.1009877 -0.43265745 0.2562633 0.23672979
-0.24307948 -1.3196728 0.14397106 0.047261875 0.07320554 -0.022909481 -0.105484135 0.12266764
-0.04406232 0.058945958 0.009915693 9.619989e-06 -0.14605358 0.11670734 0.005440929 -0.020977478
-0.22967888 -0.27616078 0.16489643 0.04630625 -0.48098892 -0.68869936 -0.08076688 0.18600231
0.25459588 -0.059567515 -0.9840994 0.004161852 0.02031772 0.20809248 0.14418112 -0.17248991
-0.0022735342 -0.47689158 -0.008779537 0.30348673 -0.011142848 0.16703267 0.14483629 0.2997147
-0.60740435 -0.10487094 -0.37361613 -1.2609398 -0.039527822 -0.063366026 0.253945 -0.23972502
-0.49724925 0.085287385 0.007319386 -0.005712761 -0.2223892 0.019637559 -0.095132925 -0.16990143
0.208692 0.1294617 0.032659717 -0.18223232 -0.19905448 0.06379277 0.12097313 0.05989798
0.13564461 -0.024144066 0.010740143 -0.30049425 0.06312836 -0.17328352 -0.29347166 0.099088356
-0.115060456 0.019563386 -0.4108446 -2.0476997 0.25934547 -0.35338914 0.001833609 -0.13441788
-0.21284296 0.2067851 -0.19487868 0.0020411324 0.0439423 -0.24855171 0.030267097 -0.047344144
0.073868744 -0.25028536 -0.34551066 -0.064480714 -0.25494146 0.22822693 -0.3014781 -0.30640587
-0.08575614 0.16007987 -0.06985647 -0.61264163 -0.4151292 -0.086917594 -0.0041317013 0.13160554
-0.025416669 -0.048048634 -0.1519335 0.079342574 0.20178504 -0.54714787 -0.103781976 -0.52797407
-3.4576106 0.06975839 -0.08814685 -0.014086125 -0.20024173 -0.24986412 0.008244478 -0.047538884
0.1452422 -0.18344654 0.15675655 0.111368924 -0.2238573 0.079267345 0.19827771 -0.057933103
-0.11237486 0.055221077 -0.007287615 -0.21604086 -0.420434 -0.107892305 0.1319242 0.031267084
-0.26664022 0.18369848 0.1083182 0.023244072 0.0679838 -0.27835637 0.12999247 -0.41593865
-0.41170785 -0.2804838 0.23766795 -0.15441206 -0.106508225 0.53838104 0.08739185 -0.06858795
-0.04403602 -0.20119728 -0.330089 -0.09432428 -0.13300258 -0.08662683 -0.38966802 -0.049138602
-0.19537708 -0.3473935 0.13820203 -0.3073959 -0.1213787 -0.06633425 -0.5739593 -0.0853655
0.047178034 0.04780381 -0.16391872 -0.4878886 0.24452233 0.25130984 -0.11948885 -0.093390755
0.093862236 0.08998393 0.060678616 0.1020413 0.06149341 0.0054824855 0.21236318 -0.13528681
-0.07576737 -0.37506306 -3.9670637 0.015644895 -0.019712165 0.004276353 0.01995928 -0.03956041
0.05713168 -0.059982043 -0.051601667 0.062114324 0.024149807 -0.07033842 -0.08045134 -0.08205517
-0.09489591 0.21413074 0.06298894 0.16770819 0.05535118 0.06488013 -0.09772007 0.10265147
0.3347306 0.25710398 0.15639515 -0.34036943 -0.0014465005 0.013366707 -0.049692784 -0.037305694
0.02142469 0.12882715 0.16933694 0.07717571 -0.023216115 -0.07023457 -0.08705245 0.09685138
0.11824195 0.0903178 0.14879763 0.11916236 -0.050798133 -0.23656769 0.1427735 0.06881512
-0.03271792 -0.03363078 -0.07547043 -0.06584739 0.0035142354 0.06942542 0.11015065 0.28091678
-0.18924396 -0.03507214 -0.52269876 -3.0751047 -0.040975995 -0.06536726 0.022385148 0.028890409
00000000: 119f 8cbc 31df 013e c94c 2b3c 7f71 843e
00000010: a4d2 ce3d 4785 ddbe f134 833e 4b69 723e
00000020: d4e9 78be 0aeb a8bf 266d 133e ab95 413d
00000030: c9ec 953d aaac bbbc 1108 d8bd 2c39 fb3d
00000040: b17a 34bd 5171 713d 6e75 223c 8a65 2137
00000050: 128f 15be 4204 ef3d d249 b23b f6d8 abbc
00000060: f130 6bbe f264 8dbe 9cda 283e 9fab 3d3d
00000070: 2e44 f6be 9a4e 30bf 1b69 a5bd 6477 3e3e
00000080: 645a 823e 11fd 73bd f0ed 7bbf 2560 883b
00000090: 5971 a63c 3216 553e 37a4 133e 32a1 30be
000000a0: 93ff 14bb 222b f4be 0cd8 0fbc 9d62 9b3e
000000b0: 7e90 36bc 9d0a 2b3e f74f 143e 3574 993e
000000c0: da7e 1bbf 93c6 d6bd 9d4a bfbe 7a66 a1bf
000000d0: ede7 21bd 0cc6 81bd 1405 823e 7a7a 75be
000000e0: 7497 febe 27ab ae3d 76d7 ef3b 1d32 bbbb
000000f0: ffb9 63be f2de a03c 0dd5 c2bd a4fa 2dbe
00000100: 5bb3 553e 9c91 043e 32c6 053d 1c9b 3abe
00000110: f0d4 4bbe c9a5 823d c3c0 f73d 9657 753d
00000120: 6ce6 0a3e c7c9 c5bc 6df7 2f3c 62da 99be
00000130: 7149 813d 3c71 31be eb41 96be d6ee ca3d
00000140: d1a4 ebbd 6543 a03c 395a d2be 830d 03c0
00000150: eec8 843e 6cef b4be b555 f03a d7a4 09be
00000160: 81f3 59be 79bf 533e 478e 47be 85c4 053b
00000170: d7fc 333d 5784 7ebe b4f2 f73c efeb 41bd
00000180: 7f48 973d 6725 80be c6e6 b0be 770e 84bd
00000190: b087 82be 52b4 693e 565b 9abe 3be1 9cbe
000001a0: eaa0 afbd faeb 233e e910 8fbd 15d6 1cbf
000001b0: d18b d4be da01 b2bd 3963 87bb 9ac3 063e
000001c0: 9e36 d0bc a5ce 44bd 7594 1bbe 5c7e a23d
000001d0: bda0 4e3e e211 0cbf a58b d4bd 4f29 07bf
000001e0: 7e49 5dc0 7ddd 8e3d 5686 b4bd 7ec9 66bc
000001f0: 2b0c 4dbe 61dc 7fbe d913 073c 22b8 42bd
00000200: 5fba 143e 69d9 3bbe ca84 203e 6415 e43d
00000210: d93a 65be eb56 a23d 5009 4b3e 434b 6dbd
00000220: ca24 e6bd 7f2f 623d f2cc eebb d139 5dbe
00000230: 2043 d7be a4f6 dcbd 2317 073e ea11 003d
00000240: 1185 88be 741b 3c3e efd5 dd3d 5a6a be3c
00000250: 173b 8b3d ba84 8ebe bf1c 053e e9f5 d4be
00000260: 5fcb d2be 939b 8fbe 3a5f 733e 321e 1ebe
00000270: fc20 dabd 57d3 093f 80fa b23d d777 8cbd
00000280: 1d5f 34bd a906 4ebe 6d01 a9be 172d c1bd
00000290: d431 08be 6869 b1bd 9182 c7be 8f45 49bd
000002a0: ee10 48be 90dd b1be d584 0d3e ff62 9dbe
000002b0: 6595 f8bd 40da 87bd ffee 12bf 1bd4 aebd
000002c0: c13d 413d eecd 433d 4fda 27be 89cc f9be
000002d0: 1064 7a3e afab 803e 92b6 f4bd a743 bfbd
000002e0: d83a c03d 7f49 b83d 248a 783d 07fb d03d
000002f0: 84e0 7b3d 6ca6 b33b bc75 593e a088 0abe
00000300: ec2b 9bbd 4408 c0be 5fe4 7dc0 b929 803c
00000310: 687b a1bc a620 8c3b a581 a33c 190a 22bd
00000320: e902 6a3d bbaf 75bd 455c 53bd 976b 7e3d
00000330: d1d5 c53c 970d 90bd acc3 a4bd 8a0c a8bd
00000340: c958 c2bd 1745 5b3e 5800 813d b2bb 2b3e
00000350: ebb7 623d e0df 843d 7621 c8bd ef3a d23d
00000360: cf61 ab3e 22a3 833e 0d26 203e e744 aebe
00000370: 8198 bdba 0800 5b3c a98a 4bbd dbcd 18bd
00000380: d582 af3c 44eb 033e aa66 2d3e 4c0e 9e3d
00000390: b92f bebc 24d7 8fbd 8e48 b2bd 045a c63d
000003a0: d628 f23d 8af8 b83d 685e 183e 650b f43d
000003b0: b411 50bd cd3e 72be 3733 123e f1ee 8c3d
000003c0: 3a03 06bd 6ec0 09bd 3e90 9abd ffda 86bd
000003d0: 164f 663b ea2e 8e3d aa96 e13d 53d4 8f3e
000003e0: 2bc9 41be cea7 0fbd 96cf 05bf 84ce 44c0
000003f0: 72d6 27bd 45df 85bd 0f61 b73c 94ab ec3c

layer1.bias f4 [64]
-0.0110175945 0.15278059 0.1701266 0.049389943 -0.22845612 -0.026897676 0.0032080056 -0.084965535
-0.21560496 0.014694352 -0.16477409 0.07465823 -0.17795157 -0.16433287 -0.051123433 -0.07247059
-0.07094965 0.054018676 -0.0016158966 -0.16918166 -0.08080401 -0.009152973 -0.020253757 -0.07739032
-0.13106206 -0.2612688 -0.07597391 -0.21708758 0.16698885 0.001585555 -0.06998724 -0.21969435
-0.23151335 -0.07584626 -0.0553606 0.051375628 -0.0698369 0.027872935 0.1155968 -0.0937419
-0.15035278 -0.08766502 -0.16903721 0.026547344 0.2258599 -0.13821694 -0.19490616 -0.052144315
-0.22448607 0.10387476 -0.022421658 0.187299 -0.12289175 -0.31817845 0.03559563 0.008260256
0.1655475 0.004235807 0.05767822 -0.09416635 -0.029668353 -0.04051958 0.1127784 -0.009471551
00000000: 2483 34bc 8472 1c3e ab35 2e3e 1c4d 4a3d
00000010: 67f0 69be 8458 dcbc 673d 523b 6902 aebd
00000020: 8cc7 5cbe 94c0 703c 8aba 28be 6ae6 983d
00000030: f038 36be e046 28be ce66 51bd 766b 94bd
00000040: 0d4e 91bd b042 5d3d 7ecc d3ba f53d 2dbe
00000050: 937c a5bd 5af6 15bc 35eb a5bc d17e 9ebd
00000060: 2235 06be 06c5 85be 3698 9bbd 354c 5ebe
00000070: 20ff 2a3e 66d2 cf3a 7855 8fbd 8ef7 60be
00000080: d611 6dbe 4955 9bbd ccc1 62bd 406f 523d
00000090: a606 8fbd c855 e43c 04be ec3d c1fb bfbd
000000a0: 14f6 19be b889 b3bd 1718 2dbe d179 d93c
000000b0: d147 673e be88 0dbe 7b95 47be 4795 55bd
000000c0: addf 65be 4abc d43d a0ad b7bc 4fcb 3f3e
000000d0: abae fbbd 49e8 a2be b9cc 113d 0656 073c
000000e0: 4985 293e 86cc 8a3b ff3f 6c3d 4ada c0bd
000000f0: 0c0b f3bc dcf7 25bd 5df8 e63d 902e 1bbc

layer2.weight f4 [64, 64]
-0.056882653 0.15763731 0.009200982 0.08251575 0.0483745 0.1724719 -0.07019649 -0.06528529
0.071570285 0.036819056 0.025057899 0.105586484 0.043170806 -0.0106672635 0.466619 0.1908814
-0.09384619 -0.044356167 0.07578745 0.23540702 0.005576128 -0.5318312 -0.25236672 -0.075004965
0.1281398 0.016302958 0.64043885 -0.03357735 0.32989466 -0.30345735 0.29195395 0.02807588
-0.05303791 -0.13044989 0.14483166 -0.007531723 -0.11036987 -0.17048565 -0.032813285 -0.049303755
-0.041214857 0.004296591 -0.08224614 -0.18509676 0.52269065 -0.04430878 -0.0073957806 -0.15980425
-0.031658255 0.13786437 0.11930292 0.3067413 -0.08674183 -0.07001398 -0.027985042 0.01623021
0.14528188 -0.060874086 0.12131949 0.26582757 -0.09534313 0.032598566 0.4167187 -0.459369
0.1963061 -0.0017928795 0.14284182 -0.18456197 0.064524695 -0.13979813 -0.05276583 -0.1579767
-0.42422274 -0.23557231 0.06367423 0.2720153 -0.27347732 -0.46977577 -0.38166836 0.2571117
0.12754229 -0.40450883 -0.5432359 0.19755799 -0.39445534 0.22569755 0.020723868 0.0678579
0.12884633 -0.24393593 -0.121 0.27149722 -0.1428384 -0.16046776 0.16253799 -0.08294105
-0.1370737 -0.049601223 0.15737446 0.47773165 -0.33900607 -0.067559905 -0.12615842 0.002607266
-0.09661689 0.06792504 -0.08605904 -0.8085379 0.025329476 0.13072173 -0.32863906 -0.17877169
-0.2738269 -0.024916407 -0.10816595 -0.6534851 -0.5720895 0.15714404 0.08640209 -0.57258177
-0.35970375 0.06768845 -0.13431336 0.13236216 -0.3885266 0.021548107 0.089221165 -0.38509366
-0.52500737 -0.12192195 0.15247512 0.049741052 -0.021013381 0.28678438 -0.055859495 0.13372216
0.041060742 0.1302604 -0.09235267 0.20847541 -0.040235624 0.03656241 0.5233091 -0.09910892
-0.11832402 0.026490346 -0.0329037 0.15192801 -0.073231414 0.050386354 0.0868209 0.022829944
-0.034248374 0.015417331 -0.108815916 -0.0165265 0.4459122 -0.23891307 -0.21915194 -0.025258949
-0.057641286 -0.00090209715 -0.1220099 0.016302047 0.23390302 -0.04580926 0.19879474 -0.0199513
-0.07240102 -0.0031586336 0.113294825 0.06057036 -0.2555242 0.0076163188 -0.049925335 -0.048979674
0.08334708 -0.033025857 0.1512678 0.23475763 -0.031036269 -0.061265156 0.0004514364 0.0037727912
0.3717404 0.05039612 0.2518716 0.006942053 -0.06674532 0.046537094 -0.28143302 0.20747466
-0.17837983 0.08068701 0.13605623 0.11747781 0.4111632 -0.09727931 0.041995134 -0.12190859
0.22533602 -0.17212775 -0.2869147 -0.20830788 0.06882991 0.12781052 -0.17909734 0.11440857
-0.12107365 0.2599053 0.091911785 -0.10168578 0.104575776 0.14430249 0.13275717 0.094082095
0.040835522 -0.012703384 0.11554132 0.051739685 0.011685531 -0.39369753 -0.19169845 -0.52691334
-0.17422825 0.01633407 -0.393639 -0.1654715 -0.41395557 -0.032793924 -0.10027127 -0.4106571
0.00051460095 -0.046852354 0.076776825 -0.042351052 0.20879881 -0.4934565 -0.065787554 0.00017180148
-0.35839918 -0.058198147 0.07542278 -0.19830026 -0.26136222 -0.113401815 0.30302346 -0.17174062
-0.03546207 -0.315046 0.030313497 -0.022025194 0.07024099 0.029257648 -0.14811657 0.07835397
00000000: c9fd 68bd ad6b 213e b7bf 163c 04fe a83d
00000010: 5724 463d 799c 303e 2dc3 8fbd 4bb4 85bd
00000020: 7193 923d 94cf 163d 3946 cd3c ba3d d83d
00000030: dfd3 303d bfc5 2ebc b0e8 ee3e 6a76 433e
00000040: 6e32 c0bd d0ae 35bd 7336 9b3d 8a0e 713e
00000050: f4b7 b63b 1726 08bf 3636 81be 349c 99bd
00000060: 1437 033e c88d 853c cdf3 233f 6788 09bd
00000070: f4e7 a83e c35e 9bbe fd7a 953e 63ff e53c
00000080: 483e 59bd a894 05be c04e 143e accc f6bb
00000090: 9909 e2bd ca93 2ebe 3967 06bd bcf2 49bd
000000a0: e9d0 28bd 6bca 8c3b aa70 a8bd 018a 3dbe
000000b0: 0ecf 053f 207d 35bd 4e58 f2bb baa3 23be
000000c0: 16ac 01bd 512c 0d3e 1755 f43d 320d 9d3e
000000d0: b3a5 b1bd 7d63 8fbd e340 e5bc 38f5 843c
000000e0: c6c4 143e 1b57 79bd 5a76 f83d 8d1a 883e
000000f0: 4243 c3bd 1386 053d 275c d53e 6a32 ebbe
00000100: 7704 493e 0eff eaba 2045 123e d0fd 3cbe
00000110: 8625 843d 3e27 0fbe fc20 58bd a5c4 21be
00000120: b933 d9be de39 71be a267 823d 9745 8b3e
00000130: 3805 8cbe 7386 f0be 096a c3be 25a4 833e
00000140: 729a 023e c81b cfbe 8211 0bbf a44c 4a3e
00000150: 0df6 c9be 421d 673e 1ac5 a93c 15f9 8a3d
00000160: 4bf0 033e 57ca 79be d9ce f7bd af01 8b3e
00000170: 3b44 12be a951 24be 5c70 263e ffdc a9bd
00000180: 0c5d 0cbe a72a 4bbd c526 213e 3e99 f43e
00000190: 3492 adbe d95c 8abd ac2f 01be aade 2a3b
000001a0: 13df c5bd 491c 8b3d b93f b0bd 57fc 4ebf
000001b0: c37f cf3c ebdb 053e 6143 a8be ed0f 37be
000001c0: 0a33 8cbe 7e1d ccbc 1c86 ddbd cd4a 27bf
000001d0: 7574 12bf 5eea 203e 94f3 b03d b894 12bf
000001e0: 172b b8be 3ea0 8a3d 7189 09be f289 073e
000001f0: f5ec c6be a885 b03c 96b9 b63d ff2a c5be
00000200: e266 06bf 37b2 f9bd 7022 1c3e 46bd 4b3d
00000210: 4124 acbc 67d5 923e edcc 64bd 76ee 083e
00000220: 4f2f 283d fb62 053e 6623 bdbd 947a 553e
00000230: 1cce 24bd 77c2 153d 96f7 053f 9ef9 cabd
00000240: dd53 f2bd 4802 d93c 08c6 06bd 0493 1b3e
00000250: 5afa 95bd ec61 4e3d 28cf b13d dd05 bb3c
00000260: 0648 0cbd f998 7c3c e1da debd 9562 87bc
00000270: 9b4e e43e a1a5 74be 5e69 60be dbeb cebc
00000280: 4519 6cbd b77a 6cba 54e0 f9bd df8b 853c
00000290: 4684 6f3e 7ea2 3bbd d990 4b3e e970 a3bc
000002a0: fc46 94bd 1401 4fbb 1e07 e83d a018 783d
000002b0: 11d4 82be 5092 f93b 827e 4cbd e99e 48bd
000002c0: e0b1 aa3d 1f46 07bd f2e5 1a3e 4e64 703e
000002d0: c63f febc 2cf1 7abd c5ae ec39 ef40 773b
000002e0: c254 be3e 296c 4e3d 50f5 803e 297a e33b
000002f0: c5b1 88bd ae9d 3e3d fd17 90be 3d74 543e
00000300: 34a9 36be 3b3f a53d 5352 0b3e 3598 f03d
00000310: fc83 d23e 603a c7bd 1703 2c3d 36ab f9bd
00000320: 7cbe 663e 4242 30be 7ce6 92be a94e 55be
00000330: b2f6 8c3d c3e0 023e 4b65 37be 0a4f ea3d
00000340: 76f5 f7bd 4f12 853e 3f3c bc3d a240 d0bd
00000350: d32b d63d 08c4 133e 7ff1 073e 1dae c03d
00000360: 2643 273d db21 50bc eda0 ec3d feec 533d
00000370: ab74 3f3c b992 c9be 994c 44be cbe3 06bf
00000380: e468 32be 07cf 853c 0d8b c9be 5c71 29be
00000390: fcf1 d3be ec52 06bd 065b cdbd a641 d2be
000003a0: 49e6 063a 41e8 3fbd 2b3d 9d3d 4c78 2dbd
000003b0: 5bcf 553e 55a6 fcbe a0bb 86bd 9c25 3439
000003c0: 1980 b7be 2e61 6ebd 4277 9a3d 390f 4bbe
000003d0: 45d1 85be 363f e8bd e425 9b3e c6dc 2fbe
000003e0: ad40 11bd b64d a1be 0354 f83c 2e6e b4bc
000003f0: 82da 8f3d bcad ef3c dfab 17be 0c78 a03d

layer2.bias f4 [64]
0.10563451 -0.003169267 0.09433076 0.012949903 -0.21589787 -0.23972553 -0.2268353 0.0031082882
-0.24932069 -0.061696995 0.006798207 0.00280094 -0.009762926 -0.091429606 -0.12532784 -0.21682356
-0.21781547 -0.026920136 -0.07900128 -0.032126922 -0.3348605 -0.05864406 -0.083770566 0.18228407
0.112101994 -0.14755423 -0.03973702 -0.13169335 -0.22552854 -0.13856126 -0.029678589 -0.11870889
-0.08050161 -0.020776257 0.13624051 -0.27906018 -0.08559233 -0.089389354 -0.04056115 0.032297224
0.016614929 -0.11051416 -0.10312314 -0.025145566 -0.15007356 0.08076806 -0.020558462 0.025797654
-0.042101778 -0.089769736 -0.18393598 -0.041974023 -0.17025691 -0.09481314 0.028718483 0.01658036
-0.08525566 -0.06996922 -0.16720544 -0.053696416 -0.036714423 -0.22537665 -0.2827087 -0.0144345565
00000000: e856 d83d 7ab3 4fbb 7c30 c13d d42b 543c
00000010: 5514 5dbe 9c7a 75be 8347 68be 6cb4 4b3b
00000020: ec4d 7fbe fdb5 7cbd 7ec3 de3b fa8f 373b
00000030: aef4 1fbc 723f bbbd f155 00be ff06 5ebe
00000040: 050b 5fbe 9e87 dcbc 6ccb a1bd 8597 03bd
00000050: d672 abbe c134 70bd e78f abbd ada8 3a3e
00000060: bb95 e53d 7518 17be 49c3 22bd 9fda 06be
00000070: f4f0 66be 01e3 0dbe 8320 f3bc a61d f3bd
00000080: 07de a4bd f832 aabc a282 0b3e fae0 8ebe
00000090: 084b afbd c411 b7bd 7323 26bd 184a 043d
000000a0: 081c 883c 3f55 e2bd 3a32 d3bd 13fe cdbc
000000b0: e2ac 19be ba69 a53d 386a a8bc 9a55 d33c
000000c0: ea72 2cbd 32d9 b7bd b759 3cbe f4ec 2bbd
000000d0: d457 2ebe 642d c2bd 0643 eb3c 89d3 873c
000000e0: 859a aebd 064c 8fbd e737 2bbe c6f0 5bbd
000000f0: dd61 16bd 23c9 66be 32bf 90be eb7e 6cbc

layer3.weight f4 [4, 64]
0.20261553 0.004361326 0.24753031 -0.018556543 0.047413833 0.11877496 -0.01191596 0.062005293
0.099669926 -0.4860673 -0.03466839 -0.30789214 -0.1612433 0.5616624 0.11660681 -0.05753535
-0.045837034 0.24349108 0.13222826 0.14211845 -0.22184111 -0.2882379 0.016295988 0.098637566
0.06066317 -0.27639952 0.16501065 0.18658182 -0.4364968 -0.3827829 -0.67048305 -0.3407207
0.004693612 -0.18127005 -0.30813473 -0.19475271 0.07713026 0.10669424 0.021610066 0.13409849
0.073767014 0.3439567 0.361421 0.28424448 0.03339141 -0.006627457 0.025869703 0.13246727
-0.08349832 0.120160244 -0.3726866 0.009874646 -0.16103394 -0.5956878 0.14139798 -0.11048066
-0.4099328 0.04760011 0.030887641 -0.022697167 0.14195703 0.06732893 -0.06669175 0.21060361
0.17075425 0.28010514 0.18769297 -0.015698325 0.29602265 -0.590779 0.25055397 0.10380636
0.01162003 -0.014752746 0.05069665 -0.13794807 0.13296296 -0.35537508 -0.01233413 -0.13507445
0.035325784 0.17611377 0.051000383 0.08977125 0.11769425 0.22466078 0.073989354 0.0763937
0.07193092 -0.32875732 -0.08632099 0.17839834 -0.29526204 -0.2886687 -0.11132796 0.29896793
0.16149412 -0.090869 -0.14721198 0.11710671 -0.11380172 0.024419973 0.30533198 0.25275558
0.06581753 0.28538245 0.27938774 -0.020040056 0.03403893 0.0020292094 0.11464366 0.039685167
-0.27197492 -0.043322235 0.26879615 0.113594525 -0.12835588 -0.08593238 0.16860208 -0.037746314
0.03557545 0.009106235 0.008403227 0.13898285 0.19035043 0.041222394 0.0959666 0.22459902
0.1910118 -0.088660926 0.1007407 0.06370985 -0.04813966 -0.02439817 0.0944374 -0.18213238
0.30210608 -0.2574178 0.16872737 -0.26530722 -0.42356363 -0.61795473 0.08521711 0.37523285
0.13407762 0.19374742 0.15224218 0.17285122 -0.1830805 -0.14501198 -0.26007405 0.13524279
0.16691794 -0.27685937 0.13416046 0.28829992 0.22191948 -0.25883687 -0.13293152 -0.071840495
-0.4963464 -0.35193655 -0.12472237 -0.48529217 0.25481436 -0.21081343 0.5814091 -0.10262394
-0.018590264 0.35755804 0.3536082 0.1886199 0.09165013 0.019966157 0.09158009 -0.015175959
-0.3656146 -0.28802243 -0.46244332 -0.044894926 -0.16638525 -0.12463865 0.073446 0.10945842
0.118725784 0.11243679 0.17265402 0.12459651 0.20706236 -0.13871726 0.082002036 0.22834435
0.057578433 0.44131547 0.013903909 -0.32687843 0.61827123 0.4803451 -0.34065628 0.08816414
0.14866947 -0.32236153 0.0069598495 0.012065309 -0.16653036 -0.48537892 0.43945578 0.026979482
-0.2773642 0.15138894 0.010542695 0.26847416 0.08521299 -0.5647172 0.27152643 0.17581181
0.17406033 -0.45573947 0.090171404 0.11784779 -0.6496592 -0.18726341 -0.19916713 0.21727295
0.52713406 -0.33124825 -0.14485687 0.32501182 0.013211478 -0.10591558 -0.2924391 -0.40129426
0.088745594 0.15596013 0.06931 -0.06825672 0.27994725 0.0867489 0.20909633 -0.046862796
0.126455 0.42111886 -0.12043767 0.1715606 -0.0105897905 -0.22285718 0.31058437 -0.13178098
-0.1137664 0.18516572 0.2875322 0.17497446 0.060686436 0.14473084 0.0418503 0.33295432
00000000: 727a 4f3e 74e9 8e3b 9678 7d3e e403 98bc
00000010: 0235 423d 4940 f33d 293b 43bc 43f9 7d3d
00000020: bf1f cc3d d0dd f8be 7100 0ebd 0aa4 9dbe
00000030: f71c 25be 1bc9 0f3f 8dcf ee3d 30aa 6bbd
00000040: 9dbf 3bbd ba55 793e d866 073e 8087 113e
00000050: 512a 63be eb93 93be 2a7f 853c 7e02 ca3d
00000060: f279 783d 3d84 8dbe 8df8 283e 4e0f 3f3e
00000070: 827c dfbe 1ffc c3be c7a4 2bbf f272 aebe
00000080: dfcc 993b db9e 39be d6c3 9dbe 416d 47be
00000090: 78f6 9d3d 8282 da3d 9807 b13c 1d51 093e
000000a0: 2913 973d 181b b03e 2c0c b93e 7e88 913e
000000b0: 6ec5 083d 242b d9bb b3ec d33c 80a5 073e
000000c0: 2b01 abbd 9316 f63d c7d0 bebe 44c9 213c
000000d0: 15e6 24be ff7e 18bf a2ca 103e af43 e2bd
000000e0: b6e2 d1be 55f8 423d 1408 fd3c 69ef b9bc
000000f0: 2f5d 113e c0e3 893d af95 88bd 79a8 573e
00000100: 34da 2e3e f169 8f3e 9632 403e c699 80bc
00000110: 4890 973e 4b3d 17bf 9c48 803e 6e98 d43d
00000120: f061 3e3c 80b5 71bc 4aa7 4f3d 4242 0dbe
00000130: 7127 083e b9f3 b5be 1715 4abc f550 0abe
00000140: c5b1 103d 2b57 343e c7e5 503d fdd9 b73d
00000150: af09 f13d 7a0d 663e bb87 973d 4d74 9c3d
00000160: 8550 933d e152 a8be 0fc9 b0bd 0eae 363e
00000170: 962c 97be 62cc 93be eaff e3bd 5312 993e
00000180: b75e 253e 8719 babd bdbe 16be a5d5 ef3d
00000190: e010 e9bd 650c c83c 7954 9c3e 2e69 813e
000001a0: 57cb 863d a61d 923e e90b 8f3e 0b2b a4bc
000001b0: 686c 0b3d 7cfc 043b 4cca ea3d ea8c 223d
000001c0: 4c40 8bbe a872 31bd a69f 893e 3fa4 e83d
000001d0: b96f 03be 51fd afbd 06a6 2c3e e19b 1abd
000001e0: 90b7 113d 5132 153c b0ad 093c 8551 0e3e
000001f0: 39eb 423e d0d8 283d 238a c43d 49fd 653e
00000200: 9998 433e dc93 b5bd 2451 ce3d 4f7a 823d
00000210: 182e 45bd acde c7bc 6568 c13d e980 3abe
00000220: a6ad 9a3e 44cc 83be dec6 2c3e 59d6 87be
00000230: 55dd d8be 4832 1ebf 4f86 ae3d 851e c03e
00000240: a54b 093e b965 463e 60e5 1b3e e9ff 303e
00000250: 7479 3bbe 057e 14be 6d28 85be 167d 0a3e
00000260: 89ec 2a3e 83c0 8dbe 5c61 093e 0c9c 933e
00000270: dc3e 633e 4486 84be 331f 08be 1c21 93bd
00000280: 1e21 febe 0731 b4be 716e ffbd 3778 f8be
00000290: 0777 823e 7adf 57be 3ad7 143f 802c d2bd
000002a0: 9c4a 98bc d911 b73e 220c b53e 9325 413e
000002b0: 10b3 bb3d 1190 a33c 588e bb3d 96a4 78bc
000002c0: d631 bbbe ad77 93be 5fc5 ecbe bee3 37bd
000002d0: e560 2abe 8c42 ffbd db6a 963d bc2b e03d
000002e0: 8126 f33d 4245 e63d 37cc 303e 742c ff3d
000002f0: 2808 543e e60b 0ebe aff0 a73d 1ad3 693e
00000300: 5dd7 6b3d 1af4 e13e 39cd 633c 9c5c a7be
00000310: 0647 1e3f cbef f53e 806a aebe 678f b43d
00000320: cf3c 183e 920c a5be 730f e43b 93ad 453c
00000330: ef86 2abe 9683 f8be 5900 e13e 1304 dd3c
00000340: ae02 8ebe b405 1b3e 45bb 2c3c 7275 893e
00000350: 2684 ae3d 4e91 10bf 8305 8b3e 0308 343e
00000360: df3c 323e af56 e9be c9ab b83d 2f5a f13d
00000370: 1150 26bf fbc1 3fbe 78f2 4bbe cd7c 5e3e
00000380: 42f2 063f 5f99 a9be 5c55 14be f367 a63e
00000390: f474 583c 45ea d8bd 94ba 95be 7176 cdbe
000003a0: 40c0 b53d 03b4 1f3e 67f2 8d3d 2eca 8bbd
000003b0: 3f55 8f3e 68a9 b13d 591d 563e 34f3 3fbd
000003c0: 6b7d 013e e49c d73e 06a8 f6bd 95ad 2f3e
000003d0: cd80 2dbc ac34 64be ea04 9f3e 98f1 06be
000003e0: 5cfe e8bd 159c 3d3e 6c37 933e 812c 333e
000003f0: 5792 783d 5234 143e 386b 2b3d fd78 aa3e

layer3.bias f4 [4]
0.19788723 0.14829269 0.1441121 0.1278422
00000000: f3a2 4a3e 0ada 173e 1f92 133e 11e9 023e
