p1_navigation/qnetwork_local.pt (torch_old, 28444 bytes, 6 tensors)

layer1.weight f4 [64, 37]
000000 04 31 f1 bc 1c 4c 09 3e 4e 63 9b 3c fe f8 79 3e
       -0.029442318 0.1340794 0.01896825 0.24411389
000010 0c 0e de 3d d6 85 db be 30 fa 80 3e 44 2a 6e 3e
       0.10842523 -0.42875546 0.25190878 0.2325831
000020 ef 82 83 be 00 89 ab bf b4 bc 17 3e 27 49 38 3d
       -0.25685832 -1.3401184 0.14818078 0.04499164
000030 13 54 70 3d 43 0a 15 bc 4b 20 c6 bd 71 9e ca 3d
       0.05867393 -0.009096685 -0.09674128 0.098935015
000040 9e 53 13 bd 6b d3 8e 3d 2d 7b 2e 3b da a4 33 bc
       -0.035968415 0.069739185 0.0026623711 -0.010964597
000050 c5 d0 10 be 71 91 d6 3d 7d 3e f0 3b 54 8a 8b bc
       -0.1414214 0.104769595 0.007331668 -0.017033733
000060 89 c4 6e be 2c 4d 92 be 72 9f 1d 3e 1c 67 67 3d
       -0.2331716 -0.28574502 0.15392855 0.056494817
000070 00 9c 00 bf 0c 7e 35 bf ea 8b 8d bd 21 09 44 3e
       -0.5023804 -0.7089546 -0.06911452 0.19144107
000080 ff a4 7c 3e b0 03 ac bd 8b 07 7d bf a2 a1 dc 3c
       0.24672316 -0.08399141 -0.98839635 0.026932541
000090 6b 22 ca 3c 7b ec 62 3e 91 d3 01 3e a2 ab 24 be
       0.024674615 0.22160523 0.12678362 -0.16081098
0000a0 4a 3e 2d bc 9a f4 f9 be 3b 46 f5 3b cd 5c 9e 3e
       -0.010573933 -0.4881943 0.0074851788 0.30930176
0000b0 c8 4c ba bc 8a 0a 23 3e bb ee 1d 3e 49 e3 99 3e
       -0.02274169 0.15921989 0.154231 0.30056217
0000c0 4c 40 1f bf 47 ef bb bd 74 bc bc be d0 82 a1 bf
       -0.62207484 -0.09176498 -0.36862528 -1.2618046
0000d0 c2 0a 32 bd b4 2e 2f bd 38 20 83 3e 34 2c 82 be
       -0.04346729 -0.04276915 0.25610518 -0.2542435
0000e0 24 54 f8 be 33 b0 a4 3d 60 4f fc 3c b8 d0 de bb
       -0.48501694 0.0804142 0.030799568 -0.0067997836
0000f0 23 25 60 be cb b8 c5 3c 4a 0f c9 bd 98 94 28 be
       -0.21889167 0.024135968 -0.09817369 -0.16462934
000100 96 4f 63 3e fd 8d f0 3d 82 5a 2f 3d 8a 78 38 be
       0.22198328 0.11745832 0.042810924 -0.18014732
000110 9f f0 42 be a0 ab 88 3d 7e a7 f7 3d 3e 74 94 3d
       -0.19037102 0.0667336 0.120924935 0.07248734
000120 08 24 05 3e 7b a3 b1 bc a7 25 2d 3c ba 1e 9e be
       0.13002026 -0.021684399 0.010568059 -0.30882818
000130 86 a8 9e 3d 66 5d 2c be 07 eb 96 be 98 e7 cf 3d
       0.07746987 -0.16832504 -0.29476187 0.10151595
000140 2f 9d ee bd 0f 59 e5 3c c0 34 d3 be 21 09 04 c0
       -0.11651074 0.027996568 -0.41251183 -2.0630572
000150 06 dc 87 3e 36 59 b6 be 66 be af 3a 0b 42 08 be
       0.26535052 -0.35614938 0.0013408184 -0.13306443
000160 c4 af 59 be cd a7 51 3e cd d7 41 be 4e 38 b6 3c
       -0.21258456 0.20474167 -0.18929978 0.022243645
000170 90 df 3b 3d 84 33 7d be 31 d0 31 3d 97 71 6b bd
       0.045867503 -0.24726683 0.043411437 -0.057481375
000180 28 10 89 3d 09 ce 7c be 51 ba b0 be 8f 53 8a bd
       0.06692535 -0.24687971 -0.34517148 -0.06754219
000190 0e 51 81 be 6d 10 7c 3e c0 ca 9a be 9e c8 95 be
       -0.25257152 0.24615641 -0.3023281 -0.2925462
0001a0 c5 d1 a2 bd a6 e1 08 3e ac f9 6f bd 8d f3 1f bf
       -0.079501666 0.13367328 -0.058587715 -0.62481004
0001b0 e0 ed d1 be b9 3b b4 bd 62 44 bd 3a a9 96 06 3e
       -0.41001797 -0.08800454 0.0014439935 0.1314341
0001c0 44 59 0c bd b5 f8 21 bd a7 94 1b be 40 80 98 3d
       -0.034264818 -0.039543826 -0.15193425 0.07446337
0001d0 1f 4c 52 3e 2f 0e 0c bf 73 f4 df bd 11 f4 06 bf
       0.2053685 -0.5470914 -0.10935297 -0.52716166
0001e0 56 ba 5e c0 0b ab 92 3d 04 4f c2 bd 2d 2c 6d bc
       -3.480123 0.0716153 -0.09487727 -0.014475864
0001f0 fa bd 47 be bc 29 84 be 26 44 5e 3b 79 b6 20 bd
       -0.19506064 -0.2581309 0.0033915131 -0.03923652
000200 e6 17 1c 3e 52 15 51 be 33 dd 20 3e f8 aa e9 3d
       0.15243492 -0.2041829 0.15709381 0.11409563
000210 fa 85 60 be 69 46 88 3d bc 87 52 3e 20 f7 89 bd
       -0.21926108 0.06654055 0.20559591 -0.067365885
000220 6d b4 dc bd 15 bc 73 3d 88 b8 41 bc a5 f7 62 be
       -0.10776601 0.05950554 -0.011823781 -0.22164781
000230 02 a8 d3 be 60 ca c8 bd 27 b6 f0 3d 0b 92 dd 3c
       -0.41339117 -0.09804225 0.11753493 0.027047178
000240 74 7e 8c be 72 f3 3d 3e 45 a6 db 3d 3c 96 b0 3c
       -0.27440226 0.18549898 0.10725073 0.021556012
000250 6c 22 66 3d d3 97 8f be 0b a1 06 3e fe 73 d3 be
       0.05618517 -0.2804552 0.1314737 -0.41299433
000260 52 ee d3 be fd 66 93 be 87 37 70 3e 3a ef 1d be
       -0.4139276 -0.2878951 0.23458682 -0.15423289
000270 b7 7f e3 bd 50 16 0b 3f 67 7d b2 3d 37 e7 88 bd
       -0.11108344 0.5433092 0.08715325 -0.06684726
000280 18 e9 61 bd f4 d0 54 be 8b c4 a3 be 72 12 c7 bd
       -0.055153936 -0.20782834 -0.31985888 -0.09720315
000290 93 85 14 be 0c 13 a5 bd b2 ad d3 be b4 67 23 bd
       -0.1450408 -0.080602735 -0.41343457 -0.03989382
0002a0 fe 81 51 be 72 41 bc be 2b 36 10 3e cd 16 9c be
       -0.20459744 -0.3676868 0.14083163 -0.30486146
0002b0 6d b7 d5 bd 67 f4 a2 bd 35 b3 12 bf ae 27 b3 bd
       -0.10435376 -0.07956772 -0.573047 -0.08747803
0002c0 2a d7 5f 3d 4d 26 57 3d 0a ef 3a be 0e 68 fa be
       0.054648556 0.05252676 -0.18255249 -0.48907512
0002d0 61 cb 79 3e 93 47 85 3e 89 8d f6 bd 55 4d 9b bd
       0.24393989 0.2603117 -0.120387144 -0.07583109
0002e0 ef 6b b8 3d 12 38 be 3d 80 5e 24 3d 3b 3b e7 3d
       0.09004962 0.09288038 0.040129185 0.11290594
0002f0 35 29 8c 3d 4f 7b 28 bb f6 b7 58 3e 2c f8 16 be
       0.06843797 -0.0025708263 0.21163926 -0.14743108
000300 ce 59 92 bd 82 49 c6 be 1a dd 7e c0 9a c1 3e 3c
       -0.07146035 -0.38727957 -3.982245 0.011642838
000310 3c 36 36 bc 6f 78 fc ba f1 87 c1 3c 9a fe 26 bd
       -0.011121329 -0.0019261966 0.023624392 -0.04077015
000320 b7 5b 54 3d a3 bc 73 bd 4a 2f 30 bd 93 6f 70 3d
       0.05184528 -0.05950607 -0.04301385 0.058700155
000330 64 71 a5 3c 11 27 91 bd bc 69 a5 bd 58 5a aa bd
       0.02019567 -0.070875295 -0.08076808 -0.08318013
000340 e1 57 c1 bd e0 12 53 3e fa 0d 87 3d 7a a0 1f 3e
       -0.0944059 0.20612669 0.06594463 0.1558856
000350 46 21 71 3d 25 81 78 3d 43 bf c3 bd e2 62 cf 3d
       0.058869623 0.060670037 -0.09557965 0.10126282
000360 32 fe aa 3e ac 4e 84 3e c9 92 20 3e 5c 9e a8 be
       0.3339706 0.25841272 0.15680994 -0.3293332
000370 30 4a 89 bb f1 d5 5d 3c 34 37 64 bd e8 54 e2 bc
       -0.004189752 0.013539777 -0.05571671 -0.027628377
000380 97 ba a1 3c 11 a9 04 3e 09 cb 2d 3e ba c7 a0 3d
       0.019742293 0.12955119 0.16971983 0.07850595
000390 59 fb c1 bc c7 c8 9a bd 30 42 a1 bd a5 da c3 3d
       -0.023679422 -0.075578265 -0.078739524 0.095631875
0003a0 b3 5e ec 3d 80 38 b3 3d 29 d4 18 3e d6 c5 04 3e
       0.115415 0.08751011 0.14924683 0.12966093
0003b0 f1 aa 7e bd bd 11 70 be bf 62 16 3e 71 42 6f 3d
       -0.06217474 -0.23444267 0.14686106 0.058412973
0003c0 a4 82 9c bc e6 38 1b bd ab 57 bd bd 79 ea 5a bd
       -0.019105263 -0.03789606 -0.09245237 -0.053446267
0003d0 2f 17 33 3b a0 a7 a5 3d 0c 91 dc 3d 03 73 90 3e
       0.002732705 0.080886126 0.10769853 0.28212747
0003e0 20 48 3c be 93 94 15 bd 9c 4c 08 bf b9 d6 45 c0
       -0.18386889 -0.036518645 -0.53241897 -3.0912306
0003f0 f0 5a 12 bd 1f f2 8e bd 78 a4 8b 3c f5 ab 05 3d
       -0.035731256 -0.06979775 0.017046198 0.032634694

layer1.bias f4 [64]
000000 74 a3 74 bc c7 0e 22 3e ce d7 33 3e 5d cc 49 3d
       -0.014931548 0.1582595 0.17562792 0.04926716
000010 69 69 70 be c4 33 e2 bc 34 19 3a 3b 23 5e bb bd
       -0.23477711 -0.027612574 0.002839637 -0.091488145
000020 3f 98 58 be 3a 27 80 3c 97 d9 21 be 6c 3c 8a 3d
       -0.21151827 0.015643705 -0.1580566 0.06749806
000030 e6 d0 35 be a6 20 33 be 83 bf 4e bd cc 00 a7 bd
       -0.1775547 -0.17492923 -0.05047561 -0.08154449
000040 5c 65 82 bd fc ea 9a 3d 46 a4 29 3b 6a a2 2f be
       -0.06366989 0.07564351 0.0025885268 -0.171518
000050 b5 5b b0 bd c1 3c 32 bc 89 9e 9e bc d4 78 a3 bd
       -0.08611242 -0.010878743 -0.019362705 -0.079820305
000060 7d 52 01 be 77 7a 88 be 62 ce a2 bd 1e 48 65 be
       -0.12629123 -0.26655933 -0.07949521 -0.22390792
000070 04 76 2b 3e 13 00 fb 38 9b 7b 8c bd fc d8 67 be
       0.16744238 0.000119686265 -0.06859513 -0.22641367
000080 f4 bf 6e be f9 5e 9c bd 7d c9 66 bd 6d 5b 6b 3d
       -0.23315412 -0.07635302 -0.056344498 0.057460237
000090 96 15 9c bd 9e 4a 07 3d 4d 11 ec 3d e9 cb b8 bd
       -0.07621305 0.033030145 0.11526737 -0.09023268
0000a0 7b 88 18 be 3a 24 b4 bd 71 c0 24 be 39 d2 ee 3c
       -0.14895813 -0.08795972 -0.16089036 0.029152976
0000b0 c9 ee 69 3e be ae 10 be dc 17 46 be ce e7 46 bd
       0.22844996 -0.14129159 -0.19345039 -0.04856091
0000c0 bc d6 63 be 36 f8 e7 3d 82 a3 d5 bc 02 a6 41 3e
       -0.22249883 0.11326639 -0.026078943 0.18910983
0000d0 19 d2 f7 bd 17 05 a3 be 22 bc 03 3d b8 2a f7 3b
       -0.1210062 -0.3183982 0.03216184 0.0075429343
0000e0 9f c6 26 3e 20 50 8b 3b b0 ae 71 3d 96 3d d0 bd
       0.16286705 0.004251495 0.059004486 -0.101679966
0000f0 28 9a 0b bd e0 f1 1d bd bc cb e5 3d 60 0c 36 bc
       -0.03408256 -0.038560748 0.112205 -0.011111349

layer2.weight f4 [64, 64]
000000 7e db 80 bd ea 23 19 3e 3a 56 95 3c 15 a5 a9 3d
       -0.06291865 0.14955106 0.018229593 0.0828344
000010 8b a1 63 3d 28 f2 2c 3e c8 47 9a bd c8 ee 41 bd
       0.05557398 0.1688925 -0.075332224 -0.04734686
000020 c8 85 85 3d 01 87 0d 3d 16 d1 aa 3c 1f 68 d9 3d
       0.065196574 0.034552578 0.020851653 0.10615563
000030 96 e9 24 3d c1 b0 f0 bb d3 f5 ee 3e 98 b2 45 3e
       0.040261827 -0.0073452895 0.46671924 0.1930641
000040 2f 4c cf bd f3 f7 1a bd d9 43 92 3d 6e a8 75 3e
       -0.10121953 -0.03783412 0.07141847 0.23990032
000050 3e 9f a0 3b 3e 86 08 bf fe ba 7d be a1 44 b4 bd
       0.0049017956 -0.5332984 -0.24778363 -0.088021524
000060 59 93 e6 3d 71 da 92 3c 3f d7 23 3f 0c 96 e1 bc
       0.11258573 0.017926427 0.64000314 -0.027537368
000070 56 29 a8 3e e9 eb 9e be 22 8c 99 3e 84 f8 93 3c
       0.32844037 -0.3103936 0.29989725 0.018062837
000080 1d 11 91 bd 2f 21 00 be ad a5 17 3e 62 1a 95 bc
       -0.07083342 -0.12512659 0.14809294 -0.018201057
000090 34 22 f2 bd 82 d2 26 be df 26 0b bd cf d0 5b bd
       -0.1182293 -0.1629124 -0.033972617 -0.053665932
0000a0 20 7f 2d bd 96 83 29 3b 45 a8 a9 bd d1 7c 55 be
       -0.042357564 0.0025865785 -0.08284048 -0.20848395
0000b0 46 ee 06 3f aa d8 68 bd 4c ff 92 bb 05 68 21 be
       0.52707326 -0.056847252 -0.004486 -0.15762337
0000c0 38 fc 14 bd 91 8e 14 3e fd 66 12 3e 13 27 9d 3e
       -0.036373347 0.1450751 0.142971 0.30693874
0000d0 b6 8a b3 bd 6e 71 97 bd 0e b2 f1 bc b3 e2 bd 3c
       -0.087666914 -0.07394682 -0.029503848 0.023179388
0000e0 38 38 12 3e 8e 8e 81 bd e1 3e f5 3d 0d 03 86 3e
       0.14279258 -0.06326018 0.11974884 0.26174203
0000f0 b7 5b bc bd 1e b0 23 3d 40 b7 d3 3e a8 73 ec be
       -0.09197181 0.03996288 0.41350746 -0.4618199
000100 cc ba 5c 3e 18 51 6a bb 6d 09 27 3e 8f 99 33 be
       0.21555632 -0.0035753902 0.1631219 -0.17539047
000110 4b c3 9f 3d 93 13 ec bd a5 99 0d bd b7 c5 21 be
       0.07800921 -0.11527171 -0.034570355 -0.15798078
000120 75 a8 e6 be a4 c4 62 be 4c a7 93 3d de 6c 8e 3e
       -0.45050398 -0.22145325 0.07209644 0.27817434
000130 4d 68 80 be 22 54 ea be 8d 6b c3 be b9 8f 87 3e
       -0.25079575 -0.45767313 -0.38167992 0.2647684
000140 c2 c5 19 3e c1 16 d6 be 91 3a 0f bf 0e cb 50 3e
       0.15016845 -0.41814235 -0.5594874 0.20389959
000150 5d b9 c6 be 76 cd 61 3e ec a2 a2 3b 3e fc b2 3d
       -0.38813296 0.22051033 0.0049632695 0.08739518
000160 73 10 1b 3e 8f 40 75 be ba a9 f2 bd 7d 19 7b 3e
       0.15142994 -0.23950408 -0.11848779 0.24521442
000170 fd 5e 03 be 8d 32 10 be d1 2c 30 3e 61 2d 96 bd
       -0.12829204 -0.14081784 0.17204596 -0.07332874
000180 24 4c 06 be 39 1b 02 bd 10 db 1d 3e d1 b2 fc 3e
       -0.13114983 -0.031764243 0.15415597 0.49355176
000190 ae 12 b3 be bb a6 45 bd bf 08 e4 bd 35 b5 89 bc
       -0.3497519 -0.04825471 -0.11134481 -0.016810039
0001a0 47 40 b9 bd 4b 74 a0 3d 4f 3f b0 bd 9a 90 4f bf
       -0.09045463 0.07834681 -0.08605825 -0.8108002
0001b0 bf 6c fe 3c 04 0c 1a 3e b1 20 a1 be 57 13 37 be
       0.031057714 0.15043646 -0.31470254 -0.17878471
0001c0 b0 3e 8d be 1e 1c cf bc 63 65 d7 bd bd 59 29 bf
       -0.2758689 -0.025281962 -0.10517385 -0.66152555
0001d0 12 6b 12 bf 76 0c 2a 3e 5f 22 d3 3d 8b bc 17 bf
       -0.57194626 0.16606316 0.1030929 -0.5927207
0001e0 26 2a b8 be e4 a1 b0 3d 18 8c 09 be b5 cf 14 3e
       -0.35969657 0.08624628 -0.13432348 0.14532359
0001f0 26 86 bc be 8f 32 cb 3c b5 fb b1 3d 67 3a c5 be
       -0.36821097 0.024804382 0.086905874 -0.3852112
000200 a7 c2 06 bf 9c b3 fc bd 24 2a 27 3e 76 be 51 3d
       -0.52640766 -0.12338945 0.16324669 0.05120703
000210 f5 60 a7 bc de 0b 91 3e 37 b3 70 bd ae 80 1b 3e
       -0.020431975 0.28329366 -0.058764663 0.15185806
000220 06 21 05 3d cf 73 00 3e 45 69 d2 bd 2e f9 53 3e
       0.032502197 0.12544177 -0.10273985 0.20700523
000230 21 5c 2b bd 4a 7e 0c 3d b5 12 06 3f 51 7d d6 bd
       -0.041835908 0.034300126 0.52372295 -0.10473121
000240 88 25 0b be ec 53 ea 3c 78 93 20 bd 0e 43 10 3e
       -0.13588536 0.02860447 -0.039203137 0.1408808
000250 cc 58 97 bd 3a 91 41 3d 3e 2c b7 3d a5 e9 4a 3c
       -0.073899835 0.04725764 0.089439854 0.012384807
000260 ce 32 27 bd 6a 13 91 3c 55 1a de bd 78 c5 e0 bc
       -0.040819936 0.017709453 -0.10844866 -0.02743791
000270 a0 77 e3 3e db 5f 75 be e6 66 60 be df 8f e6 bc
       0.44427204 -0.23962347 -0.21914253 -0.028144775
000280 92 76 80 bd de 21 8a bb a4 66 f2 bd 22 f7 5a 3c
       -0.062726155 -0.004215463 -0.118359834 0.013364585
000290 5b 27 6c 3e 1e 48 19 bd 30 33 4a 3e fd 8a b0 bc
       0.23061888 -0.037422292 0.19746089 -0.02155065
0002a0 54 d4 8d bd f7 37 c7 bb 8f 1c f4 3d c2 ed 25 3d
       -0.06925264 -0.0060796696 0.119195096 0.040509947
0002b0 ad 7e 80 be 1b ba 39 3c a9 24 55 bd 9e 0e 2c bd
       -0.25096646 0.011335875 -0.052036915 -0.042006128
0002c0 2f 2f bb 3d aa 66 e1 bc f5 99 35 3e ec eb 6e 3e
       0.09139859 -0.027514774 0.17734511 0.23332185
0002d0 46 a9 e1 bc f9 8e 9a bd f8 4b 28 bb 00 16 3b 3c
       -0.027546536 -0.07546801 -0.0025680047 0.011418819
0002e0 51 18 bd 3e 28 d2 52 3d df db 7e 3e 40 7b a5 3b
       0.36932614 0.051469952 0.24888562 0.005050093
0002f0 72 51 97 bd 35 96 5f 3d 21 67 8a be 97 2a 52 3e
       -0.07388581 0.054586608 -0.27031806 0.20524059
000300 b2 a7 3b be 69 29 a5 3d f2 8d 1d 3e c5 33 f9 3d
       -0.1832569 0.08064539 0.15386179 0.121680774
000310 4a ba d7 3e d0 e0 c7 bd 26 3c 2a 3d 93 cc 13 be
       0.42134315 -0.097596765 0.04156127 -0.14433508
000320 a0 63 64 3e d8 c1 26 be 39 58 92 be 8c 71 4c be
       0.22303629 -0.16284883 -0.28582934 -0.1996519
000330 aa 37 83 3d 71 39 02 3e 22 74 3c be 24 cb f4 3d
       0.064071015 0.12717225 -0.18403676 0.119528085
000340 a3 ba fa bd fa aa 83 3e 07 d2 cb 3d 4d de cf bd
       -0.122426294 0.25716382 0.09952169 -0.101498224
000350 37 de d0 3d b1 d3 13 3e 3b ae 0e 3e d5 86 c4 3d
       0.10198634 0.14436223 0.13933651 0.0959603
000360 a0 5d 51 3d 6d 87 81 3c df b0 e6 3d 86 fb 4e 3d
       0.05111468 0.015811646 0.11264204 0.05053284
000370 a5 38 03 3c 11 73 cd be d6 48 44 be 6a 7a 0b bf
       0.008009111 -0.4012685 -0.1916841 -0.54483664
000380 24 fa 43 be 9f bd a7 3c 41 09 c5 be 43 be 28 be
       -0.1913839 0.02047616 -0.38483623 -0.16478829
000390 78 27 cf be 39 6d 7a bc ae b9 c8 bd c2 ea ca be
       -0.404598 -0.01528483 -0.098010406 -0.3963223
0003a0 e6 72 0f 3c 72 86 35 bd e1 35 c2 3d 95 60 39 bd
       0.008755421 -0.04431767 0.09482933 -0.045258123
0003b0 77 2f 63 3e 52 b5 fb be eb e3 76 bd 5b 5d 08 bc
       0.22186075 -0.49161774 -0.060275953 -0.008323039
0003c0 f2 08 be be 2b 7b 44 bd 82 d5 9b 3d 98 d4 42 be
       -0.371162 -0.047969025 0.07609083 -0.1902641
0003d0 e3 f6 83 be d7 15 e6 bd f6 d0 95 3e 21 34 29 be
       -0.25774297 -0.11234634 0.29260987 -0.16523792
0003e0 06 5b 1d bd 2a 24 96 be 7b 33 21 3d af 59 c3 bc
       -0.038416885 -0.29324466 0.039355736 -0.023846475
0003f0 d3 69 94 3d 8a 4a 99 3c 10 0a 02 be 31 67 a1 3d
       0.07246747 0.0187123 -0.12699151 0.0788101

layer2.bias f4 [64]
000000 37 b9 d4 3d 32 3e 0e 3c 2a 20 bf 3d bb ac 43 3c
       0.103868894 0.008681821 0.09332307 0.011943038
000010 0c a4 5f be fa 79 75 be 1e 6f 59 be f0 ef 86 bb
       -0.21839923 -0.23972312 -0.21233794 -0.0041179582
000020 63 c8 81 be 18 83 62 bd 39 2c 57 3b be 59 d4 3b
       -0.25348195 -0.055300802 0.0032832755 0.0064804247
000030 12 a0 88 bc 70 59 bc bd b8 57 00 be 8e 33 53 be
       -0.01667789 -0.09196746 -0.12533462 -0.20625135
000040 cd f5 57 be 6e d8 d4 bc d3 d5 ad bd 00 d4 ff bc
       -0.2108986 -0.025982108 -0.08488049 -0.03122902
000050 2f 68 af be 7e b4 9d bd 17 94 b9 bd 5b b3 3c 3e
       -0.34259173 -0.07700442 -0.09061449 0.18427794
000060 99 45 e4 3d 62 44 1d be d5 54 26 bd dd 35 05 be
       0.11146087 -0.15358117 -0.040608246 -0.13008828
000070 ab 43 62 be af 2e 0c be bf 95 23 bd fb 2b f7 bd
       -0.22096126 -0.13689683 -0.03993773 -0.120689355
000080 f1 40 8e bd 55 d7 db bc e0 ce 07 3e 03 b2 8f be
       -0.0694598 -0.026836077 0.1326251 -0.280655
000090 88 1c b8 bd 92 a2 b7 bd 81 53 12 bd be c6 0c 3d
       -0.08989817 -0.08966555 -0.035724167 0.034369223
0000a0 d5 5d 99 3c b1 2d d9 bd dc 0f db bd 8b 18 b3 bc
       0.0187215 -0.10604418 -0.10696384 -0.021862289
0000b0 40 6d 16 be f7 a1 a9 3d a7 7f c4 bc 57 66 a4 3c
       -0.14690113 0.082828455 -0.02398665 0.02006833
0000c0 33 ed 3a bd 88 cb d2 bd 0b fd 41 be 33 09 2b bd
       -0.045636367 -0.10292727 -0.18944184 -0.04175682
0000d0 77 c3 26 be d1 c1 c3 bd 6b dd ef 3c 93 3c 86 3c
       -0.16285501 -0.09558452 0.029280385 0.016386306
0000e0 22 cc ab bd 9c 34 a0 bd c5 f1 2a be 47 79 32 bd
       -0.083885446 -0.078225344 -0.1669379 -0.04357269
0000f0 fa 0b 0e bd 1b fb 69 be a2 97 8f be 86 43 1c bc
       -0.03467939 -0.22849695 -0.28045374 -0.009537583

layer3.weight f4 [4, 64]
000000 db 28 4f 3e b5 65 03 3c 95 03 7c 3e 35 71 f8 bc
       0.20230429 0.008019854 0.24610741 -0.030327419
000010 aa 06 2a 3d e2 3e f3 3d cd 3a 43 bc 1b eb 62 3d
       0.04151026 0.11877228 -0.011915875 0.055399995
000020 07 86 d0 3d 60 75 f4 be a8 3a 18 bd 73 4a a0 be
       0.10181814 -0.477458 -0.037165314 -0.313068
000030 ae 02 23 be 7e b6 0f 3f 20 cb ee 3d a4 2f 6b bd
       -0.15918991 0.56137836 0.11659837 -0.05741848
000040 c2 20 59 bd 7f fd 77 3e e7 24 06 3e dc 6a 10 3e
       -0.053009756 0.24217795 0.13100015 0.14103264
000050 c3 f3 68 be 56 62 97 be fd e5 58 3c c8 ba c8 3d
       -0.22749238 -0.29567212 0.013238427 0.09801251
000060 38 fc 6f 3d 72 2f 89 be 8d ee 2b 3e 2b 90 36 3e
       0.058590144 -0.2679401 0.16790219 0.17828433
000070 5e eb db be b6 a3 cc be 7f a4 29 bf d1 71 ad be
       -0.42953008 -0.39968652 -0.66266626 -0.33875898
000080 52 73 53 bc d8 51 37 be 9f fa 9c be 80 f2 46 be
       -0.0129059125 -0.17902315 -0.3065996 -0.19428444
000090 a2 68 aa 3d ce c6 f1 3d 81 6d 44 3c 88 f9 08 3e
       0.083207384 0.11805497 0.011988998 0.13376439
0000a0 8e ef 91 3d 90 42 ae 3e f3 1b b5 3e 43 45 95 3e
       0.071257696 0.34035158 0.35372886 0.29154405
0000b0 ee 57 03 3d 9e 08 9b bc de 05 bf 3c a1 d0 f9 3d
       0.03206628 -0.018925007 0.023318227 0.12197996
0000c0 e5 2b b3 bd cf 5b f2 3d f4 a4 be be a2 14 80 3b
       -0.087486066 0.11833917 -0.37235224 0.0039087096
0000d0 c7 bf 2b be 1b 4b 18 bf b3 ee 10 3e 0a 05 f2 bd
       -0.16772376 -0.594896 0.14153557 -0.118173674
0000e0 f2 d8 d4 be 92 2f 4d 3d cb 6a f9 3c 3e f2 d4 bc
       -0.41571766 0.050094195 0.03044643 -0.025994416
0000f0 e6 bc 1a 3e c7 b2 99 3d 78 6e 93 bd 64 c9 4f 3e
       0.15111122 0.07504802 -0.071988046 0.20291668
000100 71 b8 2a 3e 5b b0 90 3e b7 f7 3c 3e 1e 8b 15 bd
       0.16671921 0.2825955 0.1845387 -0.036509626
000110 53 a6 a3 3e 9a 3a 17 bf 26 af 89 3e 88 5c d6 3d
       0.31962833 -0.59073794 0.2689144 0.10466868
000120 a8 a1 fe 3b 97 22 9c ba 67 f2 69 3d 62 df f1 bd
       0.007770736 -0.0011912164 0.05711594 -0.11810185
000130 00 48 08 3e 89 95 b8 be 95 15 4a bc 81 41 0e be
       0.13308716 -0.36051586 -0.012334247 -0.13892175
000140 7e f2 26 3d 7d 7a 28 3e 5e 46 4c 3d cd 1d a0 3d
       0.040758602 0.16452976 0.049871795 0.07818184
000150 b7 ce fa 3d 71 fb 6b 3e 7c f8 93 3d 0f 30 97 3d
       0.12246459 0.23045136 0.07225129 0.07382213
000160 ed ad 8c 3d f4 8f a5 be 8d f7 9c bd 6f 7d 33 3e
       0.06869111 -0.3233639 -0.07664404 0.17528318
000170 8f af 94 be 86 8c 8d be 56 88 d0 bd 99 39 9b 3e
       -0.2904019 -0.27646273 -0.10182254 0.3031738
000180 a3 13 25 3e 06 a3 d5 bd 3e d6 0c be a7 3e f5 3d
       0.16120772 -0.10431485 -0.13753602 0.119748406
000190 74 cc e4 bd 1e 8a d0 3c 70 60 9e 3e ec 60 83 3e
       -0.11171809 0.025456484 0.3093295 0.25659883
0001a0 22 91 81 3d ca 48 93 3e d8 7c 93 3e b7 82 dc bc
       0.0632651 0.2876647 0.28806186 -0.026917798
0001b0 b6 2f 0c 3d eb 5f 0e b9 51 75 e2 3d 40 c3 f7 3c
       0.03422519 -0.00013577908 0.110575326 0.03024447
0001c0 8f 98 8b be 25 a9 14 bd f9 ed 88 3e e9 5b e8 3d
       -0.2726483 -0.03629412 0.2674406 0.113456555
0001d0 7d 08 fa bd 00 00 b0 bd ee 75 22 3e 14 68 0c bd
       -0.1220865 -0.0859375 0.15865299 -0.034278944
0001e0 0e 03 27 3d b0 53 6b 3c 49 fa 9b 3c 87 2e 1b 3e
       0.040774398 0.014363214 0.019040244 0.15154468
0001f0 68 64 42 3e 94 3d 6d 3d f2 e7 e4 3d 6d e7 68 3e
       0.18983614 0.057920054 0.111770526 0.22744532
000200 ab db 45 3e 66 cb 98 bd d6 07 cf 3d 2c d8 2f 3d
       0.19322078 -0.0746067 0.101089165 0.042930767
000210 90 88 94 bd 77 dc c7 bc 70 64 c1 3d 4a d3 2c be
       -0.0725261 -0.024397118 0.09442985 -0.16877475
000220 85 12 9b 3e 79 ea 84 be f9 7c 2d 3e 71 6f 87 be
       0.30287567 -0.25960138 0.16942205 -0.2645221
000230 86 f0 d6 be 50 17 1d bf 84 84 ae 3d 73 1e c6 3e
       -0.4198038 -0.613637 0.08521369 0.38695106
000240 9f 27 08 3e 2b 0d 36 3e e1 74 11 3e aa a5 21 3e
       0.13296364 0.1777846 0.14204742 0.15785852
000250 91 8a 37 be 29 dc 00 be f0 a3 85 be 97 0b 08 3e
       -0.17923953 -0.12583984 -0.26101637 0.13285671
000260 82 be 29 3e a4 cb 8e be f7 88 f9 3d 40 22 90 3e
       0.16576579 -0.2788974 0.12184327 0.2815113
000270 10 80 61 3e 42 d8 84 be 8c c6 00 be 8c ac 91 bd
       0.22021508 -0.25946242 -0.1257574 -0.07112989
000280 e8 3b 06 bf cc 7e b7 be be 69 01 be c4 65 f8 be
       -0.5243516 -0.35838926 -0.12637994 -0.4851514
000290 7f d1 83 3e ed 73 3f be 3b ff 14 3f f5 d7 c0 bd
       0.2574577 -0.18696566 0.5820195 -0.094161905
0002a0 87 64 b7 bc 24 85 b3 3e 43 d3 b4 3e 07 60 3d 3e
       -0.022386802 0.35062516 0.3531743 0.18493663
0002b0 5b 3c bc 3d 1f 96 a6 3c dc 6b b8 3d d4 0a 13 bc
       0.091911994 0.020335255 0.090049475 -0.00897475
0002c0 c1 9e bc be 07 4e 99 be ec c9 ed be cf 06 2a bd
       -0.3683987 -0.29942343 -0.46443117 -0.0415104
0002d0 b6 7e 21 be da 41 ff bd 70 c6 a9 3d 76 49 ef 3d
       -0.15770993 -0.12463732 0.08289802 0.116839334
0002e0 d5 26 db 3d 90 77 e3 3d be 12 2b 3e e0 49 0a 3e
       0.10700766 0.11106789 0.16706368 0.13504744
0002f0 62 2e 4c 3e 10 10 f8 bd 2f 21 8a 3d fe 59 72 3e
       0.19939569 -0.12112439 0.067446105 0.23667142
000300 7e 45 76 3d 21 28 e9 3e d2 e9 4b 3c 0a 75 a8 be
       0.060124867 0.45538428 0.012445884 -0.32901794
000310 08 7d 1e 3f e4 ec f5 3e cd 63 ae be fe b6 ab 3d
       0.6190953 0.48032296 -0.34060517 0.08384512
000320 29 7e 26 3e 6a 44 aa be 45 8a 3c 3b df e6 f2 3b
       0.16259064 -0.3325532 0.0028768939 0.007412776
000330 5b e7 2f be 4d 94 f8 be ef fd e0 3e 10 d4 2e 3d
       -0.17178099 -0.48550645 0.43943736 0.042682707
000340 e5 9b 90 be db 76 15 3e 4e 56 b5 3c 95 53 86 3e
       -0.28243938 0.14596121 0.02213588 0.26235643
000350 ae d0 a4 3d 34 18 0b bf 80 67 8b 3e 91 7f 2f 3e
       0.08047615 -0.54333806 0.27227402 0.17138506
000360 1a 25 2f 3e bb 98 e8 be 4b 16 c7 3d 36 38 20 3e
       0.17103997 -0.45429024 0.09721049 0.15646443
000370 8b 3c 29 bf d1 bc 38 be 3d fa 4e be 2c 28 62 3e
       -0.66108006 -0.18040778 -0.20212646 0.22085637
000380 66 af 07 3f 15 40 a8 be 16 8d 0c be 4e 5d a6 3e
       0.5300201 -0.3286139 -0.13725695 0.3249306
000390 3c 35 ba 3c e4 78 f0 bd 6f e2 9b be d8 fb ca be
       0.022730462 -0.11741808 -0.30446193 -0.39645267
0003a0 55 ab ae 3d cf b9 1b 3e ef dc 93 3d 17 3c 35 bd
       0.08528773 0.15207599 0.07219874 -0.04424676
0003b0 1e 99 8e 3e d5 d5 9a 3d 52 6b 50 3e 9a 65 2c bd
       0.27851194 0.075603165 0.2035344 -0.042089082
0003c0 b3 1b 05 3e 29 5f d4 3e 69 16 01 be b2 c0 3a 3e
       0.12998848 0.4147885 -0.12606205 0.1823757
0003d0 ab d7 55 ba d1 31 64 be 9c e4 9d 3e b7 58 09 be
       -0.0008157442 -0.22284628 0.30838478 -0.13412748
0003e0 e4 6a e5 bd 47 f2 38 3e 24 22 90 3e eb 4f 27 3e
       -0.112020284 0.18061171 0.28151047 0.1633908
0003f0 2c e0 74 3d c6 75 24 3e e4 3a 6b 3d 5a ff a7 3e
       0.0597841 0.16060552 0.05742921 0.32812005

layer3.bias f4 [4]
000000 82 d8 4c 3e 17 98 18 3e 35 d5 15 3e 11 b2 05 3e
       0.20004466 0.14901768 0.14632113 0.13056208
