p3_collab-compet/agent1_critic.pt (torch, 98269 bytes, 9 tensors)

bn.weight f4 [48]
0	0x3f75e3f2	0.9605094
1	0x3f7f62fa	0.997604
2	0x3f5026de	0.81309307
3	0x3f6cc1d2	0.92483246
4	0x3f8fe370	1.1241283
5	0x3f8bfbff	1.0936278
6	0x3f4f3cfc	0.8095243
7	0x3f7685cd	0.96297914
8	0x3f6f4291	0.9346095
9	0x3f8582ac	1.0430503
10	0x3f51cf93	0.8195736
11	0x3f82ea2a	1.0227711
12	0x3f879523	1.0592388
13	0x3f853f46	1.0409935
14	0x3f4260aa	0.7592875
15	0x3f80fe60	1.0077629
16	0x3f8ad4fe	1.084625
17	0x3f82137f	1.01622
18	0x3f6068f3	0.8766014
19	0x3f8846d9	1.0646621
20	0x3f99f435	1.2027651
21	0x3f93ba1c	1.1541171
22	0x3f5e45d2	0.8682529
23	0x3f84ced0	1.0375614
24	0x3f64d398	0.89385366
25	0x3f86a1cd	1.0518128
26	0x3f4818f8	0.781631
27	0x3f728d51	0.9474688
28	0x3f90fc86	1.1327064
29	0x3f8722f7	1.0557545
30	0x3f50b722	0.8152944
31	0x3f74432e	0.9541501
32	0x3f66fa5a	0.90225756
33	0x3f7881ef	0.9707326
34	0x3f52949b	0.82258004
35	0x3f619e50	0.8813219
36	0x3f8223b5	1.0167147
37	0x3f819d70	1.0126171
38	0x3f5debef	0.8668813
39	0x3f67ac60	0.904974
40	0x3f8142b7	1.0098485
41	0x3f833d9c	1.0253177
42	0x3f572c44	0.8405192
43	0x3f89306b	1.0717901
44	0x3f93bcdc	1.154201
45	0x3f8c8275	1.0977312
46	0x3f55d832	0.8353301
47	0x3f8010f0	1.0005169

bn.bias f4 [48]
0	0xbe27a675	-0.16372092
1	0xbd0be768	-0.034156233
2	0x3d9779be	0.07396267
3	0xbcbcba1d	-0.023037964
4	0x3ca97e6e	0.02069017
5	0x3d77a7e5	0.06046285
6	0xbb8dcc0b	-0.0043273023
7	0xbe1b5667	-0.15169679
8	0xbdcb4510	-0.09925282
9	0xbdab0c95	-0.08352009
10	0xbd7998ad	-0.06093662
11	0xbdac7f16	-0.08422677
12	0xbdc3e947	-0.095659785
13	0xbc256891	-0.010095731
14	0x3d96c813	0.0736238
15	0xbd5927d4	-0.0530165
16	0xbdeca274	-0.11554423
17	0xbdd86458	-0.10566014
18	0xbcbcb59c	-0.023035817
19	0xbd2f7031	-0.042831603
20	0x3d830ffa	0.06399532
21	0x3d44d88b	0.048058074
22	0x3e14c84b	0.1452953
23	0xbe031c01	-0.12803651
24	0xbdd0712a	-0.10177834
25	0xbc4f998f	-0.012670889
26	0x3d6925ed	0.056920934
27	0x3c279a14	0.010229606
28	0xbcd1b34a	-0.025598187
29	0x3dc36ed5	0.09542624
30	0xbcb0e1e6	-0.021592092
31	0xbc8683e3	-0.01642031
32	0xbdccb2b5	-0.09995023
33	0xbbeb2633	-0.0071761846
34	0x3e1a5e19	0.15074958
35	0xbd2672ce	-0.04063683
36	0x3d790d36	0.060803615
37	0x3cd60080	0.026123285
38	0xbd6de4cc	-0.058079526
39	0xbc622f36	-0.013805201
40	0xbdacf22e	-0.084446296
41	0xbd03acc6	-0.03214719
42	0xbd7d1a87	-0.061792877
43	0xbc7eaeb1	-0.015544579
44	0x3c1f9dc2	0.009742202
45	0x3d9b60d4	0.07586828
46	0x3cacdf18	0.021102473
47	0xbc5b758b	-0.013394724

bn.running_mean f4 [48]
0	0xc0bd0b34	-5.9076176
1	0xbedc4343	-0.43020067
2	0x4046430b	3.097842
3	0xbc59ef4a	-0.01330168
4	0xbda05a7f	-0.07829761
5	0x407527f8	3.8305645
6	0x4046430b	3.097842
7	0xbc59ef4a	-0.01330168
8	0xc0c108ad	-6.032309
9	0xbedf5bfc	-0.43624866
10	0x403e484d	2.973163
11	0x3ded92a0	0.11600232
12	0xbd2568f1	-0.040383283
13	0x4076df48	3.857378
14	0x403e484d	2.973163
15	0x3ded92a0	0.11600232
16	0xc0c48de1	-6.142319
17	0xbedce012	-0.43139702
18	0x402ffeef	2.749935
19	0x3e060b45	0.13090236
20	0x3b3ae7d9	0.002851954
21	0x4076372d	3.8471177
22	0x402ffeef	2.749935
23	0x3e060b45	0.13090236
24	0xc0f9b788	-7.8036537
25	0xbe5918de	-0.21200892
26	0x3f9c96bf	1.2233504
27	0xbcd5bb38	-0.02609025
28	0x3da05a7f	0.07829761
29	0x407527f8	3.8305645
30	0x3f9c96bf	1.2233504
31	0xbcd5bb38	-0.02609025
32	0xc0fc77d9	-7.88963
33	0xbe696b4b	-0.22794835
34	0x3fc7204a	1.5556729
35	0xbb9f4d21	-0.0048614894
36	0x3d2568f1	0.040383283
37	0x4076df48	3.857378
38	0x3fc7204a	1.5556729
39	0xbb9f4d21	-0.0048614894
40	0xc0ffad31	-7.9898915
41	0xbe7198d8	-0.23593462
42	0x3f954e16	1.1664455
43	0x3c49edea	0.01232479
44	0xbb3ae7d9	-0.002851954
45	0x4076372d	3.8471177
46	0x3f954e16	1.1664455
47	0x3c49edea	0.01232479

bn.running_var f4 [48]
0	0x416564da	14.337122
1	0x3f7edad9	0.99552685
2	0x43ec9b4c	473.21326
3	0x4182ccd8	16.350021
4	0x41f2a425	30.330149
5	0x40319836	2.7749152
6	0x43ec9b4c	473.21326
7	0x4182ccd8	16.350021
8	0x41596793	13.587787
9	0x3f8205dd	1.0158039
10	0x43efc428	479.53247
11	0x4181886d	16.191614
12	0x420023e1	32.035038
13	0x402f9fa3	2.7441185
14	0x43efc428	479.53247
15	0x4181886d	16.191614
16	0x4155790f	13.342055
17	0x3f83c82c	1.0295463
18	0x43f74dc2	494.60748
19	0x4180d236	16.102642
20	0x42075555	33.833332
21	0x4038da4b	2.8883235
22	0x43f74dc2	494.60748
23	0x4180d236	16.102642
24	0x411c88bf	9.783385
25	0x3f504b9f	0.8136539
26	0x43b3a778	359.30835
27	0x41869883	16.824469
28	0x41f2a425	30.330149
29	0x40319836	2.7749152
30	0x43b3a778	359.30835
31	0x41869883	16.824469
32	0x410bca7a	8.736933
33	0x3f54a69c	0.83066726
34	0x43baa6bf	373.3027
35	0x418795da	16.94817
36	0x420023e1	32.035038
37	0x402f9fa3	2.7441185
38	0x43baa6bf	373.3027
39	0x418795da	16.94817
40	0x40f74ed4	7.7283726
41	0x3f56b7b7	0.83874077
42	0x43c034a6	384.41132
43	0x418ad944	17.356087
44	0x42075555	33.833332
45	0x4038da4b	2.8883235
46	0x43c034a6	384.41132
47	0x418ad944	17.356087

layer1.weight f4 [128, 48]
0	0x3dc88460	0.097908735
1	0x3da0a20e	0.078434095
2	0xbbe2ea81	-0.0069249277
3	0x3db8f43a	0.090309575
4	0x3b2bd253	0.0026217892
5	0x3ad19fd2	0.0015993065
6	0xbd2a6a89	-0.041605506
7	0x3d3e6a21	0.04648793
8	0x3db9eceb	0.09078392
9	0xbddec8c0	-0.10878134
10	0x3db3374a	0.0875078
11	0x3dfdc9dd	0.12392018
12	0x3e142f15	0.14471085
13	0xbd7087ed	-0.05872338
14	0x3cf2f4dc	0.029657774
15	0x3d9da1dd	0.076968886
16	0x3de714fa	0.11283298
17	0x3c8a595e	0.016888317
18	0xbdbc84a3	-0.09204986
19	0x3d9cf157	0.076632194
20	0xbdaf930f	-0.08572971
21	0xbd0abd40	-0.03387189
22	0xbdb0a3be	-0.08624981
23	0x3e0d040b	0.13771074
24	0xbddbeca5	-0.10738496
25	0xbd6a4c38	-0.057201594
26	0xbd7ac874	-0.061226323
27	0xbdafd623	-0.08585765
28	0xbc9fa933	-0.01948986
29	0xbe314707	-0.17312251
30	0x3def9e36	0.11700098
31	0xbdf8e9c1	-0.1215396
32	0x3e19801e	0.14990279
33	0x3cd34df9	0.025794016
34	0xbce709c0	-0.028202891
35	0x3d69da75	0.057093102
36	0xbc75a050	-0.014991835
37	0x3d17d497	0.037067976
38	0x3d2ff40a	0.042957343
39	0xbda052d6	-0.078283
40	0xbb4f327c	-0.0031615784
41	0xbd5c517e	-0.053788655
42	0x395c1911	0.00020990173
43	0x3e0c6891	0.13711764
44	0x3dcad323	0.099035524
45	0xbda33f36	-0.07971041
46	0x3c933fea	0.017974813
47	0x3d14a732	0.036292262
48	0x3dc29234	0.09500542
49	0x3b5f8f04	0.0034112344
50	0xbda477b2	-0.080306426
51	0xbd8a2ccc	-0.067468256
52	0xbcd47a4c	-0.025937222
53	0x3dd740ed	0.105104305
54	0x3dd2e411	0.102974065
55	0x3d3f8192	0.046754427
56	0x3d8ddd3d	0.069269635
57	0x3ce3bec1	0.02780092
58	0x3de0a947	0.10969787
59	0xbda4b561	-0.08042408
60	0x3d2d9a55	0.04238351
61	0xbd9a0ead	-0.075223304
62	0x3d3946ab	0.04523341
63	0xbcdd27d5	-0.026996532
64	0x3da7bd27	0.08190375
65	0x3aee483a	0.0018179484
66	0x3d362b17	0.044474687
67	0xbda12190	-0.0786773
68	0xbe1058f4	-0.14096433
69	0xbe423dff	-0.18968962
70	0x3d758146	0.059937738
71	0x3d5c738d	0.053821135
72	0x3e128ca1	0.14311458
73	0xbde5a4ef	-0.11213099
74	0xbe0a087e	-0.13479802
75	0xbdb28608	-0.08716971
76	0xbe3b08e9	-0.18265118
77	0x3d3d04f2	0.046147294
78	0x3d77d706	0.060507797
79	0x3e15d7b9	0.14633073
80	0xbc83e550	-0.016100556
81	0xbdc1c21f	-0.09460854
82	0x3db4a7a9	0.08821041
83	0xbcafe41a	-0.021471072
84	0x3d5d5752	0.054038353
85	0xbc08ef4a	-0.008357832
86	0x3db4860d	0.08814631
87	0xbd9a08bf	-0.075211994
88	0xbca6fac6	-0.02038325
89	0x3d2fcbe6	0.042919062
90	0x3dad3755	0.08457819
91	0xbcfd9798	-0.030956075
92	0x3e0ea08f	0.13928436
93	0xbbb511c9	-0.005525802
94	0xbd47608f	-0.04867607
95	0xbd92793c	-0.0715203
96	0x3d9fd6e1	0.07804657
97	0x3cf27247	0.029595507
98	0xbd8fa5bf	-0.070140354
99	0xbdb4ab18	-0.08821696
100	0xbd56a1f3	-0.05240054
101	0x3de0fc4e	0.10985623
102	0xbd28e128	-0.04123035
103	0xbd789123	-0.06068529
104	0x3cb363f2	0.021898244
105	0xbd16c731	-0.036811057
106	0xbe1a7339	-0.15083016
107	0xbd9408d7	-0.072282486
108	0xbe12f6c3	-0.14351945
109	0xbccfceec	-0.025367223
110	0x3df95ab1	0.12175501
111	0x3d0fa912	0.035073347
112	0x3dac8ffa	0.08425899
113	0xbdcdb46c	-0.10044178
114	0xbd32018b	-0.043458503
115	0x3c2c0cb2	0.010501074
116	0xbcc5de2b	-0.02415379
117	0xbe2bff31	-0.16796567
118	0xbbbbdd3a	-0.0057331594
119	0xbcf8629d	-0.03032046
120	0xbcb83a64	-0.02248878
121	0x3d2e80e1	0.042603377
122	0x3ba1e7a5	0.0049409443
123	0xbdaa5a57	-0.08318012
124	0xbe0547ee	-0.1301572
125	0xbbfc7d9c	-0.0077054035
126	0xbd2d5feb	-0.042327803
127	0xbdce523d	-0.100742795
128	0x3defee91	0.11715425
129	0x3d3bd558	0.045857757
130	0x3e0ecf7d	0.13946338
131	0xbb7dd1c3	-0.0038729764
132	0xbdd843b9	-0.10559792
133	0x3e2decf8	0.16984928
134	0xbd134403	-0.035953533
135	0xbdd1100c	-0.10208139
136	0xbe0f3d3a	-0.139882
137	0xbdb948f3	-0.09047117
138	0x3d3410e4	0.04396142
139	0xbae08c57	-0.0017131668
140	0x3ddbd15a	0.1073329
141	0xbe226a0f	-0.1586077
142	0x3df73a9a	0.12071724
143	0xbda22822	-0.07917811
144	0xbd6ffab6	-0.058588706
145	0x3c9914d6	0.018686693
146	0x3d859243	0.06522038
147	0x3db0a5d7	0.086253814
148	0x3de9ece5	0.11422137
149	0xbe10d00b	-0.14141862
150	0x3cd6933b	0.026193252
151	0xbdb8a858	-0.09016484
152	0xbd320c57	-0.0434688
153	0xbd7fc58c	-0.062444255
154	0x3e26cc66	0.1628891
155	0xbdb56e33	-0.088589095
156	0x3d145ba4	0.036220208
157	0x3d17c30b	0.03705124
158	0x3d97829a	0.07397957
159	0xbd7ca6d9	-0.061682556
160	0x3e285b07	0.16440974
161	0x3d786162	0.060639746
162	0x3ce38e58	0.027777836
163	0xbe19fc0e	-0.15037557
164	0x3d66bc73	0.056332063
165	0x3cfc425e	0.030793365
166	0xbd71ef37	-0.059066024
167	0x3dd04c80	0.10170841
168	0x3d76b067	0.060226824
169	0xbde72a39	-0.1128735
170	0xbd0edc83	-0.034878265
171	0xbbfae4ed	-0.0076566846
172	0x3dc709a3	0.09718635
173	0xbd81c515	-0.063364185
174	0xbd3805ca	-0.044927396
175	0xbd4f04c8	-0.05054167
176	0xbe05f9bd	-0.13083549
177	0x3c9833b5	0.018579343
178	0x3dc76353	0.097357415
179	0xbdaaeb08	-0.0834561
180	0x3d97a830	0.07405126
181	0x3d78b873	0.06072278
182	0x3c2895de	0.010289637
183	0x3b386085	0.0028133702
184	0x3d8432e2	0.064550176
185	0x3d3b977b	0.04579876
186	0x3d9bccef	0.07607447
187	0xbd3a46ca	-0.045477666
188	0xbd04ba0e	-0.032403998
189	0x3d8a6f38	0.067594945
190	0xbaeecf5e	-0.0018219759
191	0xbd845294	-0.06461063
192	0x3d909732	0.07060088
193	0x3df06a36	0.11739008
194	0xbcf907a5	-0.030399153
195	0xbd45fbe8	-0.04833594
196	0x3c834dfd	0.016028399
197	0x3de507f8	0.111831605
198	0x3cd9bfb4	0.026580669
199	0x3cfdfdff	0.031004904
200	0xbda738c3	-0.08165123
201	0xbd6795f6	-0.0565395
202	0x3e001209	0.1250688
203	0x3de1d758	0.11027402
204	0x3c2b07a4	0.010438833
205	0xbda3303e	-0.07968186
206	0xbdbc9c78	-0.092095315
207	0xbd99cd13	-0.07509818
208	0xbd2a523d	-0.041582335
209	0x3d923735	0.07139436
210	0x3d8a789e	0.06761287
211	0x3e3c23eb	0.18373077
212	0xbe07af2a	-0.13250414
213	0xbe4eb2bd	-0.2018537
214	0xbd78e700	-0.060767174
215	0x3e86a4e9	0.2629769
216	0x3cf5ad69	0.029989915
217	0xbdc94ae9	-0.09828741
218	0x3d62e543	0.055394422
219	0xbc73b5b7	-0.014874867
220	0xbddadbfe	-0.106864914
221	0x3e60866a	0.21926275
222	0xbd67e1de	-0.056611888
223	0x3c50c99a	0.012743378
224	0xbde2d92d	-0.11076579
225	0x3d4b6f8a	0.04966692
226	0x3dfd5b31	0.12370909
227	0x3cbb2216	0.022843402
228	0xbdf014f3	-0.11722746
229	0xbe0eaffc	-0.1393432
230	0xbda91733	-0.08256378
231	0x3d98f40d	0.07468424
232	0x3d512ae8	0.05106631
233	0x3d881961	0.06645466
234	0x3dc3166a	0.095257595
235	0x3d17a5e5	0.037023444
236	0xba65354f	-0.00087436003
237	0xbe6922c0	-0.22767162
238	0xbdf06db2	-0.11739673
239	0xbe068505	-0.1313668
240	0x3bafd52e	0.005365989
241	0xbd915fd6	-0.070983574
242	0x3cb81f66	0.02247591
243	0xbe05903e	-0.13043305
244	0xbd6d11b2	-0.057878204
245	0xbde8df95	-0.1137077
246	0xbd301a35	-0.042993743
247	0x3b22cf1e	0.002484269
248	0xbda1c016	-0.078979656
249	0x3d8d54e9	0.06900961
250	0x3ac2e366	0.0014868795
251	0xbdb05cc5	-0.086114444
252	0xbd260fa7	-0.04054227
253	0xbb6eedda	-0.0036457689
254	0x3a990c1b	0.0011676581
255	0xbdf09445	-0.1174703

layer1.bias f4 [128]
0	0xbe532a7a	-0.20621672
1	0x3d4f48bd	0.050606478
2	0x3d476364	0.04867877
3	0x3e016e4d	0.12639733
4	0xbe547a68	-0.2074982
5	0x3bb400f1	0.0054932763
6	0xbdc753de	-0.09732793
7	0xbc91475c	-0.017734222
8	0xbd9a6529	-0.07538826
9	0x3dda1398	0.106482685
10	0xbea3e273	-0.32008705
11	0x3db9885b	0.09059211
12	0xbe46baaa	-0.19407144
13	0x3d3eb95f	0.046563502
14	0x3dae0d66	0.08498649
15	0x3e30354c	0.17207831
16	0x3d420945	0.04737212
17	0xbc47bae7	-0.012190557
18	0xbe161bcd	-0.14659043
19	0xbbe0492d	-0.0068446607
20	0x3dba6660	0.09101558
21	0x3c9e3526	0.019312453
22	0x3ce10355	0.02746741
23	0xbe0ec064	-0.13940579
24	0xbc224864	-0.009904955
25	0xbcb07203	-0.02153874
26	0xbd8477c3	-0.06468155
27	0x3cb0e6ae	0.021594372
28	0xbd33d502	-0.043904312
29	0x3c9a33c8	0.01882352
30	0x3c0a3a90	0.008436814
31	0x3d3d9fb0	0.046294868
32	0xbda92632	-0.08259238
33	0x3c21e45c	0.009881105
34	0x3d77a7e5	0.06046285
35	0x3e13f1ea	0.14447752
36	0xbe066865	-0.13125761
37	0xbd0471a9	-0.032334957
38	0xbdab178c	-0.083541006
39	0xbd7ea9ff	-0.06217384
40	0xbca25480	-0.019815683
41	0x3d22b65d	0.039724696
42	0x3e08d762	0.13363412
43	0xbe3bce35	-0.1834038
44	0xbdb8942e	-0.09012638
45	0xbdd58cd0	-0.104272485
46	0xbd2e3c91	-0.04253823
47	0x3d9a69eb	0.075397335
48	0xbd777a2b	-0.060419243
49	0xbd9580f2	-0.07299985
50	0xbdf6088e	-0.120133504
51	0xbe14fe93	-0.14550237
52	0xbe22b301	-0.15888597
53	0xbd9a2ab6	-0.07527678
54	0x3e409902	0.18808368
55	0x3de513fd	0.11185453
56	0x3d894499	0.06702537
57	0x3d7cdaff	0.06173229
58	0xbba72d0c	-0.0051018056
59	0xbd2e09ad	-0.042489696
60	0xbdf41018	-0.11917132
61	0x3bd2e065	0.0064354413
62	0xbe2b69f1	-0.16739632
63	0xbd0f9582	-0.03505469
64	0xbd931e47	-0.07183509
65	0xbe150029	-0.14550842
66	0xbdb8a83d	-0.09016464
67	0xbdd36fef	-0.10324084
68	0xbe3271f1	-0.17426278
69	0xbe2d40a9	-0.16919197
70	0x3d16d5a2	0.03682483
71	0xbe393fc8	-0.18090737
72	0x3de50c3a	0.11183973
73	0x3d93d89c	0.07219049
74	0xbe3d742e	-0.1850135
75	0xbda5647e	-0.08075808
76	0xbe28d546	-0.16487607
77	0x3dd3b79d	0.10337756
78	0x3dc8a861	0.09797741
79	0xbdaef107	-0.08542066
80	0x3e077ba6	0.13230762
81	0xbce3dba3	-0.027814692
82	0x3c82da46	0.015973222
83	0xbbbef15d	-0.0058271126
84	0xbe48cec7	-0.1961013
85	0x3d57d193	0.0526901
86	0x3c8a5f02	0.016891006
87	0xbbe6fe02	-0.007049323
88	0xbd4f2aae	-0.050577812
89	0xbc84e9c6	-0.016224753
90	0x3d4145dc	0.047185764
91	0xbb69c5bb	-0.0035670835
92	0x3c7f8710	0.015596166
93	0xbd30fc45	-0.043209333
94	0x3df5a426	0.119941995
95	0x3aa556a2	0.001261432
96	0x3d1d576e	0.038413458
97	0x3d70b595	0.05876692
98	0xbd6e32e2	-0.058153994
99	0xbd831630	-0.06400716
100	0xbe300b3b	-0.17191784
101	0x3d8a5c58	0.067558944
102	0xbd8e2a6b	-0.06941684
103	0xbc31d617	-0.010854266
104	0x3d81ea53	0.06343522
105	0xbe3e0964	-0.1855827
106	0xbca35e25	-0.019942353
107	0x3e098221	0.13428546
108	0xbdfb0f4d	-0.12258778
109	0xbe0155cb	-0.12630384
110	0x3de5b674	0.11216441
111	0xbcaa22e3	-0.020768588
112	0x3da46842	0.08027698
113	0xbd0bd247	-0.034136083
114	0xbb74b1f7	-0.003733752
115	0x3c4701b1	0.012146399
116	0xbe31756a	-0.17329946
117	0xbe452abb	-0.19254582
118	0x3d7ccdc1	0.06171966
119	0xbd775351	-0.06038219
120	0xbbcb9f0e	-0.006214029
121	0xbd90d4fb	-0.07071873
122	0xbcab63ae	-0.020921554
123	0xbcb265d0	-0.021777064
124	0xbe1b80e2	-0.15185884
125	0x3dd8642b	0.105659805
126	0x3cae6176	0.021286707
127	0x3d023466	0.031788252

layer2.weight f4 [128, 132]
0	0xbd241ccb	-0.04006652
1	0x3da5abf3	0.08089437
2	0x3cc3e8e7	0.023914767
3	0x3d83523e	0.06412171
4	0x3c52fe2a	0.01287798
5	0x3c25f24e	0.010128571
6	0xbd367c4b	-0.04455213
7	0xbd94d8a3	-0.07267883
8	0xbd725c99	-0.05917034
9	0xbcab7144	-0.020928033
10	0x3d52317e	0.05131673
11	0x3d28e6d6	0.041235767
12	0x3d7b17fd	0.061302174
13	0x3d100ed9	0.03517041
14	0x3d277f49	0.040892873
15	0x3cb6adc4	0.022299655
16	0x3d220745	0.039557714
17	0xbd06af61	-0.032882098
18	0xbd454eda	-0.0481709
19	0xbd8ea6d8	-0.06965417
20	0xbd49c4be	-0.049259894
21	0xbdb4204c	-0.08795223
22	0x3d149f04	0.03628446
23	0x3da3b3ed	0.079933025
24	0xbaa2e1a7	-0.0012426869
25	0x3d0be1a4	0.034150735
26	0x3c395dc1	0.011313857
27	0xbd2719bc	-0.040796027
28	0xbcb47f20	-0.022033274
29	0x3d3d312c	0.046189472
30	0x3d085b1e	0.03329002
31	0xbda65e38	-0.081234396
32	0x3cc86a48	0.024464741
33	0xbccc22f5	-0.024919013
34	0x3c39368c	0.011304509
35	0x3d983ed2	0.07433857
36	0xbcdefb11	-0.027219327
37	0x3ce7cf56	0.028297108
38	0xbcce9c3b	-0.02522098
39	0x3d69992d	0.057030845
40	0x3d26de8b	0.040739577
41	0x3d5b6a81	0.053568367
42	0xbd26b7d7	-0.040702667
43	0xbd9ba0a5	-0.07599
44	0xbc6d21ef	-0.014473422
45	0xbd6df61b	-0.058096033
46	0x3ca748e3	0.020420497
47	0x3ddbaf5e	0.10726808
48	0x3cc5c848	0.024143353
49	0xbd075034	-0.033035472
50	0xbc4faf24	-0.012676034
51	0x3bb2954a	0.0054499255
52	0xbcc3f898	-0.02392225
53	0xbdd62589	-0.10456378
54	0x3d4b09bd	0.049569834
55	0xbd1aa002	-0.03775025
56	0x39c13b0f	0.0003685583
57	0xbd8dcf4f	-0.069243066
58	0x3d06ce7e	0.03291177
59	0xbd473a57	-0.04863962
60	0xbca0e3e6	-0.01963992
61	0x3d5c1a64	0.053736106
62	0x3db2bd09	0.08727462
63	0x3dbd649a	0.09247704
64	0x3ca37f18	0.019958064
65	0xbd425548	-0.04744461
66	0x3cf7e189	0.03025891
67	0x3c78a36b	0.015175681
68	0x3d1a75dc	0.037710056
69	0x3cc0a060	0.023513973
70	0x3d98076b	0.0742329
71	0x3ba08c61	0.004899547
72	0x3ccd56d1	0.025065811
73	0x3d15ea38	0.03660032
74	0xbdcebb9f	-0.1009438
75	0xbdb225a0	-0.08698583
76	0xbd1a8fc9	-0.03773478
77	0xbce6cb8b	-0.028173229
78	0x3b882f1d	0.004156007
79	0xbd662d74	-0.05619569
80	0xbdb66f33	-0.08907928
81	0xbd937b67	-0.072012715
82	0x3bc508ea	0.0060130255
83	0xbae7aeaf	-0.0017675961
84	0xbc91dc66	-0.01780529
85	0xbd369118	-0.044571966
86	0x3ae9851d	0.001781616
87	0xbdb031cf	-0.0860325
88	0xbd017bf2	-0.031612344
89	0xbd3bc00d	-0.04583745
90	0xbd935243	-0.071934246
91	0xbdabc2a8	-0.08386737
92	0xbd62db43	-0.055384886
93	0x3d7bd18d	0.06147914
94	0x3dd2a41d	0.102852084
95	0x3cfe8422	0.031068865
96	0x3deab984	0.114611655
97	0x3b86445f	0.004097506
98	0xbd523a07	-0.05132487
99	0xbd4383d1	-0.04773313
100	0x3d091c47	0.033474233
101	0xbd077a2c	-0.033075497
102	0xba7d0374	-0.00096516986
103	0xbd23c1dc	-0.0399798
104	0xbda15e4a	-0.07879312
105	0x3c5c3e2d	0.013442558
106	0xbce8fc86	-0.028440725
107	0x3db4f185	0.08835129
108	0x3d5fae41	0.05460954
109	0xbd6cfc37	-0.05785772
110	0x3db26d32	0.087122336
111	0xbd983fe3	-0.074340604
112	0x3da2ee6a	0.0795563
113	0x3bb6e648	0.005581651
114	0xbcfe5ff0	-0.031051606
115	0x3cc6abae	0.024251785
116	0x3d1cb3d8	0.03825745
117	0x3de69343	0.11258557
118	0x3cf6a82c	0.030109487
119	0x3cf3ada9	0.029745894
120	0x3d84fff5	0.064941324
121	0xbd1fc4a1	-0.03900588
122	0xbb66cc62	-0.0035217036
123	0x3cc5ae67	0.024131013
124	0xbcba7629	-0.022761421
125	0xbd25e59b	-0.040502172
126	0x3d54345a	0.05180774
127	0x3db9d43a	0.09073682
128	0x3d0d5fa0	0.034515023
129	0xbd2a7f2f	-0.041625198
130	0x3bfae785	0.007656994
131	0xbd0331e7	-0.032030012
132	0x3b360421	0.0027773457
133	0x3b106321	0.0022031742
134	0x3d97a4af	0.07404458
135	0xbcd84f88	-0.026405111
136	0x3bd82164	0.0065957773
137	0xbd1118c3	-0.035424005
138	0x3a7563af	0.00093608623
139	0xbb2044d8	-0.0024455097
140	0x3d83ca32	0.0643505
141	0xbd4b62cb	-0.049654763
142	0x3ccafccd	0.024778748
143	0xbd807b2c	-0.06273493
144	0x3cebe51e	0.028795775
145	0xbd875c92	-0.06609453
146	0xbca213d2	-0.019784842
147	0x3d51cc1f	0.051220056
148	0xbd93d47d	-0.07218263
149	0x3d14b913	0.036309313
150	0xbca3a8e9	-0.019978004
151	0xbd76b0a0	-0.060227036
152	0x3d8b23ff	0.06793975
153	0x3d3b3329	0.045703087
154	0x3c9ab86a	0.018886764
155	0x3ccdb313	0.025109803
156	0x3d9aeec7	0.075650744
157	0xbd393249	-0.04521397
158	0xbd2d354b	-0.042287152
159	0x3d907359	0.07053251
160	0xbbef6d92	-0.007306763
161	0x3cee38ad	0.02907976
162	0xbceb12a1	-0.028695406
163	0x3db75f31	0.08953703
164	0x3db5f735	0.088850416
165	0xbd032c24	-0.032024518
166	0x3c42d93e	0.011892615
167	0xbdaca933	-0.0843071
168	0x3d6ad01b	0.05732737
169	0x3ddfc64c	0.10926494
170	0xbd51accb	-0.05119018
171	0xbac143cb	-0.0014744935
172	0xbbe88760	-0.007096216
173	0x3c4b9798	0.0124262795
174	0x3d942613	0.072338246
175	0xbce238f7	-0.027615054
176	0xbccd09ac	-0.025029026
177	0xbba50d6c	-0.0050370004
178	0xbd3b572c	-0.04573743
179	0x3c4b1eb0	0.012397453
180	0x3cecf23b	0.028924098
181	0xbdbb1c2a	-0.09136231
182	0x3d0ab599	0.03386459
183	0xbcbe4eba	-0.0232309
184	0x3da2bdcc	0.07946357
185	0xbd3c5b3e	-0.045985453
186	0x3d9295cf	0.0715748
187	0xbcbe615a	-0.02323978
188	0x3d45ea8d	0.04831939
189	0xbd160746	-0.03662803
190	0x3d07a63e	0.033117525
191	0x3c87ab91	0.016561301
192	0x3ca7664f	0.020434527
193	0x3d80e6e1	0.06294037
194	0x3d1461a2	0.036225922
195	0x3c92fd21	0.017942967
196	0xbd735d6c	-0.059415266
197	0xbc365e96	-0.0111309495
198	0x3dab1deb	0.08355316
199	0x3dbbe4e4	0.09174517
200	0xbcaa5e94	-0.020797051
201	0x3da2914c	0.079378694
202	0x3d3c398a	0.04595331
203	0xbb3757ee	-0.0027975994
204	0x3d93e9ae	0.07222305
205	0xbcc2cd9a	-0.02377968
206	0xbcee99b8	-0.029126033
207	0xbd73cc42	-0.059520967
208	0x3ca72d03	0.020407205
209	0x3d2afdc4	0.041745916
210	0x3d49a225	0.0492269
211	0xbd84aa5c	-0.06477806
212	0xbbf1199e	-0.00735779
213	0x3d7326d0	0.059363186
214	0xbd484869	-0.04889718
215	0x3d1c4302	0.03814984
216	0xbbb7d3fc	-0.0056099873
217	0x3d7dcb88	0.06196168
218	0x3dbe228d	0.09283934
219	0xbdb7c370	-0.089728236
220	0xbda13d71	-0.07873047
221	0x3d845048	0.06460625
222	0xbd1ee0e6	-0.0387887
223	0x3dc9dc31	0.09856451
224	0x3d995365	0.07486609
225	0xbd9af473	-0.07566156
226	0x3d3e0be6	0.046398066
227	0x3cd8d75a	0.026469875
228	0xbd466916	-0.04844006
229	0x3d79aa1f	0.060953256
230	0x3a7492f7	0.0009329761
231	0xbd831d72	-0.064021006
232	0xbe00e321	-0.12586643
233	0x3d9a9e82	0.07549764
234	0xbd8e6cde	-0.069543585
235	0x3cbec217	0.023285909
236	0xbcaa1d04	-0.020765789
237	0xbcec9b27	-0.028882576
238	0xbc1b2c74	-0.009471048
239	0x3dc03b8c	0.09386358
240	0xbc9fedc3	-0.019522553
241	0xbd8d5189	-0.06900317
242	0x3d8a223b	0.0674481
243	0xbdd070ad	-0.10177741
244	0xbdc9ae1d	-0.098476626
245	0x3c9c5991	0.019085677
246	0xbcb6f721	-0.022334637
247	0x3d84a456	0.06476657
248	0xbd414bd5	-0.04719146
249	0x3d1156a8	0.035483032
250	0x3d3db84a	0.04631833
251	0xbc21d039	-0.009876304
252	0xbce8c001	-0.028411867
253	0x3d487a71	0.048944894
254	0x3ce62b5a	0.028096844
255	0x3ca4ea23	0.020131176

layer2.bias f4 [128]
0	0x3c4480d1	0.011993603
1	0xbc9ca7d3	-0.019122994
2	0x3dbd1dd2	0.092342034
3	0x3d41f3ba	0.047351576
4	0xbd71cb13	-0.059031557
5	0x3d4bc0bb	0.04974435
6	0x3c14edc9	0.0090898955
7	0x3d10c664	0.03534545
8	0x3da18b50	0.078879
9	0xbca8f25b	-0.020623377
10	0x3d971585	0.073771514
11	0xbd892092	-0.066956654
12	0xbcf86a78	-0.030324206
13	0xbd99fe0e	-0.0751916
14	0xbc1056b1	-0.008809731
15	0xbce218a1	-0.027599635
16	0xbded9a5c	-0.11601707
17	0x3c310fa4	0.010806952
18	0x3cae46fd	0.021274084
19	0x3db6abb7	0.08919471
20	0xbd032b7b	-0.032023888
21	0xbd8c4705	-0.068494834
22	0xbdd43e6e	-0.1036347
23	0xbddf08fb	-0.10890385
24	0x3dc94a72	0.098286524
25	0x3d955b60	0.07292819
26	0x3c641540	0.013921082
27	0xbd653ecf	-0.055968102
28	0xbdcb4905	-0.09926037
29	0x3dd881c8	0.10571629
30	0x3db499df	0.08818411
31	0xbdaab2c5	-0.08334879
32	0xbcd0aebe	-0.025473949
33	0xbdbc9a2b	-0.09209093
34	0xbcfb9f7f	-0.030715702
35	0xbd11626c	-0.035494253
36	0xbd910680	-0.07081318
37	0xbdcd41e1	-0.10022331
38	0xbdab7a0b	-0.08372887
39	0xbc888bcf	-0.016668228
40	0xb9fdd456	-0.00048414123
41	0xbce0dc3c	-0.027448766
42	0x3d591772	0.053000875
43	0x3c40310a	0.011730442
44	0x3d60bcb1	0.05486745
45	0xbda772fb	-0.08176228
46	0x3d81a4a8	0.06330234
47	0x3df42845	0.11921743
48	0x3d7f18d5	0.06227954
49	0xbd584d2b	-0.052807968
50	0x3da1e488	0.07904917
51	0x3d4c9e07	0.049955394
52	0xbd571c8c	-0.05251746
53	0xbd1cf9ae	-0.03832405
54	0xbdbe0865	-0.09278945
55	0x3bfad190	0.0076543763
56	0x3d1194ff	0.035542484
57	0x3d0d858c	0.03455119
58	0xbc4bf41b	-0.012448336
59	0xbb71d720	-0.0036901906
60	0xbc33ed62	-0.010981889
61	0x3a87ea64	0.0010369536
62	0xbd035bc7	-0.032069948
63	0x3da354db	0.07975169
64	0xbd8ecdf8	-0.06972879
65	0xbb6e8540	-0.003639534
66	0x3d564fbf	0.052322146
67	0x3df208c2	0.11818077
68	0x3ddbe9c0	0.10737944
69	0xbd6cc129	-0.0578014
70	0x3c732f2f	0.014842792
71	0xbdb96cb0	-0.090539336
72	0xbc0305c4	-0.00799698
73	0x3c234f0d	0.009967578
74	0xbd091570	-0.03346771
75	0x3d6c1e08	0.057645828
76	0xba92d655	-0.0011202792
77	0x3d62b84f	0.05535155
78	0x3db48ae2	0.08815552
79	0xbdb0b7c3	-0.086288
80	0xbc080913	-0.008302945
81	0xbbdbb283	-0.00670463
82	0xbda3ee6a	-0.08004458
83	0x3b45f668	0.0030206684
84	0x3d978a1e	0.07399391
85	0x3d6920d3	0.05691607
86	0xbce29ce4	-0.027662702
87	0x3d202d61	0.039105777
88	0x3d56615f	0.052338954
89	0xbda08def	-0.07839572
90	0xbd181fbe	-0.037139647
91	0x3d1aea6b	0.037821215
92	0x3df132b1	0.11777247
93	0xbd502709	-0.050818477
94	0xbcd030d5	-0.02541391
95	0x3ce7f22e	0.028313722
96	0xbbb0fa8d	-0.0054009617
97	0xbdc8a115	-0.09796349
98	0xbcb8afc3	-0.022544747
99	0x3d049613	0.032369684
100	0x3daeb68b	0.08530911
101	0x3ba766a2	0.0051086703
102	0xbc8d5e3e	-0.017256852
103	0xbd74c6dc	-0.05975996
104	0xbd143fb9	-0.036193583
105	0x3dbe153c	0.09281394
106	0x3d93dd30	0.072199225
107	0x3bc6829c	0.0060580503
108	0xbd90c4b7	-0.070687704
109	0xbd732b6b	-0.05936758
110	0xbc3255e6	-0.010884738
111	0xbd41336e	-0.047168188
112	0x3ce6d882	0.02817941
113	0x3c2da443	0.010598245
114	0xbcdbdcf4	-0.026838757
115	0xbc294784	-0.010331992
116	0xbd85f96a	-0.065417126
117	0xbc02db8b	-0.007986913
118	0xbdb36e05	-0.08761219
119	0x3ddfdbb5	0.10930578
120	0xbdcd0893	-0.10011401
121	0xbc977d95	-0.0184925
122	0x3c3cd4fe	0.011525391
123	0xbde7fb8b	-0.11327275
124	0xbda9274b	-0.08259448
125	0xbc1ce1f1	-0.009575353
126	0xbd9478e6	-0.07249622
127	0xbbec5e26	-0.007213372

layer3.weight f4 [1, 128]
0	0xbd4c0bf9	-0.049816106
1	0xbd6e4edf	-0.058180686
2	0x3d5526d8	0.052038997
3	0x3cf35aea	0.029706437
4	0x3d5e9b01	0.054347042
5	0x3dce14d2	0.10062565
6	0x3da04c76	0.07827084
7	0xbd3873c9	-0.045032296
8	0x3dcc6b13	0.0998136
9	0xbd16b541	-0.03679395
10	0x3d8751d1	0.06607402
11	0xbe178f6a	-0.14800802
12	0x3d8ff1c1	0.07028533
13	0x3f05ea9a	0.523111
14	0x3d42e9c1	0.047586206
15	0x3d951e19	0.07281131
16	0xbd4b4ec6	-0.04963567
17	0xbd982395	-0.07428662
18	0x3d3dc067	0.046326067
19	0x3d58b542	0.052907236
20	0xbd6957e5	-0.05696859
21	0xbdbb98d2	-0.091600075
22	0xbcb681ad	-0.022278631
23	0xbd7d511c	-0.06184493
24	0x3d5a374b	0.053275388
25	0x3d703b27	0.058650162
26	0x3d4929ad	0.04911201
27	0xbd7e6b02	-0.06211377
28	0xbde7b0f0	-0.11313045
29	0x3d902787	0.07038789
30	0x3d85d73a	0.06535192
31	0xbd995873	-0.074875735
32	0xbda85104	-0.082185775
33	0xbd85efa5	-0.06539849
34	0x3e1c6f8d	0.15276928
35	0xbd9bae4c	-0.07601604
36	0xbe13164d	-0.14363976
37	0xbd8a067c	-0.06739518
38	0xbd956a91	-0.072957166
39	0x3d2a9108	0.04164222
40	0xbd419616	-0.047262274
41	0x3dd0d6d3	0.101972245
42	0xbd048d1c	-0.032361135
43	0xbcf12043	-0.029434329
44	0xbde60d7b	-0.1123304
45	0xbdc77781	-0.097395904
46	0x3d9ccb5e	0.07655977
47	0x3d4653b3	0.048419666
48	0x3d8e743c	0.06955764
49	0xbdbb32ed	-0.09140573
50	0x3d78b392	0.060718127
51	0x3d173f23	0.036925446
52	0xbd1c6206	-0.03817942
53	0x3d1005c3	0.035161745
54	0xbdc67547	-0.09690338
55	0xbe6e6d61	-0.23283912
56	0xbd1aed28	-0.037823826
57	0x3d4639ff	0.048395153
58	0x3d6952f9	0.056963895
59	0xbd946bdf	-0.07247137
60	0x3d9d48ea	0.07679923
61	0xbd388056	-0.045044266
62	0x3e02cc30	0.12773204
63	0x3d639d14	0.055569723
64	0xbe022fcc	-0.12713546
65	0xbd6c2100	-0.05764866
66	0x3d6b80bc	0.057495818
67	0x3d44b211	0.04802138
68	0x3d1703b6	0.036868773
69	0x3d985e74	0.074398905
70	0xbd18019a	-0.037110902
71	0xbe922e7f	-0.285511
72	0x3d9b0c49	0.075707026
73	0xbd472f4a	-0.048629083
74	0x3d76ca02	0.060251243
75	0xbda1cf9e	-0.07900928
76	0xbd45bafe	-0.048274033
77	0x3d126ad0	0.035746396
78	0x3da57a5f	0.08079981
79	0xbd9d6725	-0.07685689
80	0xbdb260c3	-0.08709862
81	0xbdb27462	-0.087136045
82	0xbd24162b	-0.040060204
83	0x3d69efa5	0.05711331
84	0x3da660e8	0.08123952
85	0xbda81c07	-0.08208471
86	0xbe0ad4d8	-0.13557756
87	0xbd8fbf46	-0.070189044
88	0x3df1eb71	0.11812485
89	0xbdec8cdb	-0.115503035
90	0x3d465bc6	0.048427366
91	0x3d95a1a1	0.07306219
92	0x3e05b048	0.13055527
93	0x3d43b9dd	0.047784675
94	0x3e2e0b07	0.16996394
95	0xbe292068	-0.16516268
96	0x3daba080	0.08380222
97	0xbdaef55f	-0.085428946
98	0xbd76ad4b	-0.06022386
99	0xbd870b77	-0.065939836
100	0x3d9dd798	0.07707137
101	0xbd4d70d1	-0.05015642
102	0xbdb054c6	-0.08609919
103	0xbd729017	-0.059219446
104	0x3db02b74	0.08602038
105	0x3dad095f	0.08449053
106	0x3d841d8b	0.064509474
107	0xbe1d82c8	-0.1538192
108	0xbdb54a63	-0.08852079
109	0x3d5c0a5d	0.05372082
110	0xbd831471	-0.06400383
111	0xbd8a65df	-0.067577116
112	0x3d92fa66	0.07176666
113	0xbdcc5891	-0.0997783
114	0x3d8aff7e	0.067870125
115	0x3d8a8b89	0.067648955
116	0xbdbdb769	-0.09263498
117	0xbd7a9e8a	-0.06118635
118	0xbd845805	-0.06462101
119	0x3d7cb883	0.0616994
120	0xbd854d59	-0.065088935
121	0x3cb75bca	0.022382636
122	0xbd84751e	-0.06467651
123	0xbd511211	-0.05104262
124	0xbd7d3989	-0.061822448
125	0xbd65d1aa	-0.056108154
126	0xbd78854e	-0.060674004
127	0xbd0ba227	-0.034090187
