p3_collab-compet/agent2_actor.pt (torch, 82219 bytes, 6 tensors)

layer1.weight f4 [128, 24]
000000 af 1f 2d 3e 9c 30 ae 3d a5 46 93 bd 6f 0c ae 3d
       0.16906618 0.08505365 -0.07191209 0.08498465
000010 f4 f7 fe bd 24 d2 b3 3d 5f de fc bd a1 24 8e 3c
       -0.12449637 0.087803155 -0.123471014 0.01735145
000020 e5 d1 52 3e 28 ed 50 be d6 19 5c 3e 4f 19 0e bd
       0.20587881 -0.20402968 0.2149423 -0.034692105
000030 f1 6b 35 3e 57 10 87 3d 48 35 0b 3e 26 51 d0 bd
       0.17716958 0.065949135 0.13594544 -0.10171728
000040 59 96 22 3e df 77 9a bd 71 82 96 bd 74 0c 63 3c
       0.15877666 -0.07542395 -0.073490985 0.0138579495
000050 f6 13 63 ba 8b 80 3c 3b 78 48 7a bd 62 25 c7 3d
       -0.0008662337 0.002876314 -0.061104268 0.09723927
000060 2d 7a 98 bd 97 6c 35 be 33 04 86 bc 69 7d 08 be
       -0.07445178 -0.17717205 -0.016359424 -0.1332909
000070 13 25 06 3c cc 72 6e be 6b 0a 67 3e a6 5e 3c be
       0.00818755 -0.23285979 0.22562568 -0.1839548
000080 e8 41 6b 3e 2c fe 3d bd 5d 1c b6 bd 15 61 1d 3e
       0.2297436 -0.046384975 -0.088921286 0.15369065
000090 67 fb ce bb ed 5b 49 3e 0b ce aa b9 65 d3 16 bd
       -0.0063165906 0.19663973 -0.0003257844 -0.036822695
0000a0 de 3b fa 3d 8a b5 e3 bd ed 9e a5 3d b2 a4 27 3e
       0.1221845 -0.1111861 0.08086953 0.1637142
0000b0 27 9a 0d 3d a9 5a 15 bc bd 01 e7 3d 79 5c 93 3c
       0.03457084 -0.009115853 0.112796284 0.01798843
0000c0 6b cb cc 3d 4c 05 00 3e 01 70 02 be c3 f2 d5 bd
       0.099997364 0.1250202 -0.12738039 -0.10446694
0000d0 2b f5 dc bb ba 21 f5 3d 9e ae 08 3e 24 75 71 3d
       -0.0067430935 0.119693235 0.13347861 0.058949605
0000e0 9c 9d 59 3d 39 98 64 3e 94 4b 2c 3e 84 22 55 be
       0.053128824 0.22323693 0.16825706 -0.20813948
0000f0 46 05 e1 3d 1d 0e 8b be e2 54 92 3d 60 9a 08 be
       0.10987334 -0.27159205 0.07145096 -0.1334014
000100 5d f6 39 3d aa 58 08 3e c5 61 ff 3d e1 bc 90 be
       0.045400966 0.13315073 0.1246982 -0.28269103
000110 33 c5 82 bd 2a 2a d6 be 1f 55 0e 3e 7d dc bf bd
       -0.06385269 -0.41829044 0.13899659 -0.09368227
000120 d4 d8 02 3e ae 2d 37 be 9a 7b 57 be d0 81 3e be
       0.12778026 -0.17888519 -0.21043244 -0.18604207
000130 f9 a8 39 be 03 c2 f7 3d b9 5f 85 3d 26 b5 12 3e
       -0.18130864 0.12097552 0.06512398 0.14326915
000140 a4 d7 1e be 5d 60 6c be ed 45 57 3e 6a 93 12 be
       -0.15511948 -0.23083635 0.21022768 -0.14314047
000150 71 cd 05 3d 40 61 0a 3d e5 f0 5f 3e 30 7e 60 be
       0.032666627 0.03378415 0.21869238 -0.21923137
000160 87 b4 ea bd 7a 6f 26 3a 53 bb 9a 3d a8 6e 8b bd
       -0.11460214 0.0006349009 0.075552605 -0.068082154
000170 7d 1c 1d 3d 61 39 84 3e 8f cd ec bd ed 03 00 be
       0.038357247 0.25825027 -0.11562645 -0.12501498
000180 99 03 e5 3d 85 7c 10 3d ca 3f a5 bd 47 39 89 be
       0.11182327 0.035275 -0.080688074 -0.26801512
000190 5d 6e bc bd 8b 01 52 bd 96 73 10 bd 04 ed 5f be
       -0.092007376 -0.051271003 -0.03526648 -0.21867758
0001a0 f9 57 65 bd 3d bf 13 bd 00 92 e2 bd 51 6b 25 be
       -0.0559921 -0.03607105 -0.110630035 -0.16154219
0001b0 ff bb 1c bd c4 87 67 be 82 7e 88 3e c7 6a 2d bc
       -0.038265225 -0.22610384 0.26659018 -0.01058454
0001c0 93 2d 47 3c 7d c1 e0 bd 58 2a ab bd 02 b2 ca bd
       0.012156862 -0.10974405 -0.08357686 -0.098972335
0001d0 38 da 8c 3e b7 23 b0 be 06 74 19 bd 47 e8 1c be
       0.27510238 -0.34402248 -0.037464164 -0.15322982
0001e0 e1 19 ab bc 57 50 12 3e 98 ee 10 3d e7 ff e6 bd
       -0.020886363 0.1428846 0.03538379 -0.11279278
0001f0 6b 50 0f be 10 4d a1 bd 33 a6 a6 bc 2e d6 0a be
       -0.13995521 -0.07876027 -0.020342922 -0.13558266
000200 04 e4 21 3e e1 59 0e 3e 6c 1f 41 3e 04 8f f9 bc
       0.15809637 0.13901474 0.18859643 -0.030463703
000210 fa ae 58 be 7e f5 ed 3d 51 ef 30 bd fd 71 30 be
       -0.21160498 0.116190895 -0.04319698 -0.17230983
000220 c2 ae 22 be 1e 4c af bd 21 75 4a 3d 31 9e 47 be
       -0.15886977 -0.0855944 0.04942811 -0.19493939
000230 b2 b1 d2 3d 63 67 9c be ed fe 11 3e 30 b2 99 be
       0.10287799 -0.30547628 0.14257403 -0.3001876
000240 98 17 f1 3c 1d 68 76 bd 26 c9 7d 3d 07 5c 3a 3e
       0.029430196 -0.060157884 0.06195941 0.18199168
000250 81 65 35 3e 52 f4 72 be 5c 42 02 3c 1c 96 90 bd
       0.17714502 -0.23726013 0.007950392 -0.07059881
000260 78 69 1b 3d ee 6e 82 be 51 4e 55 3e 04 29 8e bd
       0.03794238 -0.25475258 0.20830657 -0.06941417
000270 cb 48 18 3e d7 ef 32 3c 55 ad b5 3d 99 65 f5 bc
       0.14871518 0.01092144 0.08870951 -0.029955672
000280 fd f2 82 3e 34 cf 49 bc 07 7e 1c 3d 06 26 bd bd
       0.2557601 -0.0123174675 0.038206127 -0.09235768
000290 c3 5a 1f 3e b6 13 00 be f9 0b a7 bd 7f 95 86 3e
       0.15561967 -0.12507519 -0.081565805 0.2628593
0002a0 71 2b eb 3d 89 8a 31 be a0 c2 99 bd 51 3a 32 3b
       0.11482895 -0.17338003 -0.07507825 0.0027195404
0002b0 14 53 0f 3e f9 e7 49 3b 7e b2 b4 bd 17 3f 6b bd
       0.13996536 0.0030808432 -0.08823107 -0.057433214
0002c0 72 3c 00 be 4b e2 8a bd 27 89 79 3d 92 3f 81 be
       -0.12523058 -0.06781443 0.060921814 -0.25243813
0002d0 17 0c 06 3d 2b 6b 86 3e a4 05 76 bd 1b 27 08 be
       0.032726374 0.26253638 -0.060063973 -0.13296168
0002e0 4a f9 13 3e b2 50 6d 3c 97 fb 07 3d 0f b9 a1 bc
       0.14450565 0.014484571 0.03319892 -0.019741563
0002f0 5d ab 81 bd 37 91 12 3e 61 2d a2 bd 3d 19 37 bd
       -0.06331513 0.14313208 -0.079188116 -0.044701803
000300 3b a7 37 3e c8 38 39 3e d8 0d c1 bd 01 58 a4 3d
       0.17934887 0.18088067 -0.094264686 0.08024598
000310 4c bf 52 bc 91 4f 0b 3d 34 a9 cc bc b7 8b 3b 3e
       -0.012862992 0.034011427 -0.024983026 0.18315016
000320 44 f0 2b be 14 8c d9 bd da a5 cc 3d d2 33 d5 bb
       -0.16790873 -0.10622421 0.09992571 -0.0065064216
000330 4c 8f 80 bd 12 83 36 bb d2 94 49 be 8c a9 89 be
       -0.06277332 -0.002784912 -0.19685677 -0.26887167
000340 7b e5 59 bd cf 17 19 3d 65 56 0f 3e c2 ed 9e 3c
       -0.053197365 0.03737622 0.139978 0.019400481
000350 71 51 93 be ea ae 27 3d a4 6c b7 bc 5f 1d fb 3d
       -0.28773072 0.040938295 -0.022390671 0.122614615
000360 71 88 ec bc bd db 83 3d ce 49 b6 3d 9c d0 e7 bc
       -0.028873654 0.06438396 0.08900796 -0.028297715
000370 38 7a 20 be 61 e0 70 3e f8 bf b4 bd 7f be 0b 3c
       -0.15671623 0.23523094 -0.08825678 0.0085293045
000380 27 fe 82 be 5b 12 59 3e a9 36 24 3e 31 e5 c0 3b
       -0.25584528 0.21198408 0.16036476 0.0058866967
000390 8b ce 3e be f8 a0 44 be 15 ea 23 be 0c 70 ab 3d
       -0.18633477 -0.1920203 -0.16007264 0.083709806
0003a0 31 db 8a 3d 9e b1 7a 3e 08 9a 0f 3e 35 9c 05 3e
       0.06780089 0.24481818 0.14023602 0.1304787
0003b0 8f 34 77 bb 36 68 9a be 1a fc 10 be e6 99 e5 bd
       -0.0037720536 -0.30157632 -0.14158669 -0.112109944
0003c0 95 b3 08 3e d8 94 8b be cb 8e 3d bd ec 87 fa bd
       0.13349755 -0.27261996 -0.046278756 -0.12232956
0003d0 1c 2f 36 3c 58 b8 77 be 53 e6 0d be 6b ba 80 3d
       0.01111963 -0.24191415 -0.13857393 0.062855564
0003e0 88 4a a9 bc 7f b0 53 bd a8 f2 48 bd 6d 51 54 be
       -0.020665422 -0.05168199 -0.04905954 -0.20734186
0003f0 2f fb 19 3d 25 b6 57 be 84 84 3c bd 1c fd 80 be
       0.037593063 -0.21065576 -0.046024814 -0.25193107

layer1.bias f4 [128]
000000 bc a4 a8 bc 80 07 60 3d 31 f4 e9 3c 19 00 5e be
       -0.020586364 0.054694653 0.028558822 -0.21679725
000010 97 73 22 bd 52 7f 1c 3e b7 00 52 be 4f fd f8 bd
       -0.039661016 0.15282944 -0.20508085 -0.1215769
000020 69 23 be 3d 09 f6 a3 3d 70 a4 97 bd 5d f6 48 be
       0.09284098 0.08005912 -0.07404411 -0.1962523
000030 30 08 0b be 88 9f 11 bd 1e 62 ee bb a6 89 b2 3d
       -0.13577342 -0.03555253 -0.00727488 0.087176606
000040 7f 15 af 3c 1a 8d fb 3d 35 d2 c3 3d 90 9d 89 be
       0.021372555 0.12282772 0.09561578 -0.26878023
000050 ce 38 e1 bc 16 e4 58 3e ed 24 60 3e a0 1d 1c bd
       -0.027492907 0.21180758 0.21889086 -0.03811419
000060 48 cb 2e bd 5a af bc 3d 01 22 98 bd 29 d8 b1 3d
       -0.042674333 0.09213133 -0.07428361 0.086838074
000070 1c c7 ab 3d b3 40 ba 3d 71 6a aa bd f9 69 08 be
       0.083875865 0.09094372 -0.08321083 -0.13321675
000080 dc 8c 2d 3e 35 12 47 3e 6a cd de bd b3 1a 67 3e
       0.16948265 0.19440539 -0.108790234 0.22568779
000090 5a 66 85 bb 6c ab 14 be c4 9b 24 bd a6 5e 76 bd
       -0.004071039 -0.14518517 -0.040187612 -0.060148858
0000a0 a9 4c 8c be 00 87 4d 3d 8c ae c5 bd 20 7c 46 bc
       -0.27402237 0.050177574 -0.09652433 -0.012114555
0000b0 dc a8 b4 bd 67 ee 35 3e 9a e3 db bd 26 d8 8a bd
       -0.0882127 0.17766725 -0.10736771 -0.06779508
0000c0 d7 00 c2 3d 67 fa 05 3e 33 82 63 bc 2b 28 92 bd
       0.094728164 0.13083802 -0.013886022 -0.07136568
0000d0 e2 1e f5 3d fa 29 81 bd 4f 11 a8 bd 77 95 be bd
       0.11968781 -0.063068345 -0.08206426 -0.09305852
0000e0 63 ec 68 bd 7e 76 1c 3e 49 f6 3a 3c 20 b8 c9 3d
       -0.05686606 0.15279576 0.011411258 0.09849572
0000f0 55 2a 14 3e 36 8c 0f be 20 07 d7 3c dd 49 1c be
       0.14469273 -0.1401833 0.026248515 -0.15262552
000100 cc 83 44 3e d6 26 1e 3d 28 5a c1 3d eb 8a 5b 3d
       0.19190902 0.038611256 0.09441024 0.05359928
000110 5b 46 09 be 5a 14 70 be 2b ec ad be 07 9e 7d be
       -0.13405745 -0.23445264 -0.33969244 -0.24767314
000120 53 df 92 bc dd f9 be 3c 00 64 70 3e ac 68 e3 bd
       -0.017928755 0.023312503 0.23475647 -0.11103949
000130 69 b9 5f bd 4c 6a 46 be a2 64 30 be ff 80 72 3c
       -0.05462018 -0.19376487 -0.17225888 0.014801263
000140 c4 14 94 be f6 d5 56 3e 14 1d 25 bb bb 0f 89 3e
       -0.28922093 0.20980057 -0.0025194334 0.26769814
000150 34 03 25 3d ec 44 38 3e 2d 4b 25 3e ee 44 b8 3c
       0.040286258 0.17995042 0.16141959 0.022493806
000160 2f 04 5e bd 66 03 50 3e 81 46 34 be bf 73 3a 3e
       -0.05420321 0.20313796 -0.1760502 0.18208216
000170 c9 6b 56 3c c8 0f 9b 3e e9 b3 f3 bd ff 1f c7 3c
       0.013087221 0.30285478 -0.118995495 0.02430725
000180 06 76 8b 3d 68 c8 0a bc 54 7e 06 3e 27 5a 0b 3e
       0.068096206 -0.008470632 0.13134128 0.13608609
000190 dd d0 17 3e 09 cc ed be 7e c2 a1 3b 63 6c 3d bc
       0.14825769 -0.4644473 0.0049365154 -0.011561486
0001a0 22 fe 0d 3e 48 ce 24 be a5 bf 9e 3d 04 58 a4 bd
       0.13866475 -0.16094315 0.07751397 -0.080246
0001b0 d7 49 85 bc a6 b7 2d be 17 f2 b9 3d c0 d7 b0 bc
       -0.016270561 -0.16964588 0.09079378 -0.021587253
0001c0 a8 1f 29 3e 05 6e 8f 3d da 60 b6 3d ec e7 2f be
       0.16515982 0.070034064 0.08905192 -0.17178315
0001d0 59 66 76 bd 5d b6 a3 3b c0 2f fb bd c6 aa 82 3e
       -0.0601562 0.0049961046 -0.12264967 0.25520915
0001e0 3a e9 1a be cc fb 78 3c 5b c3 b1 bd 59 ac 0e 3e
       -0.15128031 0.015196752 -0.08679839 0.13932933
0001f0 70 5e 02 3e 8c 32 25 be cd 23 d1 3d 35 95 3d bd
       0.12731338 -0.16132563 0.102119066 -0.046284873

layer2.weight f4 [128, 128]
000000 c9 e0 80 bd d4 0b fd bc 44 b2 dd 3d 6d df cd 3d
       -0.06292874 -0.03088943 0.10825017 0.10052381
000010 72 b6 2e bd 75 d4 a6 3d 9c f6 25 3d 9a b1 59 3d
       -0.042654462 0.08145992 0.04051839 0.05314789
000020 d9 f9 1e bc 95 c6 a2 bd 61 f3 17 3e 0d c6 31 3e
       -0.009703123 -0.07948033 0.14838935 0.17360707
000030 19 70 e5 bd 48 19 fb bd 77 f7 0c 3e c5 d1 8d 3d
       -0.112030216 -0.122606814 0.13766275 0.06924776
000040 12 24 93 3d 9c ba 28 3b ae 41 a0 bd 34 a7 36 3d
       0.07184614 0.0025745993 -0.078250274 0.04459305
000050 f2 ca 85 3d 6c c2 09 3e 64 10 db 3b d1 a2 13 be
       0.06532849 0.13453072 0.0066853035 -0.14417578
000060 bc 85 4b 3b 8a 4b b6 bc f8 03 9f bd 01 79 f4 3d
       0.0031055054 -0.022252817 -0.07764429 0.11937142
000070 ed 8c 9b bd 0f 3c f6 3d 92 77 86 bd 10 4d 95 3c
       -0.07595239 0.12023174 -0.06565775 0.018225223
000080 39 af d8 bc 47 3c 71 3d d4 00 0d 3d db 5f d0 3d
       -0.02645074 0.058895376 0.034424618 0.10174533
000090 4f 96 51 3c 92 84 8e 3b f5 32 11 be 67 11 50 bd
       0.012792184 0.0043492997 -0.14179595 -0.050797846
0000a0 c0 5d 03 be 87 38 b9 bc ba df f6 bd 6f bf a7 bd
       -0.12828732 -0.022609962 -0.12054391 -0.0819081
0000b0 c1 3e 07 3e 7f e9 af 3c 97 3a ee bd 9d a7 0d bd
       0.13207532 0.021473644 -0.11632269 -0.034583677
0000c0 05 48 f5 3c 3e c9 08 3d b6 61 08 3e e3 ab dc 3c
       0.029941568 0.033395045 0.13318524 0.02693743
0000d0 93 b5 75 bd 4a 1b 35 3b 1d c8 bb bd 4a 5c 11 3d
       -0.059987616 0.0027634674 -0.09169028 0.035488404
0000e0 05 56 0f 3e b6 50 80 3d 49 59 60 bb f2 fc 45 bc
       0.13997658 0.062653944 -0.0034232906 -0.012084233
0000f0 e7 89 8c bd 2c a6 08 be 9e 49 a0 3d 1d 9c 21 bc
       -0.0686224 -0.1334464 0.07826541 -0.00986388
000100 6e ff 84 be ae bd 5a 3c b2 97 00 3d 0f ce 34 3d
       -0.25976127 0.013350887 0.031394668 0.044141825
000110 df c0 27 3d 87 15 2a bc a5 b6 04 be 88 2d 99 3b
       0.04095542 -0.010381109 -0.12960298 0.004674617
000120 fc 19 23 bd ae 86 35 bc 1e 11 42 be f5 2b c6 bc
       -0.039819703 -0.011079473 -0.18951842 -0.024190882
000130 8a 69 c3 bd aa fd 34 bb 74 5a 01 3e 38 a6 00 3e
       -0.09541614 -0.0027617016 0.12632161 0.12563407
000140 7c 12 a3 bd dc 23 4f bd 1e 74 d1 bb b7 87 3b 3c
       -0.0796251 -0.050571308 -0.006392016 0.011445931
000150 0e c4 12 3e df 2b dd 3d 76 a9 a2 3d 9a 56 cb bd
       0.14332601 0.10799383 0.07942478 -0.09928627
000160 26 0f 42 3d 65 6c 75 bd 95 48 a0 3d ff c6 f7 3c
       0.047377728 -0.059917826 0.07826344 0.030246256
000170 71 db b0 3d 15 cf 26 3c 22 8b eb 3c d5 a7 32 3d
       0.08635605 0.010181208 0.028752867 0.04361709
000180 8f 18 d5 bd c6 c6 7c 3c cd 4d 13 3c 68 99 65 3c
       -0.10405075 0.015428251 0.008990717 0.014013626
000190 41 ef c8 bd 54 21 81 bd 9b 3a 03 bd d4 d2 f5 bd
       -0.09811259 -0.06305185 -0.032038312 -0.12003103
0001a0 0d 6c 07 be 09 57 60 3c 20 d2 c4 bd a4 c6 00 3e
       -0.13224812 0.013692626 -0.09610391 0.12575775
0001b0 be 6c 54 3c fe c9 e6 bc ca 37 93 bb 41 b5 d1 3c
       0.012965379 -0.02817249 -0.0044927346 0.025599124
0001c0 44 78 0b 3d 0a dd af bd f0 d7 17 bd 3a cc b8 3c
       0.03405024 -0.08587082 -0.03707117 0.02255832
0001d0 20 b7 fb bb f7 16 4b 3d 10 98 98 bd 2a d9 d1 3c
       -0.0076817423 0.049582448 -0.074508786 0.025616247
0001e0 70 e5 97 3d aa 80 e1 3d 6d 14 fc bd b8 13 81 3d
       0.074168086 0.11010869 -0.123085834 0.06302589
0001f0 b9 93 ee bd c0 5b e1 3b 70 23 04 be 56 a4 29 be
       -0.116492696 0.0068773925 -0.12904143 -0.16566595
000200 87 83 c3 3d 8e 86 84 3a 96 26 b7 3d ca 32 df bd
       0.09546571 0.0010110901 0.089429066 -0.10898359
000210 4f 91 57 3b c6 34 fb bb af 1e b7 bc 4d 63 8b bd
       0.0032893007 -0.007666203 -0.022353498 -0.068060495
000220 99 48 95 3d 24 78 45 be c3 52 76 3c 67 3e 4f 3e
       0.072892375 -0.19284111 0.01503438 0.20238648
000230 f6 e9 1f 3e bd 9a b9 3c 9d 73 88 3d e5 2f 5d bc
       0.15616593 0.022656793 0.066626765 -0.0135001885
000240 1b 55 c3 3b c6 09 d4 bc 4f 0a fe 3d ee 91 d4 bd
       0.005961073 -0.025883567 0.1240431 -0.103793964
000250 c6 aa 18 bd 57 65 93 3d ae 94 9c bc 7b f2 93 3b
       -0.037272237 0.071970634 -0.019113865 0.00451499
000260 8b 0d 10 3e 64 b9 c3 3c 4c 60 1f bd 9b b6 de 3d
       0.14067666 0.023892112 -0.038910195 0.10874673
000270 a3 25 c7 3c 70 94 f5 bc bc 06 bc 3d 24 bc 83 bd
       0.024309939 -0.029978007 0.09180972 -0.06432369
000280 df 21 fd 3c cb ef 1e bd 67 24 9d 3c 06 52 c2 3d
       0.03089994 -0.038802903 0.019182397 0.09488301
000290 a6 e0 3f bd df 29 64 3d 57 92 63 3d bc da 74 bd
       -0.0468451 0.055703994 0.055559482 -0.059778914
0002a0 2a 2d f2 3c 37 c9 bc bc 47 c2 c5 3d e5 26 58 bd
       0.029562552 -0.023045165 0.09656196 -0.052771468
0002b0 4e 02 89 bd 87 1e 23 be 5f d6 31 be f6 1e 8e 3d
       -0.06689893 -0.15929614 -0.17366932 0.06939499
0002c0 96 89 05 be db de 02 3e 49 eb 9d 3d 89 a6 18 bc
       -0.13040766 0.12780325 0.07710893 -0.009317049
0002d0 1f 00 60 3e 64 13 c5 bd 53 34 3b 3c 37 cf 24 3e
       0.21875046 -0.09622839 0.011426049 0.16094671
0002e0 eb 9f 80 bd 5b 54 87 3c f4 fd b3 3d 9a e1 b2 bc
       -0.06280502 0.016519716 0.08788672 -0.02183609
0002f0 1e eb 8b bd ca 49 17 be 72 ee 0b bc 62 a2 0f bd
       -0.068319544 -0.14774242 -0.0085407365 -0.03506697
000300 c1 f1 56 3e 08 03 f1 3c 85 99 4a bd 66 a3 c1 3c
       0.2099066 0.02942039 -0.049462814 0.023637485
000310 49 20 61 3d 52 cf 3d bb 34 9a 0c bd 6c 74 bd 3d
       0.05496243 -0.0028962684 -0.034326747 0.09250721
000320 58 8c 6d 3d 50 08 41 bd b4 12 4d 3c b4 3e 48 be
       0.05799517 -0.047127068 0.012516666 -0.1955517
000330 a0 84 a4 3c f4 67 29 3d c2 d1 a3 3d 5f 25 1a bc
       0.020082772 0.041358903 0.079989925 -0.009408324
000340 79 6d 39 bd 99 48 bf bc f3 bf 93 bd 9b b4 6e 3d
       -0.045270417 -0.023350047 -0.07214346 0.058277708
000350 4b 02 bb 3d 2a c6 df 3c 06 ee 59 bd 74 2a e7 bd
       0.09131297 0.027316172 -0.053205512 -0.11287394
000360 b3 5b 01 3d 44 f9 08 3c 7f cb 0e 3d 2f 88 4a bd
       0.03158159 0.008360211 0.034862038 -0.04944628
000370 70 64 cf 3b 18 29 a4 bc 81 c1 fd 3c f4 1c 58 3d
       0.0063291118 -0.020039126 0.030976059 0.052761987
000380 1d 71 d3 3c c0 3e 54 bc 1b 74 88 bd b3 c0 56 be
       0.025810773 -0.012954414 -0.0666277 -0.20971946
000390 6b e7 26 3d fb d9 78 be 6b 3d 17 3d 22 9d b7 bd
       0.04074804 -0.24301903 0.036923807 -0.089655176
0003a0 10 d5 10 3c 55 31 49 3d 2c f1 da 3d 35 68 e0 bd
       0.008839861 0.049119312 0.10690531 -0.10957376
0003b0 b0 40 5e bd df f6 96 bd 3f dc fd bc 78 29 2c 3d
       -0.05426091 -0.07371306 -0.03098881 0.042031735
0003c0 60 28 2b 3b 9f cc 30 be c9 ef 18 be c7 a9 85 3d
       0.0026116595 -0.17265557 -0.14935221 0.06526523
0003d0 94 4b 47 3c 77 cd 12 3e f3 7d 0f 3d 65 33 fb 3d
       0.012164015 0.14336191 0.035032224 0.12265662
0003e0 cc bd c7 bb 8d 16 5b bd 11 bc 92 3d 40 1d 21 bd
       -0.0060956236 -0.053488303 0.07164777 -0.039334536
0003f0 a7 6d f1 bd f0 6c 80 3d 30 33 25 bd e1 81 4f bd
       -0.11788493 0.06270778 -0.04033202 -0.05066097

layer2.bias f4 [128]
000000 94 f9 8b 3d 87 12 7c 3d 01 56 59 bd 6c 33 1d 3e
       0.068347126 0.061541107 -0.053060535 0.15351647
000010 c0 c2 d1 bd 61 39 ad bd 4d 3e a8 3d 9d 42 ad 3c
       -0.10242224 -0.0845821 0.08215008 0.021149928
000020 e2 69 86 3d 80 b2 7b be be e9 0a be 0d ca fa 3d
       0.06563164 -0.24579811 -0.13565728 0.122455694
000030 ec 52 68 be 5b d4 dd 3c b7 b7 b2 bd 5e e6 01 be
       -0.22687882 0.027078798 -0.08726447 -0.12685534
000040 db 54 f4 bb 0e ec 0c 3b 0e e8 49 bd 9e db e1 bd
       -0.0074564046 0.0021503004 -0.04929357 -0.11028217
000050 a6 75 7a bc 25 3e d8 3c 56 4f cb bd ba 49 35 3c
       -0.015286839 0.02639682 -0.099272415 0.011064941
000060 d6 80 12 bd a7 ce 0d bd c6 3d 55 be d0 c4 77 be
       -0.0357674 -0.034620907 -0.20824346 -0.24196172
000070 9c f5 d8 bd 31 29 a6 ba 3d 22 27 bd 79 c0 d6 bd
       -0.10593721 -0.0012677071 -0.040804137 -0.1048593
000080 b6 a2 a3 3d 9f 83 3d be 30 16 5e 3d 02 32 a5 3b
       0.07990019 -0.1850724 0.05422038 0.005041362
000090 4f 69 72 bc 43 06 11 be d2 a7 64 bd fd ff c1 bd
       -0.014795615 -0.14162545 -0.05582411 -0.09472654
0000a0 f3 a3 5f bd 75 b9 1f bd 3e 2f 81 3d a9 45 af 3c
       -0.054599714 -0.038995225 0.06307839 0.021395521
0000b0 dd f0 79 bd 4f 30 d6 3c 2d 28 50 bc 65 93 27 3e
       -0.06102072 0.026146082 -0.012704891 0.1636482
0000c0 52 d1 d1 3d 17 66 6a 3d 7a a4 99 bc 8d 9e 5c 3d
       0.10245003 0.057226267 -0.018755186 0.053862143
0000d0 41 df 3c be d2 e4 f7 bd ea a6 af 3d 6f e1 90 be
       -0.1844454 -0.12104191 0.08576758 -0.28296992
0000e0 af 8c bb bc 42 12 0c 3c ad e6 77 bd 13 99 af 3c
       -0.022894232 0.008549275 -0.060522724 0.021435296
0000f0 5e 7c 8c 3d ad ca 55 3d 9e e4 10 3e 9d 56 fa 3c
       0.06859659 0.05219524 0.1414971 0.030558879
000100 f2 22 0b bc 47 05 63 ba eb 6a 05 3e e9 9d 6e 3e
       -0.008492218 -0.0008660149 0.13029067 0.23302425
000110 66 be 0f be 69 ef 8d 3d 67 7d e2 bc 1f be c4 3d
       -0.14037475 0.069304295 -0.027647687 0.09606575
000120 de 95 18 bd 1b db 2a bd 1d 3d 9d bc 8f 74 16 3e
       -0.0372523 -0.04171286 -0.01919418 0.14692901
000130 c8 bf 9d 3d d2 e8 52 3d cf fd 76 be e4 6a 7a bd
       0.07702595 0.051491566 -0.24120258 -0.061137095
000140 68 34 d2 bd c6 26 04 3d 34 0c 39 3e 18 9b 30 3e
       -0.10263902 0.03226354 0.18071061 0.17246664
000150 53 5a b5 bd 61 ae 87 3d 27 fe 5b be c6 ea 4e 3d
       -0.088551186 0.06625057 -0.2148367 0.050516866
000160 07 88 8e bd 39 d3 26 be 66 d3 3f 3c 03 7f 79 3d
       -0.06959539 -0.16291513 0.011708116 0.060912143
000170 53 dd 0a 3d 01 47 f2 3d b4 6c 17 bc fa 2e b9 bd
       0.033902477 0.11829949 -0.009242225 -0.09042163
000180 f9 0d 46 3d f2 c4 3e 3d f2 75 bc 3c 24 5a 23 3e
       0.04835317 0.04657454 0.02300546 0.15952355
000190 85 53 8c 3d be 6a 40 3e 51 bc 68 bc e3 9c 5e be
       0.068518676 0.18790719 -0.014205054 -0.21739535
0001a0 99 54 69 bd 36 0e 9f bd 9a c6 6a bd 21 1e a3 3d
       -0.056965444 -0.077663824 -0.057318307 0.07964731
0001b0 7e ba bc bd ce 6d ac 3c bc 72 e8 bd f7 14 65 3d
       -0.09215258 0.021048453 -0.11350009 0.055928197
0001c0 3d 3a da bb bc 6f b7 bb 17 ba 62 3e 71 bb 4c be
       -0.0066597746 -0.0055980366 0.221413 -0.19993378
0001d0 98 d1 07 3d 20 c8 9c bc 37 2f 1c 3d 9d 82 35 be
       0.03315887 -0.019138396 0.038130965 -0.17725606
0001e0 16 64 f0 bd 01 57 11 bd 14 f6 87 3d 7f c3 be 3d
       -0.1173784 -0.035483364 0.066387326 0.09314632
0001f0 f9 e8 5c bc 7b 19 d1 bd 09 03 a9 bd 7b 41 40 3d
       -0.013483279 -0.10209938 -0.08252532 0.046937447

layer3.weight f4 [2, 128]
000000 80 fa 85 be 94 b8 2a 3e 78 0d b6 bc 80 d1 34 be
       -0.2616768 0.16671973 -0.02222322 -0.17658043
000010 6c 7f b8 be b4 1b ef 3d ce b5 f4 3d 43 f6 cc 3d
       -0.36034715 0.11675206 0.11948739 0.10007908
000020 b3 14 fd be b0 b1 8a 3e e8 00 d2 3e 0f bd c9 be
       -0.49429855 0.2708869 0.41016316 -0.39402053
000030 bf 49 a1 3e d7 82 d6 bd 20 ff 3f be 4d 1e 80 be
       0.31501576 -0.104741745 -0.18749666 -0.25023118
000040 c5 65 99 bd 88 0d 6c bd be c0 35 be 96 65 ab 3e
       -0.07490114 -0.057630092 -0.17749307 0.3347594
000050 40 66 84 bd 59 36 c6 3e 56 cb 16 3e 4f fe 17 3e
       -0.06464815 0.3871334 0.14726004 0.14843105
000060 7a 9d cb be 5d 2e f5 3d 0a c4 c9 3e e5 0d 10 3e
       -0.39768583 0.11971734 0.39407378 0.140678
000070 1f 62 90 be 7b e1 15 bd be 21 58 be 2d 29 78 be
       -0.2819986 -0.036591988 -0.21106622 -0.24234457
000080 4d 82 6c 3d ac b7 71 bd 1e 3c 41 3e 40 7f 30 3e
       0.057741452 -0.059013054 0.18870589 0.17236042
000090 a4 cb a6 bd ec b6 81 3e d5 b1 f4 3e 4a a4 ee be
       -0.0814431 0.2533487 0.47791925 -0.46609718
0000a0 6e 87 f2 3e 7c fc 88 be 5c 9c 51 be 1b 4c 7e be
       0.4736895 -0.2675513 -0.20469803 -0.2483372
0000b0 d5 c0 1a 3c 4f ff c8 be 9d b4 92 be 65 94 d2 be
       0.009445389 -0.39257285 -0.28653422 -0.4112884
0000c0 3d 41 7e be dc f5 13 3c fc 53 10 3e bb b7 4b be
       -0.24829574 0.009030785 0.14094537 -0.19894306
0000d0 2e 22 ec 3d 38 27 bf 3e 11 c7 94 3e 8d 9a c7 3e
       0.11529957 0.3733461 0.29058126 0.389851
0000e0 97 4f 42 be e8 0e 93 3e 33 0b 17 be 99 07 5d 3e
       -0.18975674 0.2872231 -0.14750366 0.2158493
0000f0 ed 2f ad be 48 c2 ea bd bf 7d 2b 3e 38 21 7e be
       -0.33825627 -0.114628375 0.16747187 -0.2481736
000100 0a c1 98 be bc b1 8a be 06 5e 98 3e 9d bd 75 be
       -0.29834777 -0.27088726 0.29759234 -0.23998113
000110 ac a3 bf 3d 6c d1 f7 be ed 3d 0b 3e 9f c3 aa 3e
       0.0935739 -0.48401964 0.13597842 0.33352372
000120 85 95 b8 3e 80 0f 4f be 77 f6 80 be 41 60 47 be
       0.36051574 -0.20220757 -0.25188038 -0.19470312
000130 35 f5 a3 3e b6 a7 91 be 92 18 39 3e e6 a2 97 be
       0.32023016 -0.28448266 0.18075779 -0.2961647
000140 ad 10 01 3f 8f 11 69 3e 6b b6 8f be f1 d3 2d bd
       0.5041607 0.22760604 -0.2806886 -0.04243845
000150 90 83 42 3e da dc b4 3e af 93 92 3d 5b 41 da be
       0.189955 0.35324746 0.07157075 -0.42627987
000160 30 15 d0 3e 9d b7 7a be 30 ce bd bd 8f 41 53 be
       0.40641165 -0.24484105 -0.09267843 -0.20630477
000170 71 d5 cf be c7 82 47 be 76 89 da 3e 11 31 b8 be
       -0.4059253 -0.19483481 0.42683 -0.35974935
000180 da 02 67 3e 24 8e d0 3e 41 c8 21 be aa 05 28 3e
       0.22559682 0.40733445 -0.15799047 0.1640841
000190 88 2b c4 bd 94 e8 b1 be 78 6f 66 be db 65 95 3b
       -0.095786154 -0.34747756 -0.2250346 0.0045592613
0001a0 8f 4e 3e be 42 42 43 be 46 f7 2c 3e c3 66 82 3e
       -0.18584655 -0.19068244 0.16891202 0.25469026
0001b0 b4 0e 87 be 0c 24 a3 3e 2a a1 2e bd e3 01 25 3e
       -0.26378405 0.3186344 -0.042634167 0.16114001
0001c0 12 23 55 3e 39 fa 4c be 9d 7b 58 be c2 0a 9c 3e
       0.2081416 -0.20017327 -0.21140905 0.30476958
0001d0 83 8a b9 3d 57 66 0e be 41 79 40 be 6a d3 96 3e
       0.09059622 -0.13906227 -0.18796255 0.2945817
0001e0 2e a3 61 be d6 e9 b0 3e ac 06 8b be 6c fb de 3e
       -0.22034904 0.34553403 -0.27153528 0.43551195
0001f0 50 3f ea bd e7 f4 aa be 52 32 a1 be b9 6b ad 3e
       -0.11437857 -0.3338997 -0.31483704 0.33871248
000200 4f 29 65 be 6b c1 31 be 5f 8c d2 3e 73 d5 2a be
       -0.22379039 -0.1735894 0.4112272 -0.16682987
000210 49 aa 93 3e 6e 3b fa 3e c2 85 c2 bd 70 96 24 bf
       0.28840855 0.48873466 -0.094981685 -0.6429205
000220 f1 81 1d be 42 bd 9f 3e 99 eb fa bd 80 40 f1 bd
       -0.153816 0.3119908 -0.12251968 -0.117798805
000230 fb 28 b9 3e b2 9b 18 3e 8e 21 e0 3e 2e 27 88 3e
       0.36164078 0.14903143 0.437756 0.26592392
000240 ea 5c 8e 3e 54 a7 ca 3e 0e 13 80 3e fe 5f 84 3e
       0.27805263 0.39580786 0.25014538 0.25854486
000250 76 dc f7 3e 2a 9d b8 bd d7 8d d1 be 1b 51 1e be
       0.48410386 -0.09014352 -0.40928528 -0.15460627
000260 9f 97 d9 bd 62 30 06 3f e2 f1 a5 3e 50 25 b7 3e
       -0.106246226 0.52417576 0.32411104 0.35770655
000270 70 f6 b6 3d 68 23 d2 3e d1 30 81 3e 80 6c a1 bd
       0.08933723 0.41042638 0.25232556 -0.07882023
000280 ff d5 e8 be 22 83 b4 3e 48 8a b5 bd 52 74 dc be
       -0.45475766 0.35256296 -0.08864266 -0.43057495
000290 0a 22 a0 3e 82 c1 33 3e 12 b7 0a 3d 98 14 81 bd
       0.3127597 0.17554286 0.033865996 -0.06302756
0002a0 1f 62 11 be c0 40 83 3e 23 13 92 3e e6 e5 05 be
       -0.14197586 0.25635338 0.28530225 -0.1307598
0002b0 f1 1e 91 be 0a b2 19 be bc 50 08 be e6 1d a4 bd
       -0.2834392 -0.15009323 -0.13312048 -0.08013515
0002c0 83 20 e8 be 07 f6 15 bf f4 20 ad 3e 1d 06 65 be
       -0.45337304 -0.5857853 0.33814204 -0.22365613
0002d0 01 a7 dc 3e 70 ec 01 3d f4 3e 89 be 91 58 be 3e
       0.43096164 0.031719625 -0.26805842 0.37176946
0002e0 28 c9 65 3e 70 ab 2c be a8 5e f5 3e 73 8b 7a 3e
       0.22440016 -0.16862273 0.4792378 0.24467258
0002f0 5e 28 0b 3d 2a bb 8a 3d 73 f3 67 be 4a d3 87 3e
       0.033974044 0.0677398 -0.22651462 0.26528388
000300 0f 59 09 be f8 ee f3 3d 2d fb 07 be 33 cf a9 be
       -0.1341288 0.11910814 -0.1327941 -0.33165893
000310 ce f3 16 3f 9a fa 04 be 4c e0 2f be 20 ed 54 3d
       0.58965766 -0.12986222 -0.17175406 0.051983953
000320 83 96 9d 3e 8a 47 b1 be 89 3f 05 3e 42 af e6 be
       0.30778894 -0.34624892 0.13012518 -0.45055586
000330 96 d3 2a 3e 03 2d 43 3e 74 6c eb 3e 7a 19 51 be
       0.16682276 0.1906014 0.4598118 -0.20419875
000340 9c 3a eb 3d da 03 80 be 74 86 8f be e3 f3 c8 be
       0.11485788 -0.25002939 -0.28032267 -0.3924857
000350 4f 9c 11 3f aa f5 0a be 77 ec d7 3e 00 50 9f be
       0.56879133 -0.13570276 0.42172596 -0.31115723
000360 b9 95 48 3e 30 83 c0 3e ff a9 8d 3e 86 f0 c9 3d
       0.19588365 0.37600088 0.2766876 0.09860329
000370 15 97 35 bd 92 58 7a be 2b 30 24 be 3c 69 6c bd
       -0.044333536 -0.2444785 -0.16034 -0.057717547
000380 54 4d d6 3e 5a e6 cd 3d e1 4c 69 3e 0f 11 a6 be
       0.41855872 0.10053702 0.22783233 -0.3243489
000390 c6 7f 97 be 99 6d ef bd ee d4 c0 3e d1 67 10 3f
       -0.2958967 -0.11690826 0.37662452 0.5640841
0003a0 ce d3 87 3e 23 e2 f7 3e ad 7b ad bd d5 90 cf be
       0.26528782 0.48414716 -0.08470855 -0.40540186
0003b0 90 a7 b8 3d 5e ff b4 3e 1f 6b ec 3e ce 8e da be
       0.09016335 0.3535108 0.46175477 -0.42687076
0003c0 1a 7d 6a be cd 8b 8d 3e 5c bc 26 be bb 1d 26 3e
       -0.22899285 0.27645722 -0.16282791 0.16222279
0003d0 9b fc bc be fe da b3 3e 75 ed da bd 26 ed a0 3e
       -0.36911473 0.35128015 -0.106898226 0.3143093
0003e0 a0 6b 6e 3e 33 43 8d be 72 e0 4b 3c 00 ba 16 be
       0.23283243 -0.2759033 0.012443649 -0.14719391
0003f0 4b 1a c6 3e b7 d6 e6 bc da d9 c1 3e 01 fe 90 be
       0.38691935 -0.028178556 0.3786152 -0.2831879

layer3.bias f4 [2]
000000 d6 e3 70 3d 8f b0 08 bd
       0.05881103 -0.033371504
