p3_collab-compet/agent1_actor.pt (torch, 82219 bytes, 6 tensors)

layer1.weight f4 [128, 24]
0.23295464 0.1928944 0.01610399 -0.0014247335 -0.025872402 0.15444201 -0.035454206 -0.06905736
0.22338678 -0.13689192 0.17842165 0.03300925 0.18904303 0.12380844 0.099423446 -0.03401498
0.07033231 0.016505975 -0.16110037 0.10541679 -0.06141776 0.045971405 -0.14871405 0.18879527
-0.186165 -0.25111857 -0.0009242045 -0.1481466 0.087083355 -0.20669271 0.24106073 -0.19880947
0.08284675 -0.1346717 -0.041086353 0.108836286 0.102610946 0.15038231 0.047507986 -0.08167774
-0.03472738 -0.33967173 0.10490752 0.10160884 0.20484056 -0.07108994 0.13683493 -0.04411402
0.087421946 0.085142404 -0.15065525 -0.12151716 -0.21332984 0.13127235 0.110202126 0.041899335
0.008710421 0.11843819 0.1481966 -0.24884671 -0.0049487967 -0.20024596 0.051389758 -0.1741121
0.032966223 0.07466047 0.21368928 -0.15971488 -0.09573537 -0.27983126 0.22798838 0.029295366
0.2535297 -0.3772681 -0.17781805 -0.28374267 -0.17958525 -0.08317934 0.097740635 0.045571372
-0.06453291 -0.41173282 0.057777226 -0.1502468 0.13516171 -0.09125602 0.06624187 -0.22633728
-0.035593793 -0.1454528 0.038113616 -0.09679827 0.20637652 0.20622204 -0.15306515 -0.15373145
0.18429285 -0.27648866 -0.10328485 -0.112823844 -0.10146861 0.05651544 -0.057862815 -0.063485265
0.012197111 -0.29257342 -0.22143151 0.017941985 -0.26005816 -0.18237253 0.15579106 0.16890119
0.039460152 -0.34520885 -0.09375976 -0.013078983 -0.1634924 -0.24905679 -0.047648184 -0.06733766
0.118764594 -0.4020222 0.03757196 -0.16699332 -0.14410846 -0.07111702 -0.01815393 -0.18978387
0.34695023 -0.3545875 0.17732261 0.08678637 -0.21640456 0.15917173 -0.054469828 -0.055061754
-0.045779433 -0.5452134 0.07353986 0.020249223 0.011668983 -0.12707733 0.16668555 -0.08499816
0.084938586 -0.174364 0.09912677 0.22877714 0.1761424 -0.08436633 0.045117497 -0.023813147
0.01825657 -0.44548056 0.17817828 -0.15697493 0.08833142 0.24347019 0.058581963 -0.11751695
0.20407356 -0.16962196 0.0174405 -0.009070219 0.064311765 0.12290107 -0.10233114 0.34614944
0.03179582 -0.20681152 -0.030538576 -0.2565565 0.098965175 -0.123520166 -0.043691304 -0.31670928
-0.12717108 -0.01505731 0.13337196 -0.45475236 0.008176451 -0.01582991 0.012385812 -0.33527616
0.13079378 0.021127848 0.053580344 -0.2290348 -0.08295502 -0.097166695 -0.058807105 -0.253995
0.19022782 -0.04275224 -0.045455515 -0.045210157 0.17234105 0.06617959 0.023826372 0.0576952
-0.058977813 -0.2576896 0.15864787 0.13057807 -0.059159406 -0.075334564 -0.1381355 -0.13178575
0.0457817 -0.12479309 0.08255507 0.06123339 -0.40001014 -0.11788094 -0.07981303 0.16444822
-0.04296973 0.114294365 0.089733504 -0.03014652 -0.09714842 0.15974657 -0.08753144 0.006680693
-0.23395883 0.29841906 0.16264084 0.04196258 -0.14887454 -0.22490574 -0.15779603 0.11978472
0.123696804 0.30897635 0.13803798 -0.012763625 -0.047169894 -0.23407976 -0.14378467 -0.2553537
0.007528257 -0.1279169 0.043721173 -0.03050517 -0.21867439 -0.35026157 -0.048575763 0.15467875
-0.11183071 0.10457142 0.004082177 -0.16343085 -0.16868967 -0.35079724 0.007116785 -0.20801727
00000000: a98b 6e3e 1c86 453e 84ec 833c 20be baba
00000010: 5cf2 d3bc 0c26 1e3e 6e38 11bd f26d 8dbd
00000020: 81bf 643e 652d 0cbe 2ab4 363e b534 073d
00000030: 7f94 413e 488f fd3d 859e cb3d 4b53 0bbd
00000040: 630a 903d 8a37 873c 7ff7 24be c2e4 d73d
00000050: 3091 7bbd 834c 3c3d 7f48 18be 8c53 413e
00000060: 0aa2 3ebe 9d92 80be 5046 72ba beb3 17be
00000070: c258 b23d 41a7 53be a0d8 763e b694 4bbe
00000080: 8fab a93d 61e7 09be 2a4a 28bd 8fe5 de3d
00000090: b025 d23d d2fd 193e bc97 423d a946 a7bd
000000a0: 4c3e 0ebd 74e9 adbe c1d9 d63d 4c18 d03d
000000b0: b9c1 513e 9a97 91bd 751e 0c3e e7b0 34bd
000000c0: 470a b33d 245f ae3d 5f45 1abe fddd f8bd
000000d0: 2373 5abe 426c 063e a7b1 e13d a39e 2b3d
000000e0: 27b6 0e3c b98f f23d d9c0 173e acd1 7ebe
000000f0: 8429 a2bb 470d 4dbe 117e 523d 714a 32be
00000100: 9707 073d 97e7 983d 5dd1 5a3e 4c8c 23be
00000110: e810 c4bd 0b46 8fbe c975 693e d6fc ef3c
00000120: a5ce 813e 4929 c1be ef15 36be b846 91be
00000130: 32e5 37be ee59 aabd 3e2c c83d 0ca9 3a3d
00000140: d529 84bd a5ce d2be d0a7 6c3d 4cda 19be
00000150: d567 0a3e 70e4 babd d1a9 873d f6c4 67be
00000160: ccca 11bd 94f1 14be 061d 1c3d 2c3e c6bd
00000170: 5e54 533e df2b 533e 1cbd 1cbe c76b 1dbe
00000180: 44b7 3c3e ec8f 8dbe 0287 d3bd 3010 e7bd
00000190: c6ce cfbd bc7c 673d 8f01 6dbd 9004 82bd
000001a0: 64d6 473c 2fcc 95be f1be 62be 12fb 923c
000001b0: 5826 85be ddbf 3abe b187 1f3e 6ff4 2c3e
000001c0: f8a0 213d 37bf b0be 1e05 c0bd 3b49 56bc
000001d0: 8d6a 27be be08 7fbe be2a 43bd 54e8 89bd
000001e0: da3a f33d dbd5 cdbe 0ee5 193d 4c00 2bbe
000001f0: 2b91 13be cda5 91bd 8db7 94bc b456 42be
00000200: 76a3 b13e 7e8c b5be 0f94 353e 0dbd b13d
00000210: 2899 5dbe eafd 223e c11b 5fbd 6f88 61bd
00000220: 3783 3bbd 1b93 0bbf 119c 963d b3e1 a53c
00000230: 432f 3f3c 8f20 02be 9eaf 2a3e 8413 aebd
00000240: 48f4 ad3d 7a8c 32be fa02 cb3d 8e44 6a3e
00000250: ac5e 343e 41c8 acbd 20cd 383d ca13 c3bc
00000260: cd8e 953c 0716 e4be 5e74 363e 09be 20be
00000270: 1be7 b43d 4050 793e a4f3 6f3d baac f0bd
00000280: a9f8 503e 61b1 2dbe 61df 8e3c 419b 14bc
00000290: e3b5 833d 8eb3 fb3d fd92 d1bd 803a b13e
000002a0: 553c 023d 66c6 53be 092c fabc 605b 83be
000002b0: 41ae ca3d 24f8 fcbd a7f5 32bd b827 a2be
000002c0: 2339 02be f0b2 76bc a992 083e 4dd5 e8be
000002d0: 85f6 053c baad 81bc dced 4a3c 51a9 abbe
000002e0: ceee 053e 4f14 ad3c 1077 5b3d 1988 6abe
000002f0: 52e4 a9bd 55ff c6bd b8df 70bd a20b 82be
00000300: 15cb 423e f91c 2fbd 902f 3abd 492e 39bd
00000310: 2c7a 303e 2a89 873d 862f c33c cd51 6c3d
00000320: b892 71bd e4ef 83be 9674 223e 42b6 053e
00000330: 2251 72bd 0249 9abd 6473 0dbe d8f2 06be
00000340: 9885 3b3d 8593 ffbd a212 a93d ddcf 7a3d
00000350: 21ce ccbe 906b f1bd 0475 a3bd 1d65 283e
00000360: 0701 30bd 2a13 ea3d 33c6 b73d d6f5 f6bc
00000370: c0f5 c6bd 9b94 233e af43 b3bd b7e9 da3b
00000380: e792 6fbe 62ca 983e 528b 263e f4e0 2b3d
00000390: 9172 18be b14d 66be 4895 21be b151 f53d
000003a0: c054 fd3d 2632 9e3e d459 0d3e 861e 51bc
000003b0: 3835 41bd 9bb2 6fbe 4a3c 13be b8bd 82be
000003c0: 99af f63b a6fc 02be f914 333d fae5 f9bc
000003d0: 2eec 5fbe 7c55 b3be 61f7 46bd 1b64 1e3e
000003e0: 8007 e5bd 8a29 d63d c8c3 853b 6b5a 27be
000003f0: fcbc 2cbe b29b b3be eb33 e93b 7b02 55be

layer1.bias f4 [128]
-0.029519541 0.12823358 0.058341682 -0.22238015 0.024906244 0.037072003 0.091938294 -0.04334802
-0.15918157 -0.059629735 0.0032794646 -0.27334017 -0.19207066 0.09371528 0.09495838 0.24909516
-0.13205086 -0.013131226 0.017510993 -0.11344909 -0.136261 0.27152154 0.14329463 -0.07189506
-0.28100666 0.060326274 -0.25654936 -0.11771889 -0.0049853567 0.016189482 -0.23152407 -0.10634716
0.02220976 0.032230087 -0.11566715 0.11011675 0.12620106 -0.054873407 0.004852865 0.10737831
-0.08861826 0.22074988 0.1313229 -0.13660997 -0.13502225 0.12611896 0.112958826 -0.036778808
-0.001991104 -0.018179923 0.023355113 0.009190258 0.14821148 -0.13114938 -0.052092627 -0.13204381
-0.06220704 0.20586744 -0.12685218 0.18279111 0.1236216 -0.122587316 0.044438172 -0.10920515
-0.069637045 -0.14464182 0.11533593 0.11713121 -0.14963652 -0.001978043 -0.22707053 -0.18812907
-0.025682896 0.1669332 0.15230495 -0.21001159 -0.018529017 -0.043069027 0.013476147 0.21790972
-0.14309223 0.26844075 -0.049131695 0.23163983 -0.20077612 -0.016007336 0.2793833 -0.058891363
0.011664473 0.18045959 -0.3340215 0.14874843 -0.06411656 0.18022002 -0.12292196 -0.08346809
0.040544774 -0.15191418 0.26163393 0.1016391 0.2566955 -0.17651218 -0.02529343 -0.06739898
0.009701276 -0.14014916 0.07508188 -0.02128798 -0.1415071 -0.28913185 0.13641822 -0.161283
0.1549106 0.0862098 0.09992103 -0.070537396 -0.11881325 -0.034877356 -0.1321975 0.11293733
-0.08775535 0.08785295 -0.07373788 0.14306863 0.089974985 -0.17113042 0.18783574 0.06780862
00000000: f7d2 f1bc aa4f 033e b0f7 6e3d 9fb7 63be
00000010: 2e08 cc3c d0d8 173d 254a bc3d b28d 31bd
00000020: 7e00 23be 4f3e 74bd 49ec 563b 3ef3 8bbe
00000030: 2cae 44be cced bf3d 8a79 c23d cd12 7f3e
00000040: 5738 07be 5b24 57bc 3773 8f3c ff57 e8bd
00000050: 0188 0bbe df04 8b3e d4bb 123e b83d 93bd
00000060: 1be0 8fbe af18 773d 705a 83be 9a16 f1bd
00000070: 345c a3bb ce9f 843c a514 6dbe 8acc d9bd
00000080: 3ef1 b53c b203 043d e6e2 ecbd e484 e13d
00000090: da3a 013e f0c2 60bd c804 9f3b 29e9 db3d
000000a0: 7e7d b5bd 420c 623e 8379 063e 7ce3 0bbe
000000b0: 4643 0abe 5425 013e f556 e73d 60a5 16bd
000000c0: 2f7d 02bb 10ee 94bc 3953 bf3c bc92 163c
000000d0: c0c4 173e 064c 06be 145f 55bd 7e36 07be
000000e0: cfcc 7ebd eace 523e 8ae5 01be 982d 3b3e
000000f0: 522d fd3d 0f0f fbbd cd04 363d f3a6 dfbd
00000100: de9d 8ebd fc1c 14be 3e35 ec3d 7de2 ef3d
00000110: 513a 19be 0ea2 01bb 2d85 68be e8a4 40be
00000120: f064 d2bc 89f0 2a3e d4f5 1b3e 470d 57be
00000130: 2aca 97bc 2669 30bd 0fcb 5c3c ba23 5f3e
00000140: c586 12be 1171 893e 513e 49bd fe32 6d3e
00000150: 4198 4dbe d121 83bc 540b 8f3e 1238 71bd
00000160: 591c 3f3c 66ca 383e de04 abbe 8251 183e
00000170: 8b4f 83bd 998b 383e 82be fbbd 51f1 aabd
00000180: 4712 263d 648f 1bbe e2f4 853e 2928 d03d
00000190: 986d 833e 9cbf 34be 2b34 cfbc 7a08 8abd
000001a0: 1af2 1e3c 4383 0fbe 87c4 993d 2164 aebc
000001b0: 3de7 10be 1709 94be 38b1 0b3e 5f27 25be
000001c0: e2a0 1e3e c38e b03d 66a3 cc3d e975 90bd
000001d0: 5c54 f3bd 8fdb 0ebd c85e 07be b04b e73d
000001e0: 14b9 b3bd 3fec b33d e303 97bd 9580 123e
000001f0: ce44 b83d d03c 2fbe 0358 403e 3fdf 8a3d

layer2.weight f4 [128, 128]
-0.12911631 0.06583069 0.096768305 0.12315801 -0.09881879 0.035164043 0.04010245 0.08828653
0.008400261 -0.05607782 0.15838802 0.17811956 0.043027215 -0.08331099 0.017852223 0.026249554
0.124148145 0.10844889 -0.103374854 -0.11753294 0.096020736 0.14495106 0.019753156 -0.031013321
-0.019821022 -0.06987192 0.011855032 0.056327403 0.041767333 0.02340167 -0.09599582 0.0028679306
-0.2252639 0.18879957 -0.053274248 0.1429846 0.13775194 -0.027334874 -0.09177091 0.0036916914
-0.12633795 -0.16854702 0.04466577 0.077303454 0.04492071 -0.057569496 -0.07682396 0.030348646
0.023155594 0.0062679034 0.08240747 -0.09729443 -0.015432235 -0.029485054 -0.16182429 0.05992872
-0.053159405 -0.02253741 0.0143991355 -0.12606412 0.014248373 0.0057877814 0.028660255 0.03631631
0.07436798 -0.01953011 0.059410896 0.0034063875 -0.026338626 0.07691468 -0.16445453 0.047268532
-0.08774263 -0.031609975 -0.1242102 -0.039089024 -0.043567576 0.039660357 -0.18125167 0.09681389
0.00612269 -0.00045897544 -0.08966215 0.095093966 0.04331531 0.07394462 -0.016776185 0.21211377
0.049576826 0.05882413 -0.09049067 -0.011837015 0.06673646 0.009700123 0.02607823 0.045477558
-0.106561564 0.058757458 -0.049844023 -0.0484797 -0.069859035 -0.22803319 -0.024763227 -0.095484
0.035633776 0.0063468805 -0.19142058 -0.11012658 -0.04903523 0.1707259 0.14009658 0.016548567
0.03614321 -0.066283226 0.0019542284 -0.10304547 -0.035492755 0.06543345 0.007252676 0.02900898
0.16552942 0.017416382 0.011981847 0.024147684 0.014592218 -0.09339596 -0.030491117 -0.060349986
0.08343697 -0.1332142 0.050779544 -0.042206377 -0.035141528 -0.10843709 -0.097118 0.04387265
-0.07291602 -0.23256701 0.078054145 0.027155684 -0.0019870165 0.039888646 0.059187986 -0.10209148
-0.0932045 0.04057577 -0.050304223 -0.15594618 0.07923575 -0.11368658 0.19198242 0.060904674
0.11882566 -0.04725761 -0.0459063 0.1158387 -0.053650413 -0.021717291 -0.016075423 -0.018771265
0.12909348 -0.13531414 -0.050463773 0.030835671 -0.02326221 0.02232901 -0.011356183 -0.021103008
-0.018167302 0.029527321 0.08418022 -0.09225686 -0.11902351 -0.09435297 0.036509205 0.05569613
-0.028165145 0.034358524 0.006254064 -0.08591094 0.08904562 -0.01624365 0.029121453 0.116767146
-0.10332359 -0.028697787 -0.03704896 0.009887394 -0.083619505 -0.037576534 0.020345785 0.0045769145
0.01924193 0.023068883 0.036313612 -0.02556853 -0.06822847 -0.04146714 0.07675827 0.07630111
-0.060811214 -0.012209965 0.014251927 -0.21488976 0.0049014688 0.108417794 -0.010898586 -0.022945574
-0.017868366 -0.092230715 -0.08655395 0.09286849 -0.19758014 -0.098649874 -0.04327379 -0.010879883
-0.012381377 -0.02492933 -0.071150765 -0.035136618 0.096629605 0.017967254 0.107281074 -0.10270242
0.064865954 -0.07717136 0.12592247 -0.05691074 0.082731 -0.121503726 0.06058338 -0.1280663
-0.009576007 0.00090211374 0.1415209 -0.056742474 0.011356352 0.019199705 -0.009783616 0.12206709
0.044476133 -0.15380004 -0.008781643 0.0019515909 -0.012450311 0.19434342 0.04530624 -0.03896878
0.010925198 -0.11810193 0.06931615 -0.021066556 -0.046084724 -0.10066582 -0.08464741 -0.026426556
00000000: 1137 04be 3ed2 863d 762e c63d 443a fc3d
00000010: 8161 cabd 2c08 103d 7742 243d 91cf b43d
00000020: 40a1 093c dbb1 65bd 7830 223e f964 363e
00000030: 4e3d 303d f49e aabd d33e 923c 4e09 d73c
00000040: 6241 fe3d 741a de3d 32b6 d3bd 1cb5 f0bd
00000050: 85a6 c43d 0d6e 143e 5fd1 a13c a60f febc
00000060: b25f a2bc 0219 8fbd 9c3b 423c 90b7 663d
00000070: 3914 2b3d dcb4 bf3c 7599 c4bd e4f3 3b3b
00000080: 94ab 66be ad54 413e 1936 5abd 8e6a 123e
00000090: d80e 0d3e 63ed dfbc 63f2 bbbd 4ef0 713b
000000a0: bc5e 01be 9797 2cbe 74f3 363d 4651 9e3d
000000b0: c7fe 373d fecd 6bbd e155 9dbd b99d f83c
000000c0: cdb0 bd3c fc62 cd3b 3fc5 a83d 4d42 c7bd
000000d0: 7cd7 7cbc a48a f1bc 44b5 25be d177 753d
000000e0: adbd 59bd 60a0 b8bc 5aea 6b3c f416 01be
000000f0: 0272 693c 6ea7 bd3b e9c8 ea3c 69c0 143d
00000100: 3d4e 983d 9cfd 9fbc d758 733d b33d 5f3b
00000110: 1ac4 d7bc 7285 9d3d c566 28be a69c 413d
00000120: 68b2 b3bd 7679 01bd eb61 febd d01b 20bd
00000130: ea73 32bd e672 223d 0a9a 39be 5c46 c63d
00000140: d9a0 c83b a4a2 f0b9 caa0 b7bd a0c0 c23d
00000150: 656b 313d 4770 973d 366e 89bc 5a34 593e
00000160: 1211 4b3d 92f1 703d 2c53 b9bd 0af0 41bc
00000170: 20ad 883d 44ed 1e3c 03a2 d53c ad46 3a3d
00000180: f33c dabd a9ab 703d 3f29 4cbd a692 46bd
00000190: 4112 8fbd 8881 69be 40dc cabc 1e8d c3bd
000001a0: b9f4 113d 7ef9 cf3b c203 44be 0b8a e1bd
000001b0: 2ad9 48bd c5d2 2e3e 7a75 0f3e dc90 873c
000001c0: e70a 143d 80bf 87bd 8312 003b 8109 d3bd
000001d0: da60 11bd f901 863d dba7 ed3b 3ea4 ed3c
000001e0: 8b80 293e cdac 8e3c 824f 443c 5dd1 c53c
000001f0: 3314 6f3c 6246 bfbd 82c8 f9bc 8c31 77bd
00000200: 01e1 aa3d 4e69 08be 36fe 4f3d 98e0 2cbd
00000210: 90f0 0fbd 4414 debd cde5 c6bd cfb3 333d
00000220: ff54 95bd 0c26 6ebe dada 9f3d 9975 de3c
00000230: 9b38 02bb 4762 233d 1a6f 723d 5615 d1bd
00000240: 00e2 bebd c732 263d cd0b 4ebd 5bb0 1fbe
00000250: 5a46 a23d 82d4 e8bd 0a97 443e 2e77 793d
00000260: de5a f33d 3291 41bd 3f08 3cbd d73c ed3d
00000270: 89c0 5bbd 76e8 b1bc 9bb0 83bc 32c6 99bc
00000280: 1531 043e ca8f 0abe 1ab3 4ebd 179b fc3c
00000290: 6490 bebc 54eb b63c 490f 3abc 37e0 acbc
000002a0: 98d3 94bc 48e3 f13c ae66 ac3d 2af1 bcbd
000002b0: 99c2 f3bd 213c c1bd ad8a 153d a021 643d
000002c0: 97ba e6bc 86bb 0c3d e4ee cc3b 13f2 afbd
000002d0: 8d5d b63d 6711 85bc 1d90 ee3c 9d23 ef3d
000002e0: 519b d3bd 9f17 ebbc a6c0 17bd bcfe 213c
000002f0: b440 abbd dae9 19bd 34ac a63c f1f9 953b
00000300: 41a1 9d3c f4fa bc3c 95bd 143d 1875 d1bc
00000310: 5ebb 8bbd 73d9 29bd 7133 9d3d c243 9c3d
00000320: 2e15 79bd 4e0c 48bc ea80 693c 100c 5cbe
00000330: 809c a03b 260a de3d fc8f 32bc 5bf8 bbbc
00000340: ae60 92bc 75e3 bcbd 3343 b1bd d631 be3d
00000350: 7352 4abe f208 cabd dc3f 31bd 8941 32bc
00000360: 42db 4abc 9838 ccbc 7eb7 91bd 6aeb 0fbd
00000370: bee5 c53d 1030 933c 2eb6 db3d a555 d2bd
00000380: 71d8 843d 050c 9ebd d2f1 003e 3c1b 69bd
00000390: df6e a93d f2d6 f8bd 4726 783d d023 03be
000003a0: afe4 1cbc d47b 6c3a dbea 103e cc6a 68bd
000003b0: fe0f 3a3c b348 9d3c 764b 20bc 4ffe f93d
000003c0: 9b2c 363d c27d 1dbe e1e0 0fbc 86cc ff3a
000003d0: 64fc 4bbc f601 473e 0993 393d ba9d 1fbd
000003e0: 9aff 323c 6ddf f1bd a0f5 8d3d c593 acbc
000003f0: 56c3 3cbd e229 cebd 9f5b adbd 817c d8bc

layer2.bias f4 [128]
0.04706081 0.12173565 0.031171473 0.17750487 -0.10092692 -0.22229877 0.018034099 0.1258461
0.18111044 -0.13976328 0.10118925 0.108490035 -0.091722324 0.031960156 -0.22457129 -0.020639975
0.04054598 -0.03645561 -0.16747752 -0.17405804 -0.11963732 0.088338375 -0.13813162 -0.036333397
0.08031532 -0.053489134 -0.10084768 -0.31326303 -0.085644424 -0.03328455 -0.12719241 -0.10578651
0.09825661 -0.17310578 0.020828474 0.120329924 0.03831708 -0.1579724 -0.16487381 0.18864214
-0.04966033 -0.07459886 0.019083291 0.1499447 -0.0025281524 0.04066463 -0.019569686 0.06971152
-0.0062536076 -0.020488424 0.010711667 -0.028824043 -0.0904594 -0.008523805 0.009804772 -0.14660242
-0.063679285 0.08414604 -0.08498005 -0.22027451 -0.008479865 -0.001116496 0.12638262 -0.08183987
0.0072016926 -0.07872534 0.054533858 0.14949024 -0.26822343 -0.05216003 -0.053264383 -0.024359452
-0.031277515 0.13020265 -0.103982195 -0.061485104 0.010477558 0.04552634 -0.12875745 -0.09700008
0.03151768 -0.1906718 0.16453125 0.116798766 -0.10392179 0.049689975 -0.11927764 0.20431459
-0.16451503 -0.11022291 -0.06412656 0.0781477 0.07227998 -0.044928387 0.05927782 -0.08060702
-0.05590819 0.0059221135 0.038333174 0.01071814 0.08877592 0.023488818 -0.04974814 -0.30508578
-0.008943433 -0.21414495 -0.06552618 0.15436248 0.006334181 0.015271086 -0.06980204 0.008730486
0.010519605 0.0046236296 0.050368898 0.0039416803 0.103053354 -0.1484461 -0.081323564 -0.13379873
-0.16881016 0.028242188 0.035343487 0.12552178 0.036986306 -0.098660745 -0.093113214 0.012517262
00000000: d6c2 403d 8a50 f93d 515b ff3c d6c3 353e
00000010: c6b2 cebd 4aa2 63be 3fbc 933c cddd 003e
00000020: 0475 393e 1b1e 0fbe 4f3c cf3d 0630 de3d
00000030: ead8 bbbd a7e8 023d 04f6 65be 2a15 a9bc
00000040: 8b13 263d 7a52 15bd 3a7f 2bbe 453c 32be
00000050: 6904 f5bd c0ea b43d 6072 0dbe 54d2 14bd
00000060: 5c7c a43d 6c17 5bbd 3a89 cebd 0364 a0be
00000070: 5866 afbd 6155 08bd ba3e 02be 99a6 d8bd
00000080: c33a c93d a442 31be 7aa0 aa3c 896f f63d
00000090: 5ff2 1c3d 84c3 21be aed4 28be 682b 413e
000000a0: a168 4bbd 4ac7 98bd 9054 9c3c 1a8b 193e
000000b0: 5caf 25bb f48f 263d 9b50 a0bc eac4 8e3d
000000c0: 10eb ccbb 57d7 a7bc fd7f 2f3c 6620 ecbc
000000d0: c742 b9bd 6ea7 0bbc 32a4 203c f21e 16be
000000e0: 496a 82bd c254 ac3d 050a aebd a48f 61be
000000f0: 22ef 0abc 6457 92ba 726a 013e a99b a7bd
00000100: 2dfc eb3b c03a a1bd e55e 5f3d f813 193e
00000110: 9554 89be c1a5 55bd c12b 5abd 798d c7bc
00000120: da1c 00bd d853 053e 9ef4 d4bd ced7 7bbd
00000130: 10aa 2b3c d479 3a3d fed8 03be faa7 c6bd
00000140: af18 013d 783f 43be e17a 283e 3134 ef3d
00000150: f3d4 d4bd b787 4b3d d647 f4bd d837 513e
00000160: a176 28be 8dbc e1bd c954 83bd e70b a03d
00000170: 8707 943d d406 38bd 4dcd 723d 4b15 a5bd
00000180: fcff 64bd 4a0e c23b 3f03 1d3d 239b 2f3c
00000190: 26d0 b53d 9f6b c03c b5c4 4bbd 3434 9cbe
000001a0: 7a87 12bc d048 5bbe 9732 86bd 3311 1e3e
000001b0: f68e cf3b 9433 7a3c 5ff4 8ebd 500a 0f3c
000001c0: 6c5a 2c3c d181 973b 9e4f 4e3d 3629 813b
000001d0: a30d d33d 4102 18be f88c a6bd 8902 09be
000001e0: 92dc 2cbe 295c e73c 55c4 103d c888 003e
000001f0: f47e 173d a50e cabd 24b2 bebd 3415 4d3c

layer3.weight f4 [2, 128]
-0.19659626 0.35178572 -0.05144746 -0.19570567 -0.4934157 -0.034133144 0.29640695 -0.06554475
-0.13214473 0.28094393 -0.1196129 -0.16227664 0.16287632 -0.208724 0.17198312 -0.0051961523
-0.11025779 -0.14193122 -0.36065075 0.3861739 0.17318256 0.5340951 0.5631162 0.40483296
-0.23535606 0.12216745 0.08204196 0.05957705 -0.30588293 -0.035955068 -0.3784888 -0.35013843
-0.18044673 -0.23833704 0.4990437 0.38026005 -0.16383848 0.18039691 0.37432617 -0.4527951
0.46508393 -0.31482843 -0.52116877 -0.35285455 0.008285411 -0.31993952 -0.24991392 -0.23259458
-0.26818442 0.31899607 0.20244226 -0.35854787 0.22088015 0.5138506 -0.013582304 -0.018736336
-0.2208752 0.69567436 -0.7783372 0.19660138 -0.2508246 -0.19052514 0.32971242 -0.44888154
-0.15530528 -0.16287811 0.5638804 -0.18811005 0.267817 -0.2624037 0.3788015 0.43844935
0.38746575 -0.3836761 -0.64422035 0.37348634 0.43420443 -0.5390947 0.08772465 -0.37484348
0.5269298 0.54555637 -0.2929675 -0.017827287 0.18115892 0.49789044 0.048343573 -0.29344705
0.33232838 -0.65979284 -0.013656624 -0.33466536 -0.25815952 -0.7228621 0.50467634 -0.4182154
0.14670087 0.6046062 -0.27529606 0.18741675 -0.16332856 -0.3863539 -0.43883148 0.015311996
-0.23016185 -0.18850864 0.5278163 0.41141814 -0.6496824 0.21503054 -0.37509945 0.3406997
0.27902836 -0.42928615 -0.4976946 0.4373493 0.081591316 -0.24284828 -0.30226913 0.1046789
-0.51068884 0.33119267 -0.4288965 0.52384555 0.020123014 -0.5139598 -0.3046023 0.49592227
-0.3151055 -0.20975673 0.23302393 -0.30148926 0.28575084 0.305925 -0.32890192 -0.34708428
-0.40855575 0.22181311 -0.3432564 -0.3675038 0.37052506 0.2718599 0.4205493 0.44821882
0.34412405 0.4342678 0.23740819 0.21644491 0.22068974 -0.15701757 -0.2508964 -0.245569
-0.3319062 0.3555474 0.4536488 0.26566327 0.27937233 0.3539264 0.44941688 -0.17797504
-0.33440405 0.25060946 -0.27742392 -0.3787211 0.28109905 0.27102944 0.28214917 -0.28861246
-0.2580783 0.36919838 0.19810274 -0.14380465 -0.21293171 -0.18130183 -0.08136001 -0.15403365
-0.2889941 -0.16550094 0.19374333 -0.06730306 0.29962066 0.06283453 -0.36576644 0.34579477
0.2977339 -0.0075288 0.102706365 0.2500781 -0.29425985 0.16468835 -0.2110468 0.10968679
-0.16253752 0.27439186 -0.42187032 -0.24762064 0.3010648 -0.2300423 -0.1406959 0.19573791
0.21382745 -0.3885925 0.07634991 -0.34419292 0.22873402 0.16171604 0.3100988 -0.07236676
0.10846313 0.12658606 -0.28612632 -0.25783962 0.27660298 0.13566417 0.43062234 -0.34407136
0.26369885 0.24566057 0.26541024 0.31378743 -0.3461639 -0.033274405 -0.25540927 -0.038865317
0.34573323 0.12866707 0.3802888 -0.53572047 -0.2752262 -0.09728445 0.23993152 0.3393992
0.23733056 0.4332882 -0.12346926 -0.26543623 -0.08792485 0.21581945 0.1532941 -0.26078278
-0.27242142 0.17770526 0.05897266 0.059149526 -0.2559059 0.22627138 -0.10275161 0.27378684
0.26045382 -0.26319858 0.060036726 -0.29468304 0.38579816 -0.06740096 0.23050657 -0.3418912
00000000: 8850 49be 421d b43e 92ba 52bd 1167 48be
00000010: fca0 fcbe 32cf 0bbd a7c2 973e 533c 86bd
00000020: f350 07be e2d7 8f3e 9cf7 f4bd d92b 26be
00000030: 0dc9 263e bfbb 55be 581c 303e 7c44 aabb
00000040: d6ce e1bd 6b56 11be 37a7 b8be 96b8 c53e
00000050: c556 313e 75ba 083f 6228 103f 4446 cf3e
00000060: 2e01 71be ee32 fa3d 9d05 a83d 1107 743d
00000070: b09c 9cbe 9f45 13bd 49c9 c1be 5845 b3be
00000080: 07c7 38be a00e 74be a882 ff3e 72b1 c23e
00000090: 46c5 27be f8b9 383e aea7 bf3e c2d4 e7be
000000a0: 7b1f ee3e 3131 a1be 516b 05bf 5aa9 b4be
000000b0: 88bf 073c 1dcf a3be 6fe9 7fbe 462d 6ebe
000000c0: 784f 89be 7453 a33e 064d 4f3e 9693 b7be
000000d0: 682e 623e b78b 033f 5088 5ebc f27c 99bc
000000e0: 1c2d 62be b717 323f 1b41 47bf df51 493e
000000f0: 156c 80be 0619 43be 11d0 a83e cdd3 e5be
00000100: 5908 1fbe 85c9 26be 775a 103f ec9f 40be
00000110: 4f1f 893e c759 86be 45f2 c13e 6f7c e03e
00000120: e961 c63e 3271 c4be a0eb 24bf 9a39 bf3e
00000130: 0b50 de3e 1c02 0abf fba8 b33d 7ceb bfbe
00000140: dfe4 063f 95a9 0b3f d6ff 95be 880a 92bc
00000150: b981 393e 7feb fe3e e903 463d b13e 96be
00000160: f226 aa3e 2fe8 28bf 08c0 5fbc 4259 abbe
00000170: 7c2d 84be 7e0d 39bf 7832 013f 5420 d6be
00000180: c138 163e 79c7 1a3f 9bf3 8cbe 2dea 3f3e
00000190: 9a3f 27be 2ed0 c5be 85ae e0be 2bdf 7a3c
000001a0: 8caf 6bbe 6908 41be f81e 073f 66a5 d23e
000001b0: 9651 26bf f730 5c3e 090d c0be 3170 ae3e
000001c0: cedc 8e3e 65cb dbbe d4d1 febe 3fec df3e
000001d0: 5919 a73d 38ad 78be 05c3 9abe e461 d63d
000001e0: 81bc 02bf 1692 a93e 5298 dbbe be1a 063f
000001f0: 05d9 a43c df92 03bf d5f4 9bbe 86e9 fd3e
00000200: 8255 a1be 78ca 56be d39d 6e3e cd5c 9abe
00000210: ef4d 923e 34a2 9c3e d565 a8be 08b5 b1be
00000220: 382e d1be fa22 633e 4ebf afbe 7529 bcbe
00000230: 76b5 bd3e 3931 8b3e 3d52 d73e f07c e53e
00000240: 0731 b03e 5958 de3e 221b 733e bca3 5d3e
00000250: 7efc 613e 37c9 20be 7e75 80be 7176 7bbe
00000260: 9cef a9be 4f0a b63e a844 e83e 0405 883e
00000270: e409 8f3e d735 b53e f819 e63e 173f 36be
00000280: 0237 abbe e24f 803e 820a 8ebe bbe7 c1be
00000290: 37ec 8f3e 5fc4 8a3e db75 903e 03c5 93be
000002a0: d722 84be 9207 bd3e 72db 4a3e 8741 13be
000002b0: c50a 5abe 30a7 39be 14a0 a6bd ffba 1dbe
000002c0: 09f7 93be 1479 29be a764 463e 30d6 89bd
000002d0: e167 993e 64af 803d bd45 bbbe 030c b13e
000002e0: 9470 983e 27b4 f6bb b757 d23d 3d0a 803e
000002f0: 3aa9 96be 10a4 283e a71c 58be 78a3 e03d
00000300: 3c70 26be 177d 8c3e 63ff d7be 4490 7dbe
00000310: 2a25 9a3e 3590 6bbe 9612 10be 856f 483e
00000320: 95f5 5a3e 99f5 c6be 575d 9c3d 0e3a b0be
00000330: 4039 6a3e e498 253e 45c5 9e3e 0635 94bd
00000340: eb21 de3d c79f 013e 267f 92be 8e03 84be
00000350: e89e 8d3e 8ceb 0a3e 887a dc3e 1f2a b0be
00000360: 8903 873e 728e 7b3e dae3 873e bfa8 a03e
00000370: 653c b1be be4a 08bd 01c5 82be 3d31 1fbd
00000380: f203 b13e 4dc1 033e 37b5 c23e fa24 09bf
00000390: 73ea 8cbe 123d c7bd 9cb0 753e bbc5 ad3e
000003a0: c806 733e f3d7 dd3e 74dd fcbd 42e7 87be
000003b0: f211 b4bd c6ff 5c3e 21f9 1c3e 5285 85be
000003c0: d27a 8bbe 5ef8 353e 518d 713d c646 723d
000003d0: 1906 83be afb3 673e 706f d2bd ca2d 8c3e
000003e0: 345a 853e f7c1 86be 12e9 753d b2e0 96be
000003f0: 5687 c53e 8409 8abd ea09 6c3e 5d0c afbe

layer3.bias f4 [2]
0.077279925 -0.04771367
00000000: f044 9e3d 696f 43bd
