p3_collab-compet/agent2_critic.pt (torch, 98269 bytes, 9 tensors)

bn.weight f4 [48]
0	0x3f79de40	0.9760475
1	0x3f822728	1.01682
2	0x3f43f7f2	0.7655021
3	0x3f6e04d3	0.9297611
4	0x3f8cbc7a	1.0995018
5	0x3f8e38bb	1.1111063
6	0x3f4d443d	0.8018225
7	0x3f82ceaa	1.0219319
8	0x3f65b6ab	0.89731854
9	0x3f840be1	1.0316125
10	0x3f662434	0.8989899
11	0x3f8114e3	1.0084499
12	0x3f88dcc7	1.0692376
13	0x3f87290c	1.0559402
14	0x3f56dac3	0.83927554
15	0x3f7dcd13	0.99141043
16	0x3f80efe6	1.0073211
17	0x3f85e852	1.0461524
18	0x3f5c0a86	0.8595356
19	0x3f8596b5	1.0436617
20	0x3f963a90	1.1736622
21	0x3f90b269	1.1304446
22	0x3f65c887	0.89759105
23	0x3f7cb59f	0.9871463
24	0x3f5c445d	0.86041814
25	0x3f7db6cd	0.99107057
26	0x3f5252ff	0.8215789
27	0x3f77b0f3	0.9675438
28	0x3f8d87f4	1.1057115
29	0x3f852eb7	1.0404881
30	0x3f4e0b39	0.80485874
31	0x3f6bcbca	0.9210783
32	0x3f677d33	0.90425414
33	0x3f784ba3	0.9699041
34	0x3f5f999d	0.8734377
35	0x3f812137	1.0088261
36	0x3f8d21d6	1.1025951
37	0x3f879098	1.0591002
38	0x3f689bba	0.9086262
39	0x3f7204ad	0.94538385
40	0x3f84abed	1.0364968
41	0x3f85ecaf	1.0462855
42	0x3f55db9d	0.8353823
43	0x3f8853ee	1.0650613
44	0x3f921972	1.1414015
45	0x3f8c166c	1.0944343
46	0x3f5b3856	0.85632837
47	0x3f89a2b5	1.0752779

bn.bias f4 [48]
0	0xbe2ff864	-0.17184597
1	0xbcdc4324	-0.026887484
2	0x3d8ce5d4	0.06879774
3	0xbd7460b5	-0.05966254
4	0xbba4f6a0	-0.005034283
5	0x3db900ab	0.090333305
6	0xbd4923a8	-0.04910627
7	0xbd0e486d	-0.03473704
8	0xbe49f57c	-0.19722551
9	0xbdb28a21	-0.08717752
10	0xbda014cd	-0.078164674
11	0xbd8fe57c	-0.070261925
12	0xbd65c5d8	-0.05609688
13	0x3e15d3d0	0.14631581
14	0x3ccf28a1	0.025287928
15	0xbd2bff66	-0.041991614
16	0xbd9114b3	-0.07084026
17	0xbd6c9097	-0.05775508
18	0x3daba517	0.08381098
19	0xbd7fe09e	-0.06247007
20	0xbd16630b	-0.03671555
21	0x3dc1fe83	0.094723724
22	0xbd855984	-0.065112144
23	0xbcfa086e	-0.030521598
24	0xbdf9559c	-0.12174532
25	0xbd72cb41	-0.05927587
26	0x3e7d6bd3	0.24748163
27	0xbd3e4e73	-0.046461534
28	0x3c9477a1	0.01812345
29	0x3d9ced65	0.07662467
30	0xbd734ca6	-0.05939927
31	0xbd83d579	-0.06437201
32	0xbd7e2495	-0.062046606
33	0x3cf8da84	0.030377634
34	0x3d205f5c	0.03915344
35	0xbdb7043e	-0.08936356
36	0x3df78d69	0.12087519
37	0x3c1276c4	0.008939449
38	0xbddd083a	-0.10792585
39	0xbaaf0e2a	-0.0013355662
40	0xbdc42458	-0.095772445
41	0xbd690bec	-0.056896135
42	0xbdb96ecb	-0.09054335
43	0xbe0ff2f7	-0.14057527
44	0x3d71fafa	0.05907724
45	0x3d7249a4	0.05915226
46	0x3d0330b9	0.032028887
47	0xbd1533a8	-0.036426216

bn.running_mean f4 [48]
0	0xc0c115ec	-6.033926
1	0xbed8a66b	-0.42314467
2	0x4038b8a0	2.8862686
3	0xbcac1a8a	-0.021008749
4	0xbced34d7	-0.02895586
5	0x407609f3	3.8443573
6	0x4038b8a0	2.8862686
7	0xbcac1a8a	-0.021008749
8	0xc0c346da	-6.102399
9	0xbedd56e7	-0.43230364
10	0x404a97bf	3.1655118
11	0x3cb812f0	0.022469968
12	0xbb1a9e52	-0.0023592901
13	0x4076b2aa	3.8546548
14	0x404a97bf	3.1655118
15	0x3cb812f0	0.022469968
16	0xc0c59009	-6.1738324
17	0xbedee1db	-0.4353169
18	0x4045871b	3.0863712
19	0x3c5bcbd8	0.013415299
20	0x3c98a45a	0.018633056
21	0x40753db5	3.8318913
22	0x4045871b	3.0863712
23	0x3c5bcbd8	0.013415299
24	0xc0fa5977	-7.823421
25	0xbe55b431	-0.20869519
26	0x3f766a00	0.96255493
27	0x3df10922	0.1176932
28	0x3ced34d7	0.02895586
29	0x407609f3	3.8443573
30	0x3f766a00	0.96255493
31	0x3df10922	0.1176932
32	0xc0fdf96e	-7.936698
33	0xbe5aa387	-0.21351443
34	0x3f927f90	1.1445179
35	0x3db9ee04	0.09078601
36	0x3b1a9e52	0.0023592901
37	0x4076b2aa	3.8546548
38	0x3f927f90	1.1445179
39	0x3db9ee04	0.09078601
40	0xc1005e11	-8.022965
41	0xbe5a559f	-0.21321724
42	0x3f99850c	1.1993728
43	0x3da9d568	0.08292657
44	0xbc98a45a	-0.018633056
45	0x40753db5	3.8318913
46	0x3f99850c	1.1993728
47	0x3da9d568	0.08292657

bn.running_var f4 [48]
0	0x4163af18	14.2302475
1	0x3f7f420f	0.9971017
2	0x43ed7b50	474.96338
3	0x4180dc3b	16.107534
4	0x41fa4d29	31.287676
5	0x402faab1	2.7447932
6	0x43ed7b50	474.96338
7	0x4180dc3b	16.107534
8	0x415a2cac	13.635906
9	0x3f81ff52	1.0156043
10	0x43f1ed8c	483.85583
11	0x418379e3	16.434515
12	0x4203ad1f	32.919064
13	0x40302de2	2.7528005
14	0x43f1ed8c	483.85583
15	0x418379e3	16.434515
16	0x41519858	13.099693
17	0x3f842880	1.032486
18	0x43f8eb0d	497.83633
19	0x41839e07	16.452162
20	0x420a76f5	34.61617
21	0x403ba727	2.9320772
22	0x43f8eb0d	497.83633
23	0x41839e07	16.452162
24	0x411680b5	9.406423
25	0x3f4a455d	0.7901209
26	0x43baa25d	373.26846
27	0x418672ba	16.806019
28	0x41fa4d29	31.287676
29	0x402faab1	2.7447932
30	0x43baa25d	373.26846
31	0x418672ba	16.806019
32	0x410555b2	8.333422
33	0x3f516d8e	0.8180779
34	0x43bef696	381.92645
35	0x4188d9fd	17.10644
36	0x4203ad1f	32.919064
37	0x40302de2	2.7528005
38	0x43bef696	381.92645
39	0x4188d9fd	17.10644
40	0x40f58af2	7.673211
41	0x3f584301	0.8447724
42	0x43c40589	392.04324
43	0x418a03eb	17.251913
44	0x420a76f5	34.61617
45	0x403ba727	2.9320772
46	0x43c40589	392.04324
47	0x418a03eb	17.251913

layer1.weight f4 [128, 48]
0	0x3e173cc9	0.14769281
1	0x3cd19da7	0.02558787
2	0x3d3d76e8	0.046255976
3	0x3e106de5	0.14104421
4	0x3c54822c	0.0129704885
5	0x3d36bb9b	0.04461251
6	0x3c62c3e6	0.013840651
7	0x3dbc9e74	0.0920991
8	0x3e0668ad	0.13125868
9	0xbe05473e	-0.13015458
10	0x3e18b5ad	0.14913054
11	0x3d94f93c	0.072741
12	0x3e02b669	0.12764896
13	0xbcf14184	-0.029450186
14	0x3dbc4df9	0.091945596
15	0x3cc6f5a3	0.02428705
16	0x3df83921	0.121202715
17	0x3c672804	0.014108662
18	0xbd6bcb77	-0.057567086
19	0x3d757e86	0.059935115
20	0xbdd15449	-0.10221154
21	0xbaa2890f	-0.0012400466
22	0xbd3848f4	-0.04499145
23	0x3df244c3	0.118295215
24	0xbe423872	-0.18966845
25	0xbdf3d517	-0.11905878
26	0xbcc930a7	-0.024559332
27	0xbd747db6	-0.0596902
28	0xbd0230ef	-0.031784948
29	0xbe03a181	-0.12854578
30	0x3e1bee01	0.1522751
31	0xbdc4f01b	-0.09616109
32	0x3ddfd2ef	0.10928904
33	0xbbc00f90	-0.00586123
34	0xbc8dbbfd	-0.017301554
35	0x3d7071b6	0.058702193
36	0x3b12fd2b	0.0022428732
37	0x3d8e05fd	0.06934736
38	0x3d478813	0.048713755
39	0xbda09a9e	-0.07841991
40	0x3d801626	0.062542245
41	0xbdc084fc	-0.09400365
42	0x3bccaf33	0.0062464713
43	0x3e3116be	0.17293832
44	0x3df538a7	0.11973696
45	0xbd4438a0	-0.047905564
46	0x3ce0d3de	0.027444776
47	0x3d8acb4d	0.06777058
48	0x3d01ed35	0.03172036
49	0xbdcd773f	-0.1003251
50	0xbdd0df24	-0.10198811
51	0xbdcebc48	-0.100945055
52	0xbd1f0968	-0.03882733
53	0x3dd9cb75	0.106345095
54	0x3da95576	0.082682535
55	0x3c74d88a	0.014944205
56	0x3bee3948	0.007270012
57	0xbdac9bff	-0.084281914
58	0x3db7c2c8	0.089726985
59	0xbe06e42c	-0.13172978
60	0x3d132fee	0.03593438
61	0xbd31faef	-0.0434522
62	0x3cb589ac	0.022160374
63	0xbda12241	-0.078678615
64	0x3d2b64fd	0.041844357
65	0xbdff4171	-0.12463654
66	0x3db2a149	0.08722169
67	0xbdae4a03	-0.0851021
68	0xbe0a045b	-0.13478224
69	0xbe05ae55	-0.13054784
70	0x3dc1be2d	0.09460101
71	0x3d479c5d	0.048733104
72	0x3de2a8c1	0.110673435
73	0xbd8e3c4d	-0.06945095
74	0xbde517b8	-0.111861646
75	0xbd8e58c9	-0.06950528
76	0xbe2c072a	-0.16799608
77	0x3d402b44	0.04691626
78	0x3da0e5e3	0.078563474
79	0x3e26e537	0.16298376
80	0xbdbf5f36	-0.09344332
81	0xbd83fdd9	-0.06444902
82	0x3daddae0	0.08489013
83	0xbd28e8f2	-0.04123778
84	0x3d80098a	0.062518194
85	0x3c8cf81a	0.017208148
86	0x3db5a408	0.08869177
87	0xbdc0c886	-0.09413247
88	0xbd2ec040	-0.042663813
89	0x3d73fb91	0.059566084
90	0x3d7da2eb	0.06192295
91	0xbd18640c	-0.037204787
92	0x3e09d80b	0.1346132
93	0x3d5a9cda	0.05337224
94	0xbd928a49	-0.07155282
95	0xbd9b52b3	-0.07584133
96	0x3d1e576f	0.038657602
97	0x3dc2adfb	0.095058404
98	0xbccefa30	-0.025265783
99	0xbdd0650a	-0.10175522
100	0xbd8a9550	-0.0676676
101	0x3d827d52	0.06371559
102	0x3c0b1c29	0.008490601
103	0xbd8526a3	-0.0650151
104	0xbbdd37a5	-0.006751018
105	0xbd407c8d	-0.04699378
106	0xbd9b68ba	-0.075883344
107	0xbe25e159	-0.16199245
108	0xbdf44a28	-0.11928207
109	0xbd1c053e	-0.038090937
110	0x3e42976b	0.19003074
111	0xbd62e765	-0.055396456
112	0x3d39f0cb	0.045395654
113	0xbdf5c92e	-0.120012626
114	0xbd73d67e	-0.059530728
115	0xbda6b8db	-0.08140727
116	0xbceed375	-0.029153565
117	0xbddbc39b	-0.10730668
118	0xbcc90fb3	-0.024543619
119	0xbdf524d8	-0.11969918
120	0xbca920a5	-0.020645449
121	0xbcd2f02e	-0.025749292
122	0x3d18acfb	0.037274342
123	0xbd95b778	-0.073103845
124	0xbdeb2d13	-0.114832066
125	0xbd6a1420	-0.0571481
126	0xbb8bd811	-0.0042677005
127	0xbdba5b56	-0.09099452
128	0x3dfeba38	0.12437862
129	0xbc56bfe6	-0.013107276
130	0x3dc3deed	0.09564004
131	0x3d69e0df	0.05709922
132	0xbe037384	-0.12837034
133	0x3e1c0e2a	0.15239778
134	0xbd8c9482	-0.06864263
135	0xbd2efa47	-0.04271915
136	0xbe0e68b9	-0.13907136
137	0xbde46984	-0.11152938
138	0x3bb9927b	0.005663214
139	0xbd3d7dc3	-0.046262514
140	0x3dde407c	0.10852143
141	0xbdc9e5fb	-0.098583184
142	0x3d94665f	0.07246088
143	0xbdf68aa5	-0.12038163
144	0xbcc0af06	-0.023520958
145	0x3cb481a7	0.02203448
146	0x3d486716	0.048926435
147	0x3dc93f53	0.09826531
148	0x3e0483ae	0.12940857
149	0xbdb0a5ac	-0.086253494
150	0x3c02321c	0.007946517
151	0xbda2de33	-0.079525374
152	0xbd53c30f	-0.051699694
153	0xbdb89d1c	-0.09014341
154	0x3e0d8686	0.13820848
155	0xbd9d84d0	-0.076913476
156	0x3dcb3c5c	0.09923622
157	0x3ce97895	0.02849988
158	0x3d6544c3	0.05597378
159	0xbd484e44	-0.048902765
160	0x3dc2f8c6	0.09520106
161	0x3c7ac8f9	0.015306705
162	0x3d2ecb8e	0.042674594
163	0xbe0cc611	-0.13747431
164	0x3d2ea721	0.042639855
165	0x3ca352cd	0.019936943
166	0xbd36748b	-0.044544738
167	0x3de973fa	0.11399074
168	0x3cef8da8	0.029242352
169	0xbdb625f4	-0.08893958
170	0xbdb287b6	-0.08717291
171	0x3ca474cc	0.020075224
172	0x3dab0cf1	0.08352078
173	0xbc205e09	-0.009788045
174	0xbddaef46	-0.10690169
175	0xbcbc1ef1	-0.022963973
176	0xbde55409	-0.11197669
177	0x3d9790c4	0.07400659
178	0x3def81d4	0.116946846
179	0xbe22a81c	-0.15884441
180	0x3c35c4d5	0.011094292
181	0x3d535743	0.05159689
182	0x3ce2c6a3	0.027682608
183	0xbd941098	-0.072297275
184	0x3d3bf638	0.04588911
185	0x3dce4af1	0.10072888
186	0x3d68b4f3	0.05681319
187	0xbadfeb76	-0.0017083723
188	0xbca547ac	-0.020175777
189	0x3d655f30	0.05599898
190	0xbc9e30d0	-0.019310385
191	0xbc89e310	-0.016831905
192	0x3da9cf85	0.08291534
193	0x3dc8bd62	0.09801747
194	0xbce8f648	-0.028437749
195	0xbb615cdd	-0.0034387626
196	0x3d256b74	0.04038568
197	0x3db9146c	0.09037098
198	0x3cb0b048	0.021568432
199	0x3d8c5139	0.068514295
200	0xbdc730d4	-0.0972611
201	0xbd7d2714	-0.061804846
202	0x3deb1f8b	0.11480626
203	0x3df86be8	0.121299565
204	0x3cedb7b2	0.029018257
205	0xbdcffd22	-0.10155703
206	0xbdc9bc40	-0.09850359
207	0xbd8541f3	-0.065067194
208	0xbd549172	-0.05189652
209	0x3cc24146	0.023712765
210	0x3d798ee7	0.060927298
211	0x3cab1ebd	0.02088868
212	0xbe1ee63e	-0.15517518
213	0xbe375783	-0.17904477
214	0xbd541c89	-0.051785026
215	0x3dbfda99	0.09367866
216	0x3cc74995	0.024327079
217	0xbdbbecb3	-0.09176006
218	0x3d827929	0.06370766
219	0xbd04cddd	-0.03242289
220	0xbe0730da	-0.13202229
221	0x3e534ed0	0.20635533
222	0xbd55584b	-0.052086156
223	0xbb9ef7d8	-0.0048513226
224	0xbdfe0c1a	-0.12404652
225	0x3d54dae7	0.051966574
226	0x3dee1cb0	0.116265655
227	0x3db59375	0.08866016
228	0xbe1012a3	-0.1406961
229	0xbe1a7ca0	-0.15086603
230	0xbdd8d4c7	-0.10587459
231	0x3e1100cf	0.14160465
232	0x3d64f15a	0.055894233
233	0x3dd95352	0.10611595
234	0x3dadce94	0.08486667
235	0x3d8322c5	0.06403116
236	0x3cd2aa0f	0.025715856
237	0xbe4b8087	-0.19873248
238	0xbdf2b2ae	-0.11850487
239	0xbde0f210	-0.1098367
240	0x3dc7bc6a	0.09752734
241	0xbd951dad	-0.07281051
242	0xbc7c22f0	-0.015389189
243	0xbdc32162	-0.09527852
244	0xbd45b7d2	-0.048271008
245	0xbddc8afb	-0.10768696
246	0xbd9d4f4c	-0.0768114
247	0x3d0ab8be	0.03386759
248	0xbc55b905	-0.0130446
249	0x3dc6737d	0.096899964
250	0xbd8f5811	-0.06999219
251	0xbda79c32	-0.08184089
252	0xbd3735ff	-0.04472923
253	0xbd6ff6b3	-0.05858488
254	0xbd9cd4c1	-0.07657767
255	0xbde9c5be	-0.114146695

layer1.bias f4 [128]
0	0xbdd73918	-0.10508937
1	0x3d1f198e	0.03884273
2	0xbc161b55	-0.00916179
3	0x3df63f17	0.12023752
4	0xbe35fc4c	-0.17772025
5	0xbd886a2b	-0.06660875
6	0x3d81e43e	0.06342362
7	0x3d117335	0.03551026
8	0xbdd5338e	-0.10410224
9	0x3e0aff2d	0.13573904
10	0xbe53368c	-0.20626277
11	0x3dc7a9b5	0.09749166
12	0xbd6e0147	-0.058106687
13	0x3d9b7d2a	0.075922325
14	0x3da813c3	0.08206894
15	0x3e0cecf1	0.13762261
16	0x3df44848	0.11927849
17	0xbe0bffc8	-0.13671792
18	0xbe32d864	-0.17465359
19	0x3b967e91	0.0045927246
20	0x3d8776b0	0.06614435
21	0x3d23b554	0.03996785
22	0xbd8689a8	-0.065692246
23	0xbe313f67	-0.17309342
24	0x3db202e4	0.086919576
25	0x3d96856f	0.07349669
26	0xbe0a07a8	-0.13479483
27	0x3db25cc7	0.08709102
28	0xbe233f0f	-0.15942024
29	0x3e1ad946	0.15121946
30	0x3e308d7c	0.17241472
31	0x3d80a933	0.06282272
32	0xbdb3da7d	-0.08781908
33	0x3dba581b	0.09098836
34	0x3decfaa2	0.11571242
35	0x3dc25b7b	0.09490105
36	0xbdc26f3f	-0.09493875
37	0xbcf54819	-0.029941605
38	0xbe1483fb	-0.14503472
39	0xbb0fe25d	-0.0021954991
40	0xbe17322e	-0.14765236
41	0xbbcd2da6	-0.0062615452
42	0x3e176db6	0.14787945
43	0xbdd1cef6	-0.10244553
44	0xbabd3de5	-0.0014438002
45	0xbe03f700	-0.12887192
46	0xbd2a164b	-0.041525166
47	0x3e382a10	0.17984796
48	0xbe315af6	-0.17319855
49	0xbd8898c3	-0.06669762
50	0xbdddd663	-0.10831907
51	0xbd0a2491	-0.03372628
52	0xbe23ac6f	-0.15983747
53	0xbe0a4a4a	-0.13504902
54	0x3e21481f	0.15750168
55	0x3df8d465	0.12149886
56	0x3d7f6897	0.062355604
57	0xbd6ff202	-0.058580406
58	0x3d328f81	0.043593887
59	0x3c4adb19	0.0123813385
60	0xbdbdf111	-0.092744954
61	0x3d1ad02d	0.03779619
62	0xbd6245a6	-0.055242203
63	0xbdae8999	-0.085223384
64	0xbd9e6411	-0.0773393
65	0xbe399182	-0.18121913
66	0xbe5992e5	-0.21247442
67	0xbc9704ab	-0.018434843
68	0x3c857537	0.016291244
69	0xbdc23bb1	-0.094840415
70	0xbc0d967c	-0.008641835
71	0xbe3f308a	-0.1867086
72	0x3e346e06	0.17620096
73	0x3d8584ad	0.065194465
74	0xbe089105	-0.1333657
75	0xbe3b37e5	-0.18283041
76	0xbe5cf21d	-0.21576734
77	0x3d676196	0.05648955
78	0xba25a565	-0.0006318896
79	0x3c600f9a	0.013675595
80	0x3e0f6d33	0.140065
81	0xbdd72932	-0.10505904
82	0x3c9aacf6	0.018881302
83	0xbcf776af	-0.03020796
84	0xbe80cbae	-0.25155395
85	0x3daf65f0	0.08564365
86	0xbd667bc6	-0.056270383
87	0x3cc64df1	0.024207087
88	0xbc63c55f	-0.013902037
89	0xbe343853	-0.17599611
90	0xbcd641d8	-0.026154444
91	0xbcc5b90a	-0.024136085
92	0xbe273dd6	-0.16332182
93	0xbe1125c7	-0.14174567
94	0x3e270e50	0.16314054
95	0xbdf9b485	-0.121926345
96	0x3c6554fd	0.013997314
97	0x3cd2ca87	0.025731338
98	0x3a772416	0.00094276795
99	0xbde6c166	-0.112673566
100	0xbd93260f	-0.071849935
101	0x3da8cd5b	0.082422934
102	0xbb0d4ac0	-0.0021559447
103	0x3d53c9e1	0.0517062
104	0xbd3feb8b	-0.04685549
105	0xbde4b4c3	-0.1116729
106	0xbcd2ef87	-0.025748981
107	0x3cdc77c6	0.026912581
108	0xbe11f129	-0.14252152
109	0xbe002c9e	-0.1251702
110	0x3d388387	0.04504731
111	0xbd4967de	-0.04917132
112	0x3df02d39	0.117273755
113	0x3d35a58b	0.044347327
114	0x3d30728c	0.04307799
115	0x3da6b465	0.08139876
116	0xbd66f34a	-0.056384362
117	0xbe4d0320	-0.20020723
118	0x3d37c7da	0.044868328
119	0xbd48c5a3	-0.049016606
120	0xbc2af1af	-0.010433598
121	0xbdb1ba1d	-0.086780764
122	0xbd39e23f	-0.04538178
123	0xbca8e703	-0.020617967
124	0xbb67bc51	-0.0035360048
125	0x3d8a2582	0.06745435
126	0xbc4546b8	-0.012040786
127	0x3ca5b834	0.020229436

layer2.weight f4 [128, 132]
0	0xbc3dcf5b	-0.011585082
1	0x3d3d084b	0.046150487
2	0x3dd4ee81	0.103970535
3	0x3d8b614e	0.06805669
4	0xbd4f82f6	-0.050662003
5	0x3d02a9e7	0.031900313
6	0xbd32729c	-0.04356633
7	0xbd184cb3	-0.03718252
8	0xbd5f1baa	-0.054469742
9	0xbd185ddb	-0.037198883
10	0x3c340b6f	0.010989054
11	0x3d029a2e	0.03188532
12	0x3c7e4853	0.015520173
13	0x3cca29c3	0.024678117
14	0x3d06033c	0.03271793
15	0xbd0844d9	-0.033268783
16	0x3d47e38a	0.048800983
17	0x3cb50c5d	0.022100622
18	0xbd747a58	-0.05968699
19	0xbc975896	-0.018474858
20	0xbdbb792b	-0.0915397
21	0xbdb1c76d	-0.086806156
22	0x3d1608f5	0.036629636
23	0x3dbe1dd0	0.0928303
24	0xbcad0cb8	-0.021124229
25	0x3d186e74	0.03721471
26	0xbcc7a499	-0.024370478
27	0xbc8de707	-0.017322076
28	0xbcda72d8	-0.02666609
29	0x3d59a8c0	0.05313945
30	0xbc0b008a	-0.008484015
31	0xbd147619	-0.03624544
32	0xbd22d616	-0.03975495
33	0xbcadd74c	-0.021220826
34	0xbca065c3	-0.019579774
35	0x3d34bb56	0.04412397
36	0xbdb0d81b	-0.08634969
37	0x3d955151	0.072909005
38	0xbd092bcb	-0.03348903
39	0x3dfcc324	0.123419076
40	0x3ca11c36	0.019666772
41	0x3d0c487f	0.034248825
42	0xbc587b04	-0.013212923
43	0xbbc9599f	-0.006144717
44	0xbcc7d3b6	-0.024392944
45	0xbd6e9300	-0.05824566
46	0x3d9480e8	0.072511494
47	0x3dd22b25	0.102621354
48	0x3d493872	0.049126096
49	0x3b4022c5	0.00293176
50	0xbd67efac	-0.056625053
51	0x3ca80d64	0.020514198
52	0xbd59a125	-0.053132195
53	0xbd9595c5	-0.07303957
54	0x3ae85d20	0.0017727949
55	0x3abf6fe9	0.0014605495
56	0xbc2f1b38	-0.010687642
57	0xbd88b4e3	-0.066751264
58	0x3d6d22eb	0.05789463
59	0xbd5360e6	-0.05160608
60	0x3af94f75	0.0019020872
61	0x3d899978	0.06718725
62	0x3d504bf6	0.050853692
63	0x3e0c2386	0.13685426
64	0x3c4471c0	0.011990011
65	0xbd14f638	-0.036367625
66	0x3c7c2143	0.01538879
67	0x3dcbbc38	0.09948009
68	0x3d1ae123	0.037812363
69	0x3d21402d	0.039367843
70	0x3caf7e60	0.021422565
71	0x3ccf3a94	0.025296487
72	0x3db27f5f	0.087157
73	0x39acd395	0.00032964037
74	0xbd4f9e99	-0.05068836
75	0xbd07a1aa	-0.03311316
76	0xbdae2a54	-0.08504167
77	0xbc925a67	-0.017865373
78	0x3c846a93	0.0161641
79	0xbcc7c2b1	-0.024384828
80	0xbd216d2a	-0.039410748
81	0xbd252059	-0.040314052
82	0x3d5a79f7	0.05333897
83	0xbd56619f	-0.052339192
84	0x3c9b4af7	0.018956644
85	0x3cd2e7ba	0.025745261
86	0xbbe1d086	-0.006891313
87	0xbd4c2d0a	-0.04984764
88	0xbd295e74	-0.041349843
89	0xbd88a96b	-0.06672939
90	0xbdb4c37a	-0.08826347
91	0xbdacf7cd	-0.08445702
92	0xbd742217	-0.059602823
93	0xbb588f7e	-0.0033044512
94	0x3d83c8ba	0.0643477
95	0x3adbee94	0.0016779476
96	0x3c901788	0.017589346
97	0x3d6344d6	0.05548557
98	0xbce5de0e	-0.028059985
99	0xbd2fffe7	-0.042968657
100	0x3c979820	0.018505156
101	0xbd3f4eac	-0.046705887
102	0x3d4895f0	0.048971117
103	0x3cf733d2	0.030176077
104	0xbe012bc2	-0.12614349
105	0x3ca40bc3	0.02002514
106	0xbc8c1a48	-0.017102376
107	0x3d9ebc90	0.07750809
108	0x3cbb7c66	0.022886466
109	0xbbc2ef49	-0.005948935
110	0x3d98692d	0.07441936
111	0xbd5371fc	-0.051622376
112	0x3d8336db	0.06406947
113	0x3995f501	0.00028602037
114	0x3d28cd3c	0.04121135
115	0x3d3508a7	0.044197705
116	0x3d21ba07	0.03948405
117	0x3c9c104b	0.019050738
118	0x3cdb789f	0.026790915
119	0x3bb16623	0.005413787
120	0x3d91ebf0	0.0712508
121	0xbc8ccaa7	-0.017186476
122	0x3ca06057	0.019577188
123	0x3b280ccd	0.0025642395
124	0xbd76f9d7	-0.06029686
125	0xbd0445ce	-0.032293133
126	0x3c8d34c2	0.017237071
127	0x3da34878	0.07972807
128	0x3d5c0f38	0.05372545
129	0xbd0ea395	-0.034823973
130	0x3b1e1672	0.0024122265
131	0xbcaec908	-0.021336094
132	0xba47123a	-0.00075939635
133	0x3c59f48b	0.0133029325
134	0x3d4a52e6	0.049395464
135	0xbcf087c9	-0.029361622
136	0xbd85ccf1	-0.0653323
137	0x3b920c1d	0.0044570104
138	0x3c08262d	0.008309883
139	0xbd68d84a	-0.056846894
140	0x3d9d2589	0.07673175
141	0xbd1789b7	-0.03699657
142	0x3c8276b2	0.015925739
143	0xbd455316	-0.04817494
144	0xbd8d6877	-0.06904691
145	0xbca059a7	-0.019574
146	0xbd2189e4	-0.039438143
147	0x3db4a1e3	0.0881994
148	0xbd5f2c95	-0.054485876
149	0x3c8c2a87	0.017110122
150	0x3d08d4e2	0.033406146
151	0xbcc9e912	-0.02464727
152	0x3d15d33d	0.036578406
153	0x3cab05f4	0.020876862
154	0x3d2a499b	0.041574102
155	0x3a7628fe	0.00093902636
156	0x3d9bd82d	0.07609592
157	0xbc35354d	-0.011060071
158	0xbd7d4413	-0.0618325
159	0x3d644d9e	0.055738084
160	0xbce7e641	-0.028308036
161	0xb9b4d2bb	-0.00034489282
162	0xbcf1421e	-0.029450472
163	0x3d97165b	0.07377311
164	0x3d872dac	0.06600508
165	0xbd110c7d	-0.0354123
166	0xbd2e59f5	-0.04256626
167	0xbdcdb12f	-0.10043561
168	0x3cbb9c11	0.022901567
169	0x3dc40cde	0.09572767
170	0xbce8e712	-0.028430495
171	0x3d264397	0.040591802
172	0xbd5e1327	-0.054217484
173	0x3b74220d	0.003725174
174	0x3d95b856	0.0731055
175	0xbd4b906c	-0.04969828
176	0x3b855cf0	0.004069917
177	0xbc49e960	-0.012323707
178	0xbd00b7e1	-0.03142536
179	0x3cf0e430	0.029405683
180	0x3d8ac634	0.067760855
181	0xbd175ee8	-0.036955744
182	0x3d5b35ba	0.053518035
183	0xbaa0574c	-0.0012233048
184	0x3dcf8159	0.10132093
185	0xbd2d4397	-0.042300787
186	0x3cdc1653	0.026866114
187	0xbc8bfc77	-0.017088158
188	0x3da9df84	0.08294585
189	0xbd5f546e	-0.054523878
190	0x3c314c9f	0.010821491
191	0xbc9006a9	-0.0175813
192	0x3d5d62fa	0.05404947
193	0x3c9d6dd8	0.019217417
194	0x3d21c346	0.039492868
195	0x3cda8354	0.02667395
196	0xbdff0546	-0.12452178
197	0xbcbb0f12	-0.022834335
198	0x3d289347	0.04115608
199	0x3e01f930	0.12692714
200	0xbd66af8a	-0.05631975
201	0x3d2feded	0.042951513
202	0x3c8554d0	0.016275793
203	0x3cd48c5d	0.025945837
204	0x3dabe74a	0.08393724
205	0xbd263924	-0.040581837
206	0x3ce1e057	0.027572794
207	0xbda24d6e	-0.07924925
208	0xbd1b00da	-0.03784261
209	0x3d9253d3	0.071448945
210	0x3d92f0b0	0.07174814
211	0xbd8a4620	-0.067516565
212	0x3c1b193f	0.009466468
213	0x3d99194b	0.074755274
214	0xbd333dc7	-0.043760087
215	0xbcec9ed0	-0.028884321
216	0x3d72a3c6	0.059238218
217	0x3da94b9f	0.08266377
218	0x3d4bff45	0.04980399
219	0xbd8e5d88	-0.069514334
220	0xbc2da64e	-0.010598732
221	0x3dad7489	0.08469493
222	0xbba7d122	-0.005121366
223	0x3db376ba	0.0876288
224	0x3d58c217	0.052919473
225	0xbcf59211	-0.029976876
226	0x3c6e572f	0.014547153
227	0x3d1a6591	0.037694518
228	0xbc6be8cc	-0.014398765
229	0x3d857882	0.06517126
230	0x3d004c49	0.03132275
231	0xbd8c25c9	-0.068431444
232	0xbd8e777e	-0.06956385
233	0x3d91cebb	0.07119509
234	0xbd62f514	-0.055409506
235	0x3cf52eb2	0.029929493
236	0xbb7170ea	-0.0036840984
237	0x3b2cff23	0.002639719
238	0x3be1abe9	0.0068869484
239	0x3dc41c76	0.09575741
240	0xbd3da57d	-0.0463004
241	0xbd7ac294	-0.06122072
242	0x3dcc1aef	0.09966075
243	0xbd8b9de4	-0.068172246
244	0xbd8862ef	-0.06659495
245	0x3d16da5a	0.03682933
246	0xbcb53ce6	-0.022123765
247	0x3d8e45fd	0.06946943
248	0xbd6c311e	-0.05766403
249	0x3cf438da	0.029812265
250	0x3d1b9c78	0.037991017
251	0x3cb47c81	0.022032024
252	0xbd1a9a69	-0.037744913
253	0x3d3f9d75	0.046781022
254	0x3be6154a	0.007021581
255	0xbca0cf3e	-0.01963007

layer2.bias f4 [128]
0	0x3bb107f0	0.0054025576
1	0xbd0953bf	-0.033527132
2	0x3dd46edc	0.10372707
3	0x3d40ebbb	0.04709981
4	0xbdbee862	-0.09321667
5	0x3d7f0853	0.062263798
6	0x3cec8036	0.02886973
7	0x3d308dad	0.043103863
8	0x3d8af8ba	0.06785722
9	0xbd3f9e26	-0.04678168
10	0x3dab66db	0.083692275
11	0xbd782351	-0.060580555
12	0xbd4c7cb8	-0.04992363
13	0xbd4fd5e3	-0.050741088
14	0x3b071a79	0.0020615144
15	0xbd1ead0d	-0.038739253
16	0xbdeb897e	-0.11500834
17	0x3c83e635	0.016100982
18	0x3c0b1d04	0.008490805
19	0x3d7ed04b	0.062210362
20	0xbd284ad5	-0.04108699
21	0xbdb834ee	-0.089944705
22	0xbdcc0266	-0.09961395
23	0xbdad4a67	-0.08461457
24	0x3dafefa4	0.0859063
25	0x3d850a69	0.06496126
26	0x3c73865b	0.014863576
27	0xbcab7fda	-0.020934988
28	0xbe00bf1d	-0.12572904
29	0x3dd8f2a1	0.10593153
30	0x3ddbd936	0.10734789
31	0xbda44281	-0.08020497
32	0xbc9e695c	-0.019337349
33	0xbdbfd8d4	-0.093675286
34	0xbd344331	-0.04400939
35	0xbc4054d5	-0.0117389755
36	0xbdb07982	-0.08616926
37	0xbdcccd87	-0.10000139
38	0xbd9c56ec	-0.076337665
39	0xbd212d34	-0.03934975
40	0x3c02aabe	0.007975278
41	0xbc0f441a	-0.008744264
42	0x3d035085	0.03205921
43	0x3cbc69e0	0.022999704
44	0x3d2dc280	0.042421818
45	0xbd47e4b6	-0.0488021
46	0x3d990768	0.07472116
47	0x3daf7464	0.085671216
48	0x3d319f01	0.04336453
49	0xbcf6e297	-0.030137343
50	0x3da72beb	0.081626736
51	0x3d56acad	0.05241077
52	0xbd41199b	-0.04714356
53	0xbd18ae3c	-0.037275538
54	0xbd9bf58b	-0.07615193
55	0x3c85382c	0.016262136
56	0x3d0f384f	0.03496581
57	0x3cfc4cd2	0.03079835
58	0xbc97a045	-0.01850904
59	0xbc92648e	-0.017870214
60	0xbc1d995e	-0.009619085
61	0xbc35f9db	-0.0111069335
62	0xbd5fdca3	-0.054653775
63	0x3d9ffbf5	0.07811729
64	0xbd931726	-0.071821496
65	0x3c77ecb2	0.015132116
66	0x3d384bc1	0.04499412
67	0x3df7976d	0.12089429
68	0x3df80aab	0.1211141
69	0xbcf49505	-0.029856214
70	0x3ca11d6e	0.019667353
71	0xbdb694a4	-0.0891507
72	0xbc176697	-0.009240768
73	0x3c038c1e	0.008029012
74	0xbd0ccd0c	-0.034375235
75	0x3d96a608	0.07355887
76	0xbbdc94a2	-0.0067315856
77	0x3d2ae53d	0.041722525
78	0x3d5ab9fc	0.053400025
79	0xbdaf8c9f	-0.08571743
80	0x3c8c72ff	0.017144678
81	0x3bbd60f1	0.0057793786
82	0xbd27a224	-0.040926114
83	0xbc04613e	-0.008079825
84	0x3da42480	0.08014774
85	0x3d2bf96b	0.04198591
86	0xbda40dea	-0.080104664
87	0x3c055eb5	0.008140256
88	0x3d7acd52	0.061230965
89	0xbdaae7e1	-0.08345009
90	0xbd158b46	-0.036509775
91	0x3cabdb02	0.020978455
92	0x3d9e1065	0.07717971
93	0xbd39ac88	-0.045330554
94	0xbcb06389	-0.021531837
95	0x3c85e159	0.016342806
96	0x3b4454db	0.0029957804
97	0xbdd7d0c0	-0.10537863
98	0xbd0552b2	-0.032549568
99	0x3d84d37f	0.06485652
100	0x3da225aa	0.0791734
101	0x3bc225c6	0.005924913
102	0xbb0e846b	-0.0021746408
103	0xbd9d98bc	-0.076951474
104	0xbd916a28	-0.07100326
105	0x3db0326b	0.086033665
106	0x3d50a9f9	0.05094335
107	0x3c1dded3	0.009635645
108	0xbd374a20	-0.044748425
109	0xbda48cb6	-0.08034651
110	0xbcf93d95	-0.030424872
111	0xbd368dd5	-0.044568855
112	0x3c871bf1	0.016492816
113	0x3be562cc	0.007000303
114	0xbd07897c	-0.0330901
115	0xbcdea2e9	-0.027177291
116	0xbd0a64c2	-0.033787496
117	0x3bfcc505	0.0077139162
118	0xbd9e2db6	-0.077235624
119	0x3ddc76eb	0.10764869
120	0xbdb5ae45	-0.0887113
121	0xbc25d28c	-0.010120999
122	0xbc1e31d3	-0.009655434
123	0xbde350fa	-0.110994294
124	0xbd877b60	-0.06615329
125	0x3cf21d51	0.029554995
126	0xbd9365ed	-0.07197175
127	0x3c0ea9e0	0.008707494

layer3.weight f4 [1, 128]
0	0xbd4fe87b	-0.05075882
1	0xbd46b8af	-0.04851597
2	0x3d39ade5	0.045331854
3	0x3d32880c	0.043586776
4	0x3d878587	0.06617265
5	0x3eee3d51	0.46531156
6	0x3dda152b	0.10648569
7	0xbd6e04e3	-0.05811013
8	0x3dffc5c7	0.12488895
9	0xbd75c792	-0.06000478
10	0x3da6ef63	0.08151128
11	0xbe493ea9	-0.19652809
12	0x3d42b9fb	0.047540646
13	0x3f0f3f6b	0.55956143
14	0x3d5e8e63	0.05433501
15	0x3d5f8d61	0.05457819
16	0xbd6fae07	-0.058515575
17	0xbd9f44bf	-0.07776784
18	0x3d72c1d4	0.05926688
19	0x3d5673a2	0.05235637
20	0xbd83678f	-0.064162366
21	0xbdb31ca0	-0.08745694
22	0xbcd8d530	-0.026468843
23	0xbd80af88	-0.0628348
24	0x3d6e610f	0.05819803
25	0x3d6a1598	0.0571495
26	0x3d86f803	0.06590273
27	0xbda98361	-0.08277012
28	0xbdf0b3f0	-0.1175307
29	0x3da94fa8	0.08267146
30	0x3d495aee	0.049158983
31	0xbd9ef201	-0.07761002
32	0xbdafdecb	-0.08587416
33	0xbd57cf60	-0.052688003
34	0x3de03a07	0.10948568
35	0xbd8fc1ba	-0.07019372
36	0xbe04c271	-0.12964799
37	0xbd761438	-0.060077876
38	0xbdae05ee	-0.08497225
39	0x3d52aca3	0.05143417
40	0xbd3e1687	-0.046408202
41	0x3dfd8535	0.12378923
42	0xbd86d87d	-0.065842606
43	0xbd0bfc77	-0.034176316
44	0xbdefc986	-0.117083594
45	0xbdcd7fd7	-0.10034149
46	0x3db22191	0.086978085
47	0x3d926c2a	0.07149537
48	0x3d8a2316	0.06744973
49	0xbdab43d6	-0.08362548
50	0x3d4b1835	0.049583632
51	0x3d358ae7	0.04432192
52	0xbdb7134b	-0.08939227
53	0x3d2384fd	0.03992175
54	0xbd9a8070	-0.07544029
55	0xbde367a0	-0.11103749
56	0xbd3ae1dd	-0.045625556
57	0x3d5afeb6	0.053465568
58	0x3d5b318c	0.05351405
59	0xbdd58552	-0.104258195
60	0x3d8ebd9c	0.06969759
61	0xbd144436	-0.036197864
62	0x3e772295	0.24134286
63	0x3d65b900	0.056084633
64	0xbdf6e163	-0.12054708
65	0xbda325ba	-0.0796618
66	0x3d3508ae	0.04419773
67	0x3d5a8770	0.05335182
68	0x3d12bbb9	0.035823558
69	0x3d6d4e0b	0.057935756
70	0xbd23c615	-0.039983828
71	0xbe8329cb	-0.25617823
72	0x3da43fd3	0.08019986
73	0xbd50168c	-0.050802752
74	0x3d4e8fda	0.050430156
75	0xbd6e6db9	-0.05821011
76	0xbd8ce27f	-0.06879138
77	0x3d2f18a9	0.042748127
78	0x3d8adb4e	0.0678011
79	0xbd669b49	-0.056300435
80	0xbd993702	-0.07481195
81	0xbd26d1ce	-0.04072743
82	0xbd7c8ff9	-0.06166074
83	0x3d79234f	0.06082469
84	0x3dcee6ac	0.10102591
85	0xbd22d06a	-0.03974954
86	0xbdd2f435	-0.10300485
87	0xbd92fbb6	-0.07176916
88	0x3da93da2	0.08263709
89	0xbd5f05a6	-0.054448746
90	0x3d68284f	0.056679066
91	0x3d56b32a	0.052416958
92	0x3e199e9f	0.15001915
93	0x3d5e5302	0.05427838
94	0x3da02e5a	0.07821341
95	0xbd9117c7	-0.07084613
96	0x3d9683ee	0.07349382
97	0xbe0880ee	-0.13330433
98	0xbd615b2e	-0.055018596
99	0xbd310851	-0.04322082
100	0x3d9c5668	0.07633668
101	0xbd4770f5	-0.04869171
102	0xbd92fdcc	-0.07177314
103	0xbd54f2b5	-0.051989276
104	0x3e2122cd	0.15735932
105	0x3dcaf585	0.099101104
106	0x3d5f84cc	0.054570004
107	0xbda07fad	-0.07836852
108	0xbd4095b7	-0.04701778
109	0x3d5b42ba	0.053530432
110	0xbd909733	-0.07060089
111	0xbd5ad474	-0.053425267
112	0x3d9e04d8	0.077157676
113	0xbe0987cd	-0.1343071
114	0x3e15fc43	0.14647011
115	0x3d6ecd80	0.05830145
116	0xbd83763c	-0.06419036
117	0xbd6540de	-0.055970065
118	0xbd53d6e7	-0.05171862
119	0x3d7063e6	0.05868902
120	0xbd9b570f	-0.075849645
121	0x3d1ea58e	0.038732104
122	0xbd8d72d5	-0.06906668
123	0xbd8793ee	-0.06620012
124	0xbdb41d12	-0.08794607
125	0xbd7ea700	-0.062170982
126	0xbd6d7e33	-0.05798168
127	0xbd4465e9	-0.04794875
