p2_continuous-control/actor_critic.pt (torch, 57915 bytes, 13 tensors)

actor.layer1.weight f4 [64, 33]
00000000: ab7a 803e 101b 593e fe26 3d3d c45c cc3d
00000010: 28f0 123e adcb 8abd 9dab 2abd 3862 8c3d
00000020: 2265 213e 4a23 9dbd e69f 2a3e 6e72 e63c
00000030: 4012 2a3e da14 d4bd ae72 983d a217 31bd
00000040: 93e2 f13d 426f 0f3d 7a2f 39be 977f 453e
00000050: b65a 0cbe a3a4 93bd 9ad0 2bbd 3bfd 96bb
00000060: bee5 84be aea8 513c 1a81 b1bd 16dd 03bd
00000070: a82c 81bd 2c0f 30be 0f8a ad3d 236c 17be
00000080: a4db e13d d189 073d f4aa d7bd 6280 f23c
00000090: 0e8b cf3c a933 d63d 27ec 5d3e 09f7 8dbd
000000a0: 86d8 88bc 700f 3bbd 2687 4c3e 6162 833e
000000b0: 2ca2 24bc 562e 8cbd 2302 313e 3c3a 89bd
000000c0: 2659 143e 3363 c23d 37df 9cbe c890 883c
000000d0: 0077 2c3d 792c 8a3d 90e2 513d 32e9 813e
000000e0: 2a5a 343d f126 bebd 871d 213e b138 39be
000000f0: 251d 283c c336 c5bc 9cdc 5b3d ebaf 72bd
00000100: 487b 5a3d b98f f8bd c5f8 2c3e 9cf3 cabd
00000110: be14 21be 0263 b0bd a32c 2c3e 71dc abbd
00000120: e018 b03d 2cbe 1dbe 2752 c33d 5561 573d
00000130: 8520 9a3d b130 b83b 5253 153d 654d ea3d
00000140: 80e5 93be f434 6c3d 5e1c 8f3e 28fa bcbd
00000150: 4003 9a3e a674 753d 1504 b7bd ef9f cebe
00000160: 29da 713d 6d0d 013e b913 fabc 6c26 74bb
00000170: 388d 3a3d fd5c 133e b0f9 f3bd 7554 bebd
00000180: d209 093e ca98 70bd 09a6 16bf 5d3b 82be
00000190: 0b88 57bd 7cf8 df3c 7825 3ebd 199d 61be
000001a0: b018 123d 7e41 35bd d8c4 4ebe 4588 a5be
000001b0: 24f5 e5bb d4c7 fa3c 6ac8 073e 5002 093e
000001c0: f97e 3e3e ac21 4fbe d523 cabd 5be7 973d
000001d0: dc5f 9f3d 029c 51bd 1079 4d3e a030 85be
000001e0: 3ffb 033e a028 babd 5801 97bc b498 f3bd
000001f0: e92a 90be 9df6 acbd 1e05 9e3c 12a4 8fbc
00000200: 3e76 153e a14a e8bd d85e 193e 4d3a 4cbe
00000210: eb67 74be 1e40 c63d e4f8 afbc 9cb2 3a3c
00000220: 20a5 9ebe 0058 89bd 7a10 ccbb c24b 6fbc
00000230: 77ae 313e bbdd 65be cc1e bf3d c146 45be
00000240: a1a2 85bd 8a77 923d a2b4 513d 3e28 833e
00000250: 0598 c63d 4287 67bc 4450 083d 31a2 2ebe
00000260: c77a 06bd 64e1 0fbd 68f4 79bd 6596 9fbd
00000270: d2e4 303e 92c0 8ebd c1c4 c13c 6736 12be
00000280: 20fd c13e d8af 1c3d 738a 913d aa16 1dbe
00000290: 17ac 3dbe 4b17 35be 3228 07be 46c0 2f3e
000002a0: 4681 a13d e631 7ebe b656 56be ce05 5c3d
000002b0: d7ae 253e 2cc2 c4bd 5b12 60be 1d32 33be
000002c0: be16 2d3d ea00 b83c c8f8 ef3d fafd 71be
000002d0: 6fbd f3bc 6981 8c3e 694c 5d3d 01d3 df3c
000002e0: fbb6 2c3c b9c5 82bd e2b3 813e e219 993d
000002f0: ed8e ec3b b38c 60bd 634b 93bc 59f7 c6bd
00000300: 112c 943d 6c31 2c3e b02c 8dbc 323d 60b8
00000310: 4079 263b ec1e 47be a5f2 af3c d97f 073d
00000320: 5b60 f7bc b138 03be 2381 023e 8e11 2c3e
00000330: d341 183e adf7 a13c 9bc5 63bd 33f9 f6bd
00000340: 5e51 8cbd 5d30 2c3e 2b40 c33c 0698 523e
00000350: e8ea 79be 40c3 51be cc87 4f3e 7843 cdbc
00000360: a1e1 0e3e b502 5fbd f35d 7d3e 2cb3 36be
00000370: b6c1 ad3c 3e06 703c 0759 9dbd 7dbb dabd
00000380: 1efb 36be 1dca 253e d483 283e 08ee 813d
00000390: 04c8 2abe 70ed 2fbe ffdd 9ebd 44f6 673e
000003a0: c9ad 843e 55e0 c33c d1d8 bfbd 2f4f 1b3e
000003b0: 6af8 acbb a87e 4dbe 560d 12be 827c b03d
000003c0: 3163 273e 5026 cd3c c1a6 b33c 7367 1abe
000003d0: 2aa1 813c 9e16 edbd e6b5 e7bc 46a4 253d
000003e0: 1906 15be 2a07 603e 9c3f a73d 43ee b2bd
000003f0: 8d11 5f3d 70a5 b43d ff10 393c 7f33 72be
0.25093588 0.2120173 0.046179764 0.09978631 0.14349425 -0.06777129 -0.04166757 0.06854671
0.15761235 -0.076727465 0.16662559 0.028130736 0.16608524 -0.103555396 0.074437484 -0.04323543
0.11810794 0.035018213 -0.18084517 0.19286953 -0.13706478 -0.07209136 -0.041946985 -0.004607824
-0.2595653 0.012796564 -0.08667202 -0.032193266 -0.06307346 -0.17193288 0.08473598 -0.14787345
0.11028221 0.033090416 -0.105306536 0.029602233 0.025334861 0.10459072 0.21672116 -0.06931884
-0.016704809 -0.04566902 0.1997343 0.25660995 -0.01004843 -0.068447754 0.17285971 -0.067005605
0.14487132 0.09491577 -0.3063905 0.0166706 0.042105675 0.06746764 0.051241457 0.25373226
0.0440313 -0.09284771 0.1573392 -0.18088032 0.010260855 -0.024073964 0.053677186 -0.0592498
0.053340226 -0.12136788 0.16891773 -0.09909746 -0.15730569 -0.08612634 0.16813903 -0.08391655
0.085984945 -0.15404576 0.09537154 0.052583057 0.07525734 0.005621039 0.036456414 0.11440543
-0.28886032 0.057667688 0.2795133 -0.09227401 0.30080605 0.059925698 -0.089363255 -0.40356395
0.059045944 0.12602778 -0.030526983 -0.0037254347 0.045544833 0.14390941 -0.119128585 -0.09293453
0.13382652 -0.05873946 -0.588471 -0.25435916 -0.052619975 0.027340166 -0.04642245 -0.22032584
0.035668075 -0.04425191 -0.20192277 -0.32330528 -0.0070177484 0.030612864 0.13260046 0.13379788
0.18603124 -0.20227689 -0.09870116 0.074171744 0.077819556 -0.05117417 0.20065713 -0.2601366
0.12888812 -0.0908978 -0.018433258 -0.1189436 -0.28157738 -0.08445475 0.01928955 -0.01753429
0.14595887 -0.11342359 0.14977586 -0.19944115 -0.23867767 0.09680198 -0.021480985 0.011395123
-0.30985355 -0.06706238 -0.00622755 -0.014605464 0.1735171 -0.22447865 0.09332046 -0.19265272
-0.065251596 0.071517065 0.051197655 0.2561664 0.09696964 -0.014131369 0.033279672 -0.17054059
-0.032831933 -0.03512706 -0.0610241 -0.07792357 0.17274788 -0.069703236 0.02365339 -0.14278565
0.37888432 0.038253635 0.07106485 -0.15340677 -0.18522678 -0.17684667 -0.13198927 0.1716319
0.07885985 -0.24823722 -0.20931515 0.053716473 0.16179977 -0.09607348 -0.21882002 -0.17499585
0.042258017 0.022461373 0.11717373 -0.2363204 -0.029753415 0.27442482 0.05402795 0.027322294
0.010541673 -0.06385369 0.25332552 0.0747564 0.0072191865 -0.05482168 -0.017980283 -0.097151466
0.072349675 0.16815728 -0.017233223 -5.3462754e-05 0.002540186 -0.1944539 0.021478007 0.03308091
-0.030197313 -0.12814595 0.12744574 0.16803572 0.1486886 0.019771421 -0.055608373 -0.1205925
-0.06851457 0.16815324 0.023834309 0.20565805 -0.24406016 -0.20484638 0.20266646 -0.025056586
0.13953258 -0.05444594 0.2474287 -0.17841786 0.021210533 0.014649926 -0.07682996 -0.10680292
-0.17869231 0.16190381 0.16456538 0.06344229 -0.16677862 -0.17180419 -0.07757186 0.22652537
0.25913838 0.02391068 -0.09367526 0.15166925 -0.0052786367 -0.20067847 -0.142629 0.08617498
0.16346432 0.025042683 0.0219301 -0.15078525 0.01582392 -0.115765795 -0.028284978 0.040439866
-0.14553107 0.21877733 0.081664294 -0.08736851 0.054460097 0.08820617 0.011295556 -0.23652457

actor.layer1.bias f4 [64]
00000000: fd95 dbbd 7e2d 713d 81c9 e43d 5324 11bd
00000010: 4cf6 2d3e 695f 1b3e cff9 7a3b ac48 a7bd
00000020: 1e00 833d 2c46 743d 0331 0a3d cb1a 243e
00000030: 79ed 8fbc ccc3 e8bd 2165 263e b211 36be
00000040: 7b2c 193e cf07 bb3d ada3 213e 612b acbd
00000050: a981 00be 1ece b23d 1a22 32bd 5579 993c
00000060: 4b04 2f3e 4964 fbbd 606e 93bd ddc6 e9bd
00000070: 9804 f93d bbda 39be 9f37 873d 3ad0 dc3d
00000080: ad9a af3c 087e 533e 18bd db39 238a 40be
00000090: 1c67 133e 59d2 3f3b 9a6a d5bb 673b 2dbe
000000a0: bcaf e43d 4404 dfbc 2672 4d3e 56bf e63d
000000b0: 4274 893d 2458 b93d d468 fbbd bd76 dbbd
000000c0: d99c 3bbd 125b 26bd d2b3 6a3e fff8 9e3d
000000d0: 99ad e63d fdb0 3ebb 4cce 74be 1f59 c5bd
000000e0: 9204 583d 0499 f7bc d9cc ba3d 3e10 20bd
000000f0: d366 06be 40e4 babd 74ee 7ebc def8 fcbd
-0.10721967 0.058881275 0.11171246 -0.035435032 0.16988486 0.15173115 0.003829587 -0.08168158
0.06396507 0.059637234 0.033738147 0.16025846 -0.01756929 -0.1136547 0.16249515 -0.17780188
0.14958374 0.09132349 0.15785094 -0.08406711 -0.12549461 0.0873072 -0.043489553 0.018734613
0.17091481 -0.12274987 -0.07198787 -0.11414883 0.12159079 -0.18149845 0.06602406 0.107819036
0.02143606 0.20653546 0.0004191182 -0.18802695 0.14394802 0.0029269664 -0.006512952 -0.16917191
0.11166331 -0.027223714 0.20063075 0.11266963 0.067116275 0.090500146 -0.12275854 -0.10716007
-0.04580388 -0.040614195 0.22920159 0.07762336 0.1126358 -0.0029097192 -0.23906821 -0.09636139
0.052738734 -0.03022433 0.09121103 -0.03907799 -0.13125162 -0.091255665 -0.015559781 -0.12352155

actor.layer2.weight f4 [64, 64]
00000000: 758f 873d 824e 9a3c f41c f0bd ff17 003e
00000010: 7960 64bd 361e f53d f63e 923d ac4f 23be
00000020: 2214 3c3d 5b0f 723d 70a6 3fbd b461 b63d
00000030: 21f3 03be 6714 e3bd 86bd b7bd 0173 01be
00000040: 00a7 f03c 575b 8d3b 34e0 a23d 1cbe 48be
00000050: 469b 6e3a 6e4a 413d 3570 af3c 15cf e23d
00000060: ac00 4c3c e4cc d0bc ccc5 05be 1750 73bd
00000070: c6a3 55bc 60c5 3d3d b4ce b9bd 656d 673e
00000080: 6c44 223d 11cd ed3c e5eb e83c 3907 b83d
00000090: dc0d 7abd 45c4 ea3d c149 dfbd 8a5a 0a3e
000000a0: b63f aabd dfec 57be 50df 90bd 3525 ef3d
000000b0: 3982 ed3d 895a d13d c058 8e3d 183b a93d
000000c0: 29b5 0fbe dde3 f43b 831c cf3d b0f3 623e
000000d0: a13d 523d 54f9 61ba 8a24 cb3d 8344 84be
000000e0: ea29 c93c cce8 02bc 671c 7f3c 732f 12be
000000f0: da36 493e 93bc bbbb 7c6d 17be ae59 2bbe
00000100: a470 193c 94e3 9a3d 9e6b 6b3d a805 b73c
00000110: 041f 0bbd f38f a7bd 00de 223e 7e2d c3bc
00000120: 8f78 1c3e eb31 4cbd 7960 38be 269f 8fbd
00000130: 7c3c 87bd 536f 6ebe 71d0 c0ba f382 57bd
00000140: 02f4 bfbd 7804 7e3c c9d1 8a3d a2d3 eabd
00000150: b2c2 43bd bd2b 043e 0bc9 fe3d 2712 9abd
00000160: f9d2 733d dde2 a23c b864 92bd 153b 4fbe
00000170: 673d 113e 8bc5 293e 6e91 ff3b 4061 063e
00000180: aef2 0d3e b907 48bd e64f 453d e660 00be
00000190: e085 84bd 38ce a4bd f369 313e 0bbb 07be
000001a0: 3cd1 6dbe b934 1dbe a2d2 e5bd e6cc 5e3d
000001b0: 8118 823d 1089 17be cad1 0d3e 6a57 94bd
000001c0: 54d7 89bd 9d20 9a3d 3d47 c03d 5db8 10bd
000001d0: 5493 3cbd cec8 ef3c e316 ce3a cab7 12bd
000001e0: 0ba9 c03d f6a0 923d bbe5 92be 6567 1fbe
000001f0: 0406 753c 2233 eebd 2a89 a53c 556a bdbd
00000200: d053 8b3d cf3a 76be acd5 77be e0bb 46be
00000210: 5cf7 d4bc 8a3b dc3d d593 3cbd 5c81 03be
00000220: da13 c93d 9df3 773c b0d1 723d cc6b 8dbd
00000230: 4e08 c4bd 1156 e13c edcb 4dbd 8a98 4abe
00000240: cdb5 13be ef97 93bd 865d 423e e094 32bc
00000250: f2ec 8bbc baaa bb3d c578 2cbc 9800 7c3d
00000260: 9fc5 d1bd d690 02be 4381 ffbc 68b1 4dbd
00000270: 2ac2 82bd 9f6b 3a3d d320 23bd 2803 36be
00000280: 65bc adbc a882 c03c bbbc 173d d93b a63d
00000290: cdc8 e23d cb10 7dbd 90bb 41be 2078 313d
000002a0: b94b e63d fa92 b6ba cfc3 90bd d175 80bc
000002b0: 7a53 37bd 57a0 cc3c 4fd9 90bd 9e51 a33d
000002c0: df72 71bd 75cd 983d 1a55 f7b9 c2d9 a53d
000002d0: db7d 923d 8397 113e aafa dd3d 69ef 633b
000002e0: c542 ae3d b81d 00be 146a b83d d574 11be
000002f0: 5d3c f23d 564f 6c3e dde1 b73c 2d9a 313e
00000300: fd26 85bd c4fd 733e 0b7f 523e 7e0d d93d
00000310: 4145 d8bd 7d0d a2bd 2996 6abb 7ba4 a03d
00000320: 01ef 29bc 478f 8dbd 25a2 12be 390b 3abc
00000330: 7434 89bd b78d 9cbb ceae 4cbe 4cea 81be
00000340: 8fd5 51bd bc5f 673e e514 8b3e c4d8 55be
00000350: 5c81 393e 6d27 db3d 66c7 e0bd 2bcc a73d
00000360: 9f23 563d 640a 003d 3385 2cbe 21af 77be
00000370: f12d 713e b476 993d 7c16 8dbd 8aef 3cbd
00000380: d3ca 54bd 6c81 0bbe aaae 3e3d f213 02bd
00000390: 2f38 893d 8223 d8bd 080f a63c bf1d ddbd
000003a0: ccba f3bd 6fc6 bcbb eb5e 1fbe 8636 e73c
000003b0: 7f8a e23d e138 a7bc 381d d5bd aa95 973c
000003c0: 6fcf 2abe c60d 633d b487 133d 4847 d23c
000003d0: 732b babd 5ba4 62bd b9e0 04be 37c0 b13c
000003e0: 0e6f 023e ffbf 653e d7e8 86bc 8639 18be
000003f0: b4e0 a93d befc 08bd dc89 be3d 1cb3 8bbd
0.06619159 0.018836264 -0.11724272 0.12509154 -0.055756066 0.11968653 0.07140915 -0.15948361
0.045917638 0.059096675 -0.046789587 0.08905354 -0.12885715 -0.11087876 -0.089716956 -0.12641527
0.029376507 0.004313867 0.079529196 -0.19603771 0.0009102117 0.047190122 0.02141581 0.11074654
0.012451332 -0.025488324 -0.13063735 -0.05940255 -0.013039535 0.04633081 -0.090726286 0.22600324
0.039616033 0.029028447 0.028432796 0.089857526 -0.061048374 0.11463217 -0.10902739 0.135111
-0.08312933 -0.21086453 -0.070738435 0.116770186 0.115971036 0.10222346 0.069505215 0.08263224
-0.14033951 0.0074734525 0.1011286 0.22163272 0.051328305 -0.00086202216 0.09919079 -0.2583352
0.024556119 -0.007990073 0.0155707365 -0.14275913 0.1964983 -0.005729267 -0.14787859 -0.16733429
0.0093652345 0.07562938 0.05747568 0.022341564 -0.033965126 -0.08181753 0.15904999 -0.023825403
0.15280364 -0.049852293 -0.18005551 -0.07012777 -0.06603333 -0.23284654 -0.0014710558 -0.052615117
-0.09372713 0.015503995 0.067782946 -0.11466147 -0.047793098 0.1290731 0.1244069 -0.075229935
0.05952737 0.019883567 -0.07148117 -0.20237382 0.1418358 0.16579263 0.007799319 0.13123035
0.13862106 -0.04883549 0.0481719 -0.12536964 -0.06470847 -0.080471456 0.17325573 -0.13254945
-0.23224348 -0.15352143 -0.11221816 0.054394625 0.0635233 -0.14798379 0.1384956 -0.072432354
-0.06730524 0.07525752 0.093885876 -0.035332073 -0.04603894 0.029270556 0.0015723374 -0.035819806
0.094072424 0.07159607 -0.28690895 -0.15566786 0.0149550475 -0.116308466 0.020207006 -0.09248797
0.06803095 -0.24045871 -0.24202603 -0.19407606 -0.025996856 0.10753544 -0.04603942 -0.12842315
0.098182395 0.0151337655 0.059282005 -0.06905326 -0.095718965 0.02750686 -0.050243307 -0.19784752
-0.1442482 -0.072067134 0.18980989 -0.010899752 -0.017080758 0.09163423 -0.010526841 0.061524004
-0.10242771 -0.12750563 -0.031189566 -0.050218016 -0.0638469 0.04551279 -0.039826225 -0.17774642
-0.021207998 0.023499802 0.03704522 0.08116884 0.11073456 -0.061783593 -0.18919206 0.04332745
0.11244912 -0.00139293 -0.070685975 -0.01568118 -0.044757344 0.0249788 -0.07072698 0.079745516
-0.05894744 0.07461063 -0.00047174917 0.08098175 0.07152911 0.14217953 0.10838826 0.003478015
0.08508829 -0.12511337 0.09004608 -0.14204724 0.1182792 0.2307714 0.022446567 0.1734397
-0.06501577 0.23827273 0.20556276 0.105982766 -0.10560084 -0.07912729 -0.0035795069 0.07843872
-0.010371924 -0.069120936 -0.14319666 -0.011355215 -0.06699458 -0.004777636 -0.19988558 -0.25374067
-0.051229056 0.22595114 0.2716438 -0.20883471 0.18115753 0.10700879 -0.10975532 0.08193239
0.052280065 0.03125991 -0.16847686 -0.241879 0.23552682 0.07493344 -0.06889054 -0.04612688
-0.05195124 -0.1362359 0.04655329 -0.031757303 0.06700169 -0.105536476 0.02027084 -0.10796689
-0.11900863 -0.00576096 -0.15563552 0.028224241 0.11061572 -0.020412864 -0.10405964 0.018503983
-0.16680692 0.055433057 0.03601809 0.025668755 -0.090903185 -0.055332523 -0.1297635 0.0216981
0.12737677 0.22436522 -0.016468449 -0.14865693 0.08294812 -0.03344416 0.09303638 -0.06821272

actor.layer2.bias f4 [64]
00000000: a767 9dbd dc8c 183d 1b02 e03d c2c3 ae3d
00000010: 6ba7 9cbc 76f6 df3d beb7 9fbc c56f 9fbd
00000020: 3f66 1fbe 3a3d aa3b 4f5a a83d 8427 ff3c
00000030: 7c1a 903d befb af3c 8347 d43d 460e 80bd
00000040: 880b b03d c462 aabc f862 5abd 64db d6bd
00000050: cf98 febd a516 94bd f753 9c3c c76f 083d
00000060: 5f64 cb3c 74ae 8e3d 5a27 aaba ea17 dbbc
00000070: 8db4 5abc 560b a23c dea0 02bc df8a 68bc
00000080: c22d d2bc 9dde 15bd 5dea bdbb 84b2 223e
00000090: 26e9 723b 7717 f23d 55f0 d4bd a3b5 983d
000000a0: 146c 033d 5e56 9f3d ff07 20bd 4a76 15bd
000000b0: dade 59bd 0caa 0bbe 3a00 083e 5365 993d
000000c0: 3fe0 493d ec20 36bc a5b8 a3bc 0b5b ca3c
000000d0: d145 a8bd 20b8 2fbe 2c6c 173c c58d fdbd
000000e0: b0ba 03bc aee7 abbd 34cf 3d3d afe5 2dbe
000000f0: f979 2bbd 3139 cf3b d7bc 273e 62f1 c93d
-0.07685786 0.03724371 0.109379016 0.085334316 -0.0191228 0.109356806 -0.019496795 -0.0778499
-0.15566348 0.005195287 0.0822035 0.031146772 0.070363015 0.021482345 0.10365202 -0.062527224
0.085959494 -0.020799048 -0.05331704 -0.10491064 -0.1243149 -0.072308816 0.019083006 0.033309724
0.024828134 0.06966868 -0.0012981698 -0.026744802 -0.013348711 0.019780796 -0.007972924 -0.014193266
-0.025656585 -0.036589254 -0.0057957605 0.15888411 0.0037065237 0.11820882 -0.10397402 0.074565195
0.032085493 0.07780145 -0.039070126 -0.036489762 -0.053191043 -0.13639086 0.13281336 0.07490029
0.049286123 -0.011116248 -0.019985506 0.024701616 -0.082164414 -0.17160082 0.009242099 -0.12380556
-0.008040115 -0.08393799 0.046340182 -0.16982149 -0.04186437 0.0063239564 0.1638063 0.09860493

actor.mu.weight f4 [4, 64]
00000000: f221 533e 769b dd3d d145 483e 4a99 813e
00000010: 36fd 68bc c414 8a3e da02 c73d c265 88bd
00000020: 7ed0 793e 0036 afbc 9c0f d4be 32c2 50be
00000030: 320f 5cbe 1002 99be c827 6b3c 3b03 91bd
00000040: d5fe 6cbe d88a 7fbe 0603 4c3e ab71 0dbe
00000050: 505a b63c 82a4 8f3b 18e6 babc b675 a2bd
00000060: 7367 1cbe 55b8 ec3d eca8 88be d32f 52be
00000070: 10f6 8abd bc1c 163d e313 213e d914 613c
00000080: 2042 023e 3b6d 1d3e cdaf 74be f746 e3bd
00000090: 9799 3dbe 4744 0cbe a68f b03d 3e67 9bbd
000000a0: f9ba 22be 7313 40be 7b6e 0cbe c247 ab3e
000000b0: 5366 bb3e ffce 6cbc 3bb1 853d 9576 6fbe
000000c0: 543d 4c3e fcaa 893d a4d9 9fbd 96da 923e
000000d0: 10df f93d 1c1b c33d a9b5 83bc 1a64 293d
000000e0: 78b7 f43d 7d06 e8bd 8dbf 27be f59f 7cba
000000f0: 701c f9bc 6d9b 07bd 7126 0bbd a575 e73d
00000100: 02a2 813c 9d05 dabe a216 673e c520 70be
00000110: 3bf1 18bb d36b d63c e2f5 2c3d ba40 6cbd
00000120: 0851 e3be 1103 adbc c3f9 7c3d 6f0a 01be
00000130: 4bad 31bd 33da ebbd 22b2 183e c9c1 95be
00000140: 5291 83bd 9602 1fbe 36ab 8c3b a267 4dbc
00000150: 8b1b 9ebe c4cb 0e3d a43d c83d f194 2fbe
00000160: fcd7 2f3e 8f99 a63e 18ec 093e a28a 83bd
00000170: 9cdb 663e 9b51 3ebe 8018 23be f35a 023e
00000180: 9367 24bc 2c1d 70bc 499c e1bd b3f3 423e
00000190: 2e7c 9a3e 55a4 d5bd ed9e 323d 9f24 6abe
000001a0: 12e8 303e 0b1e ab3e 9650 e9bd 9e5f aebc
000001b0: abad 4bbc 479b f8bd ce6c 7e3e 4eb0 9bbe
000001c0: db01 41be 0b1d d9bd 2da9 8abd 1d5a 793e
000001d0: b7a0 293e b15d 4fbe 0e37 b73d f56e 51be
000001e0: 3d3a 993e e926 cfbe 1579 c33d ba8d 2fbe
000001f0: c19c 373e 8687 16be 4b36 063e c050 a53d
00000200: f5bb 013f 379d 193e 100e 1b3e c7c3 4cba
00000210: 7a6a d3be a956 87be 9eb1 7a3e d828 843e
00000220: 6d77 eebe 57dc 873e d576 0b3d 8c4d d23d
00000230: e7b6 bd3e c57a 9e3e 6d89 6c3e ff6a 3ebe
00000240: a687 04bd 70cf f43e 5566 283d aecd 24be
00000250: c826 78bc 69c4 383b aa51 8fbd e678 403d
00000260: f93d e13e 851e 653e 654b 4a3e 05c0 16be
00000270: 4f52 dfbe 051c 103e d619 37bc 04c0 193e
00000280: 16a4 ff3d 1bc5 13be 5c68 463e 4f64 3d3e
00000290: d5be 6e3d 5b69 5e3e 64da e53b cd36 09be
000002a0: 5957 2ebe 2ed1 1c3e ea16 8fbe 086f ea3e
000002b0: 37a2 0c3b 8c06 7dbd ee0e afbd bf28 3e3e
000002c0: dac2 20be 6239 3abe 76b4 833e 7b65 0fbe
000002d0: a5fd a5bd 7e86 b63d 658e 70bd 1def 933d
000002e0: 0130 14bd fe26 0c3f de76 5f3e dea5 a23a
000002f0: 05a3 efbd 9151 073e f727 503c 8de7 3c3d
00000300: 69e6 bb3e f910 d23d 76c4 46bd fab4 aabc
00000310: 4d2f 4f3c 89bb 9ebd b0ec 363d 2cdd cc3d
00000320: f2cd e53e ab23 0c3e c5df 3fbd 27b9 b83e
00000330: f472 5f3e 8fb1 893e c8dd 163d aac7 9cbe
00000340: b5f7 2abe d6a2 fc3d 8a0d aabe 1456 9a3d
00000350: dd0a 71be 693b abbe 3d84 97bd ccef 9b3d
00000360: 14aa 453d 96df 4ebe cda6 49be dccd 073e
00000370: 8ac4 22be ff5d 72be e697 d53c f0cb f6bd
00000380: bd8b bfbd 34b1 5f3e 9fd3 883e 9c6e 8bbe
00000390: 4713 203e d4ec 48bc de25 b53e bb24 763e
000003a0: d457 82bd 87f7 02be aca1 0fbc e166 573e
000003b0: 4ad5 fcbd af4e 653e 974a 4b3d 1791 9d3e
000003c0: cec2 6a3e 1ab6 fd3d 0e5d 2abe 694e 2fbe
000003d0: 7535 3cbe ffde f33d 0226 79bd 17b9 e23c
000003e0: 12bf 4f3d e976 2c3e bf02 f73d ce20 14be
000003f0: dd72 613e 7dd2 0abe 7719 05be ed03 913c
0.20618418 0.108206674 0.19557883 0.25312263 -0.014220526 0.26968968 0.09717341 -0.06660034
0.2439594 -0.021388054 -0.4141816 -0.2038658 -0.21490172 -0.29884386 0.014352746 -0.07080694
-0.23144086 -0.24955308 0.19923028 -0.13812892 0.022259861 0.0043836245 -0.022814795 -0.07932608
-0.15273838 0.11558596 -0.26691377 -0.20526056 -0.06785214 0.036648497 0.15730242 0.013737881
0.12720537 0.153737 -0.23895188 -0.1109752 -0.18515621 -0.1369792 0.08621149 -0.07588051
-0.15891637 -0.1875742 -0.1371402 0.33453184 0.36601505 -0.014453649 0.06527945 -0.23385079
0.1994527 0.06722066 -0.078051835 0.28682393 0.12200749 0.09526655 -0.016077833 0.04135523
0.119490564 -0.113293625 -0.16381665 -0.00096368726 -0.030409068 -0.03310721 -0.033972207 0.11301736
0.015824322 -0.42582408 0.22567227 -0.2345 -0.0023337144 0.026174461 0.04222668 -0.057678916
-0.4439776 -0.021119626 0.06176163 -0.12601636 -0.043378156 -0.115162276 0.14911702 -0.2924941
-0.06424202 -0.1552833 0.004292871 -0.012536915 -0.3088039 0.034862295 0.09777382 -0.1714666
0.17172235 0.3253903 0.13468969 -0.064229265 0.22544712 -0.18585818 -0.15927315 0.12730007
-0.01003446 -0.014655393 -0.11016137 0.19038276 0.30172867 -0.104317345 0.043608595 -0.22865532
0.17276028 0.33421358 -0.11392324 -0.021285828 -0.012431542 -0.12138992 0.24846193 -0.30407947
-0.18848364 -0.10601243 -0.06770549 0.24350782 0.16565214 -0.20250584 0.08946048 -0.20452483
0.29927245 -0.40459374 0.09544579 -0.17143908 0.1793089 -0.14700136 0.13106649 0.080720425
0.50677425 0.15001379 0.15142083 -0.00078111555 -0.41292173 -0.26433304 0.24481818 0.2581241
-0.4657549 0.26535293 0.034048874 0.10268697 0.37053606 0.3095304 0.23099299 -0.18595503
-0.032355927 0.47814512 0.041113216 -0.16094086 -0.015145965 0.0028193241 -0.06997998 0.046990298
0.43992594 0.22374924 0.19755323 -0.14721687 -0.43617484 0.14073189 -0.011175593 0.15014654
0.12482469 -0.14430659 0.19375747 0.18495296 0.05828746 0.21719877 0.0070145596 -0.13399811
-0.17025508 0.1531417 -0.2794717 0.45787835 0.0021458992 -0.06177382 -0.085477695 0.18570231
-0.1569933 -0.18185952 0.25723618 -0.14003555 -0.081050195 0.08912371 -0.058729548 0.072233416
-0.036178593 0.54747 0.21822688 0.0012409051 -0.117010154 0.13214709 0.012704841 0.04611926
0.36699226 0.102571435 -0.048527204 -0.02083825 0.012645555 -0.07750613 0.044659317 0.10003123
0.44883686 0.13685481 -0.046844263 0.3607876 0.21821195 0.2689328 0.0368326 -0.30621082
-0.16696055 0.12335746 -0.33213454 0.07535949 -0.235393 -0.33443764 -0.07398269 0.07614097
0.048257902 -0.20202479 -0.19692536 0.13262123 -0.15895286 -0.23668669 0.026073407 -0.12050617
-0.09352825 0.21844941 0.26723954 -0.27232826 0.15632354 -0.0122634955 0.35380453 0.24037449
-0.06364408 -0.12789737 -0.008766573 0.21035339 -0.12345369 0.22393297 0.04963168 0.30774757
0.22925875 0.12388249 -0.1663706 -0.17119755 -0.18379767 0.119077675 -0.060827263 0.027676148
0.05071933 0.16842236 0.12061071 -0.14465639 0.22016473 -0.13556857 -0.12997995 0.017702067

actor.mu.bias f4 [4]
00000000: 61f8 953d 4b39 1f3c 1fcf dd3d 959a 81bd
0.07322765 0.00971825 0.10830521 -0.06328312

actor.sigma.weight f4 [4, 64]
00000000: 3565 4abe f760 90bb 52f4 0ebb 0873 7abe
00000010: 7d85 e53d 143a ecbd d849 1ebd f34f a4bd
00000020: e7bd 75bd 979b c73d b05b b9bc 7094 d03c
00000030: 3acb 70bd c5e5 593e 683c 05be 3e72 4c3e
00000040: 602a e5bd b3ce b83d a195 3c3e de45 a43e
00000050: 628e 41bd 14e7 f73d abb7 f3bd 6c32 c43d
00000060: d6b5 d1be c723 5cbd 8365 9cbe 006d 73bd
00000070: 9aa9 bbbd ab85 063e d98a b6bd f5ca 8abd
00000080: 33b3 5b3e 7e1c 5d3e 7706 19be 96ae 1a3e
00000090: 9807 723e 62b3 fbbd fdcb 423e 21ce 863e
000000a0: 0542 f63d 0b40 1c3e 4137 d13e dbad 113e
000000b0: a438 24be 9e83 853d 32bf c6be 7d05 ad3d
000000c0: 31dc febd 5f18 15be b258 91bc 7f44 b9bd
000000d0: 4540 083e 9b61 4b3e 0fa3 db3d dbf3 913e
000000e0: 5a92 7b3d cff1 adbd 83d7 0f3e 4725 0ebe
000000f0: 8f12 2a3e afd7 263d 45f7 623e 7a8f bbbe
00000100: 236e 793e 82e5 67bb 6538 4dbe efc4 5b3e
00000110: b661 52bb 8e42 ffbd e3e9 553d 0946 323e
00000120: 9833 dfbd 008f 52bd 8ccf a53e a821 f6bd
00000130: 228f e13d 9e15 083d 2f4e 0dbd b167 ad3d
00000140: 0c57 823e f4d8 113e 097c 31bd 159c 033d
00000150: b9f8 22bd 9570 e0bd cef7 86be b32c 123e
00000160: fe1f 093e 0c8f 7c3c daa6 46be 4b4a 7abe
00000170: d750 5ebd d726 83bd fe55 03be dd8c 563b
00000180: 8120 553c d01b b53d c774 0e3e 52da 0c3e
00000190: 9348 073e b42e 683d 152f 10be 69e2 993d
000001a0: 4664 5abe cfd8 343e db2d e13d 6231 083e
000001b0: c717 6f3d ec50 ddbd 9ff0 23be d7b0 3e3d
000001c0: c816 e2bd 9cef 733c 6786 463e ee54 ee3d
000001d0: 5841 ca3d 4cc0 c13d bf40 9e3e 5a29 123e
000001e0: 9471 b73c 746a 443d c8ac 363e 83a1 92bd
000001f0: 36ff 2a3e f182 28bd f12a 5d3e 935d 6abe
00000200: cadc 2dbd 2440 f0bd 1b32 9e3d e0ce 49be
00000210: 6eda 10bc 635e 92bd 2154 353e ab3f d73d
00000220: 4821 02be 6f11 aabd 2d39 bd3d b7bb 643c
00000230: 14f7 3a3e b851 533c 3e41 e33d 3b3d 16bc
00000240: d5aa a83d 1fee 60bd a438 f1bd e686 713e
00000250: 00bb a63d fb8b 88bd 39b7 ecbd 20de 783e
00000260: 9b11 81bc c55c 5abd 936f 90be 1505 0abe
00000270: 0ab4 8bbd b253 ab3e 170d 6bbe 7aab c73d
00000280: a5d0 903d 1975 3dbd 8dec 1d3e d61f 193c
00000290: 45e1 5abe a07c 26be fafa 693e d462 3c3e
000002a0: 53b5 1f3e 92c2 753c 9ad9 273e e730 e63d
000002b0: 9af4 9a3d fd94 3dbe 4af9 1dbe 350d 353e
000002c0: cef3 abbd 85b0 3dbe b94d 3c3b 757b e2bc
000002d0: 6b67 8b3e 8d65 783e 4843 553e 9126 eb3d
000002e0: fc0a 6f3c 69f1 453e c08e 9f3d 5b01 5dbd
000002f0: 3b88 503d 2a5f b4bd 9e8a 2dbe c760 c0bd
00000300: 50de 873d ec48 8b3d 47a8 7dbe c20e c1bd
00000310: 3b21 883d 1049 3ebe 3485 b93d bb7a eebd
00000320: 9e78 583e 3857 c2bd 809b 51bd 7078 02bd
00000330: dd6c 03be ca8f 19be e5b1 86bd 49aa ee3a
00000340: ce24 003d 3f47 46bd c336 be3d 9c2e 443e
00000350: 5d62 a43d ad68 9cbe 499a 21bd 74cd a43c
00000360: 2fdb fcbd 283a 2dbe e656 cbbd 32be 1abe
00000370: 8608 183e 946e d9bd 4fa5 0cbe adc9 383e
00000380: d9d6 44bb 22b0 383c 00d7 49be 4f86 54be
00000390: e841 8dbd 3046 8bbe 809b 17ba 3c17 f33d
000003a0: 051e b43d b249 67bc d963 293e 07e8 a73d
000003b0: 95ef a3bd bc90 a93c a994 e53b 74cb 223e
000003c0: 0b98 c13c 1a49 0cbe a69f 1c3d d78d 44bd
000003d0: 602f 863e 5c87 7a3e c383 083e aa59 203e
000003e0: dde9 26be 7341 07be 4135 193e 7901 283e
000003f0: ff27 9f3d 22f1 1b3a 10ec 25be 1165 09be
-0.1976517 -0.0044060904 -0.0021813107 -0.24457943 0.112071015 -0.11534515 -0.03864464 -0.080230616
-0.059995558 0.09746473 -0.022626728 0.025461406 -0.058787562 0.21279056 -0.13011324 0.19965455
-0.11189723 0.090238 0.18416454 0.32084554 -0.047254927 0.121046215 -0.11900266 0.0957993
-0.40959042 -0.053745057 -0.30546197 -0.059430122 -0.09163208 0.13136928 -0.08913202 -0.06776992
0.21455078 0.215929 -0.14943872 0.15105662 0.2363571 -0.12290074 0.19023128 0.2632914
0.12024311 0.15258805 0.40862468 0.14226477 -0.16037232 0.065192446 -0.38817745 0.084483124
-0.12444342 -0.14560078 -0.017742489 -0.09046268 0.13305767 0.19861452 0.1072446 0.2850636
0.06141887 -0.08493387 0.14047055 -0.13881408 0.16608642 0.040733036 0.22164638 -0.366329
0.2435842 -0.00353846 -0.20041044 0.21461843 -0.0032101697 -0.12463866 0.052225005 0.17409529
-0.108985126 -0.051405907 0.32384908 -0.12018138 0.110136285 0.03322374 -0.03449839 0.08467043
0.25457036 0.14242917 -0.04333118 0.032131273 -0.03978798 -0.10958973 -0.26360935 0.14274864
0.1339111 0.015414964 -0.19399586 -0.24442403 -0.054276314 -0.064038925 -0.12825772 0.003273777
0.013008238 0.088431954 0.13911735 0.13755158 0.13211279 0.056685165 -0.1408046 0.075138874
-0.21327314 0.17660831 0.10995074 0.13300088 0.058372285 -0.1080645 -0.16009758 0.046555366
-0.110395014 0.01488867 0.19387208 0.11637293 0.098757446 0.09460506 0.30908772 0.14273587
0.022393025 0.047953084 0.17839348 -0.07159712 0.16698918 -0.0411405 0.21598412 -0.22887258
-0.04244689 -0.11730984 0.077244006 -0.19707823 -0.00884114 -0.07146909 0.17707874 0.105101906
-0.12708008 -0.083041064 0.09239421 0.01396077 0.18258315 0.012897901 0.11096428 -0.009169872
0.082357086 -0.05491459 -0.117783815 0.23586616 0.08141136 -0.06667324 -0.115583844 0.24303484
-0.015755465 -0.05331113 -0.28210124 -0.13478501 -0.06821449 0.33462292 -0.22954212 0.097495034
0.07071046 -0.04625425 0.15422268 0.009345969 -0.21374996 -0.16258478 0.22849646 0.18397075
0.15596513 0.015000002 0.16391602 0.11239796 0.07566185 -0.18513866 -0.15427127 0.1768082
-0.083961114 -0.18524368 0.002873285 -0.02764676 0.2722734 0.24257489 0.20826447 0.11481965
0.014590021 0.19330372 0.07790899 -0.05395637 0.05091117 -0.088072136 -0.1694741 -0.09393459
0.066341996 0.06801018 -0.24771224 -0.09426643 0.06646963 -0.18582559 0.090586096 -0.11644503
0.21139762 -0.09489292 -0.051173687 -0.03185314 -0.12834497 -0.14996257 -0.065768994 0.0018208708
0.0312851 -0.04840779 0.09287789 0.19158405 0.08026574 -0.3054861 -0.03945378 0.020117499
-0.123464935 -0.16916716 -0.09928684 -0.15111616 0.14847001 -0.10616794 -0.13734935 0.18045683
-0.0030035286 0.011272462 -0.19710922 -0.2075436 -0.06897336 -0.27201986 -0.0005783364 0.11869666
0.08794788 -0.014116691 0.16541995 0.081985526 -0.08004681 0.020698898 0.007006247 0.15897924
0.02363207 -0.13699761 0.03823819 -0.04798683 0.2620802 0.24465698 0.13331513 0.15659204
-0.1630015 -0.1320856 0.14961721 0.16406812 0.077713005 0.00059487124 -0.16203332 -0.1341746

actor.sigma.bias f4 [4]
00000000: 8cd4 3fbe eedc bebd e01a 77bc ddde 88be
-0.18733424 -0.09319483 -0.015082091 -0.2673253

critic.layer1.weight f4 [64, 33]
00000000: 9451 413d 1103 f83d ca4a c23c a762 403d
00000010: 548c 6fbd fc88 81bc c675 7e3c 5957 273d
00000020: 72ec 333e d78c 6fbe d8b4 21bc c66d 253e
00000030: 8aa6 063e 4c6f a3be e441 693c d0ee ae3c
00000040: 2c25 703e 92de cd39 35e9 493c af93 ecbc
00000050: 7572 9e3e a3b2 8cbe 36ba b63d 9527 17bd
00000060: 3dac 47be 1d84 12be 7e78 5c3e 5e62 4bbc
00000070: aaee 80bc 2c0f 30be 2808 853d 236c 17be
00000080: b79c c73f daa6 d03d a041 9bbd 4634 883c
00000090: a3c5 073d 9d61 893e c5d8 01be 631d 7abe
000000a0: ebd6 bb3d 0966 303d e3a1 1cbc 9ef6 5b3d
000000b0: 0c40 eebd a304 8abd 0f48 873e f29d 023d
000000c0: a8d8 033f 71a3 1ebe 2981 48be d200 d4bc
000000d0: 38c0 b1bc a695 72be 0467 263d da20 ed39
000000e0: 8ac6 8a3c c04d 50bc 3944 bbbd f2e9 54be
000000f0: 8174 10bd 7c7b 1dbe 9cdc 5b3d 6acf 60bc
00000100: 487b 5a3d c8be 2bbf 769b 19bb 57cc eebd
00000110: ae32 a23c c2a8 1bbe a86b 92bc aebc 14be
00000120: 5e6d c13e e196 c5bd 5e66 39be 1e67 aabc
00000130: 72f3 bfbd 7e42 323e 4ba6 433d 4957 173e
00000140: 3070 643d 6bed 14be 6c1c 643d f857 03bc
00000150: 49d3 843e 1474 9abd d900 bcbd aebb 39be
00000160: 1685 01be 5262 0d3e 8208 60bd 4ed1 8cbe
00000170: b010 953d 9623 6c3e 93ee dabd 7554 bebd
00000180: 610c 413d ca98 70bd 5673 c73e 8833 b8bd
00000190: e32b fe3d 2451 533e df56 09be 9559 0bbc
000001a0: 0054 253d 4ee1 e3bd 6ae3 16be c9f7 aebe
000001b0: eae9 d4bc ac43 cf3d 13ef 663e 6503 c53d
000001c0: ba45 bb3e 516e a4bd 7dff c2bd ab6f 063e
000001d0: b031 b5bd 168a 133e ec77 703d 0d09 28bd
000001e0: 4d60 b6bc 6775 b83b 6d76 52bb 09ed afbd
000001f0: 0a58 473e 836a 80be c3a2 d73d af87 dabc
00000200: 3e76 153e 3036 4cbe d85e 193e 4cec aebf
00000210: b1a5 1ebb 1e54 233e 80c0 55be 9004 06be
00000220: 2c81 75bb 85e8 a6be 642c 25be 9ed2 c1bc
00000230: 5b4a 9c3e 57cc 71be f3d5 37bc 7880 533e
00000240: 5f83 35bd efd5 43be dbce 423e 4e50 2c3e
00000250: fbc2 76bd 7a90 0cbd 9386 1bbd 918b 11be
00000260: fb15 8ebd 0cfd f7bd ec2a 473c 089a 97be
00000270: 91e1 e73d 5355 0b3e 1f49 5a3e 1942 873d
00000280: e70b 4b3e d8af 1c3d 5012 0dbe aa16 1dbe
00000290: cdb2 363e 5823 03be a12d 5c3d 7d25 dbbc
000002a0: f793 bcbd 074e d7bd 240d 3ebd 2134 28be
000002b0: cd50 cebd a74e 1bbd 54e8 1f3e 03ee c13d
000002c0: 6b99 9a3c ea56 623e 4134 b03d fad5 5cbd
000002d0: d219 5ebe 1669 353e ffc1 5e3d 2e65 6cbd
000002e0: e0ac dc3d 752a 5b3e 2234 99be c0f8 103d
000002f0: 423d 9a3b 4333 28be 513e 873d f65e 883d
00000300: 2cd3 5f3e 0c64 4f3e b02c 8dbc 24cb 15be
00000310: 4079 263b d2c8 4c3e 1be1 343d ef6f 733e
00000320: f4f9 7cbe 48ec 46be e159 283e d880 e43d
00000330: a143 29bd eed8 68bd 7ba3 22bd 22cf f6bd
00000340: f90b a7bb 6829 77ba 2384 ff3c af9f f23e
00000350: eaa5 f7bd 59aa a6be dc79 4a3e 2e62 c8bc
00000360: 5d4f 123e e089 0abd b5da e33d 4c27 283e
00000370: 9696 103e 1d79 2d3e b11a 49bc 8388 e9bc
00000380: 1ea8 a8be 4c74 1e3e 3e99 903e 08ee 813d
00000390: 2e72 23be 70ed 2fbe 1c14 14bf 5b00 1a3e
000003a0: 59d2 543e 2077 1f3e 68a2 0dbd e811 c63d
000003b0: 2eb0 8c3d f89a 95bd 368a 34be a0b4 85be
000003c0: 46c1 513e ba14 23bb a0d9 2bbe 49a2 a6bd
000003d0: 023a 753e 7f09 7fbe 12a9 96be d03c f73d
000003e0: a6d9 3f3c 6c50 0a3e 88c2 8dbd 7e79 ea3c
000003f0: b4cd 573c 8455 87bd 5bce 12be 50f3 80be
0.04719694 0.1210996 0.023717303 0.046969082 -0.058483437 -0.01581239 0.015531009 0.040854786
0.17570665 -0.2339357 -0.009869777 0.16155156 0.13149467 -0.3192085 0.014236901 0.021354109
0.2345168 0.00039266475 0.012323667 -0.028879015 0.309467 -0.2748004 0.08922236 -0.036902983
-0.19499297 -0.1430821 0.21530339 -0.012413589 -0.015738804 -0.17193288 0.06495696 -0.14787345
1.55947 0.101880744 -0.07580876 0.016626488 0.033147465 0.26832286 -0.12680347 -0.24425273
0.09171852 0.04306606 -0.009560081 0.05370199 -0.1163331 -0.06739166 0.26422164 0.03188891
0.51502466 -0.15492035 -0.1958052 -0.025879297 -0.021698102 -0.23689899 0.040625587 0.0004522864
0.016940374 -0.01271385 -0.09143872 -0.20792368 -0.035267357 -0.15379137 0.053677186 -0.013721326
0.053340226 -0.67087984 -0.002343861 -0.116600685 0.019799557 -0.15201095 -0.0178736 -0.145251
0.37778753 -0.096479185 -0.18105456 -0.020801123 -0.093726054 0.17408177 0.04776601 0.1477939
0.055771053 -0.14543693 0.055691168 -0.008016579 0.25942448 -0.075416714 -0.09179849 -0.18138
-0.12648425 0.13807037 -0.054695614 -0.27503437 0.072785735 0.2306045 -0.10690036 -0.09293453
0.047130946 -0.05873946 0.38955182 -0.08994204 0.124107145 0.20636421 -0.13412045 -0.008505245
0.04036331 -0.11126958 -0.14735189 -0.3417342 -0.025990445 0.10120329 0.22552137 0.09619788
0.36576635 -0.08028854 -0.09521387 0.13128535 -0.08847368 0.14408144 0.058708116 -0.041024256
-0.022262717 0.00562923 -0.0032114044 -0.08590133 0.19467178 -0.25081262 0.10529091 -0.026676027
0.14595887 -0.19942546 0.14977586 -1.3665862 -0.0024207646 0.15950057 -0.20874214 -0.13087678
-0.0037461026 -0.32599273 -0.16130215 -0.02366 0.3052548 -0.23613106 -0.011220443 0.20654476
-0.04431474 -0.19124578 0.19024222 0.16827509 -0.06024454 -0.03431747 -0.037970137 -0.14213397
-0.06937786 -0.12108812 0.0121562295 -0.29609704 0.1132232 0.13606767 0.21316956 0.06604404
0.19828759 0.038253635 -0.13776517 -0.15340677 0.17841645 -0.12806451 0.053754453 -0.026751274
-0.092079096 -0.105129294 -0.04639925 -0.16426136 -0.10074005 -0.037916806 0.1561597 0.09469225
0.018871984 0.22103468 0.08603717 -0.053915 -0.21689537 0.17715868 0.054384228 -0.05771368
0.10775161 0.21402915 -0.29922587 0.035393476 0.0047070095 -0.16425805 0.06603683 0.06658737
0.218579 0.20253009 -0.017233223 -0.14628273 0.002540186 0.19998482 0.04415999 0.23773168
-0.24704725 -0.19426072 0.16440536 0.111573875 -0.04132426 -0.056847505 -0.03970669 -0.12051226
-0.005097863 -0.0009428472 0.031190937 0.47387454 -0.120921925 -0.3255184 0.19773048 -0.024460878
0.14288087 -0.033822894 0.111256994 0.1642124 0.14119944 0.16940732 -0.01227443 -0.028507477
-0.32940763 0.15474051 0.28241915 0.06344229 -0.15961525 -0.17180419 -0.57843184 0.15039198
0.20783366 0.15572786 -0.03457871 0.09671384 0.06869541 -0.073049486 -0.17630848 -0.26114368
0.20483884 -0.002488418 -0.16782236 -0.08136422 0.2394791 -0.24905966 -0.29425865 0.12072146
0.011709606 0.13507241 -0.069218695 0.028622385 0.013171602 -0.06608108 -0.14336531 -0.25185633

critic.layer1.bias f4 [64]
00000000: f70b 02be 75d4 d53d 72f1 cc3c 8eb3 f8bd
00000010: c684 1fbd cf48 b43b 371f 343c 1f29 e13c
00000020: c939 e33d 8f93 5bbc cc8f c33d 58bf 813e
00000030: 42cd 4b3d b7c7 19bc 5238 0a3e e083 56be
00000040: 480d f13d eb0b f63c fdff 133e 5e7b 61be
00000050: 020b 67be 516f 353c 976d 09be 8392 29bc
00000060: 9989 ecbc c9cb 24be e5f7 43be f49e 99bd
00000070: 61c9 d53d 9beb 4dbe bf8c d93b 31fd 593d
00000080: 30bf c03d 0aae 2c3e b6aa 8cbd 56a6 23be
00000090: ed41 573c f832 82bd cf7c 37bd 8f43 8dbe
000000a0: 8220 04be beea b3bc 2a9e 203e 5f78 2b3e
000000b0: 989d b73e e64a a2bc dbb8 d4bd 8779 6dbe
000000c0: b85b 20bd e734 15bd b670 aabd 9a45 43bd
000000d0: d4e2 c43d 4fac a43b a79c 2ebe 98cc 423d
000000e0: c426 b73d 64cd 75bd 5f2e 87bd 12e1 62bb
000000f0: da5b 61be 867f 84be 58ff a13d 3474 aebd
-0.12699877 0.104409136 0.025017474 -0.12143622 -0.038944982 0.0055018435 0.01099377 0.027485428
0.11095006 -0.01340188 0.095489115 0.25341296 0.049756296 -0.009385995 0.13498047 -0.20948744
0.11770111 0.03003498 0.1445312 -0.22019717 -0.22562793 0.011073903 -0.13420711 -0.0103498725
-0.028874205 -0.16093363 -0.19137533 -0.07501021 0.104388006 -0.20109408 0.0066390927 0.053219978
0.09411466 0.16863266 -0.06868498 -0.15981421 0.0131382765 -0.06357378 -0.04479676 -0.27590606
-0.12903026 -0.02196252 0.15685335 0.16745137 0.35862422 -0.019811105 -0.10386821 -0.2319089
-0.03914997 -0.036427405 -0.08322279 -0.0476738 0.096135765 0.0050254236 -0.17051946 0.047558397
0.08942941 -0.06001033 -0.066006415 -0.0034619016 -0.22007695 -0.25878543 0.07910031 -0.08518258

critic.layer2.weight f4 [64, 64]
00000000: 43d2 b7be d3ed 473b 2c94 84bd 2fe1 c1bd
00000010: f7db be3d 556e c23c 396d b9be 5604 0dbe
00000020: b47c 1abd d97e 443d 23a9 0abf ad93 6abe
00000030: 4040 f3bd 6cb4 e3bc 56b8 583d 657b 17be
00000040: 98ec 36bf 9548 d8bc b629 aa3d f8e0 36be
00000050: 16f6 c2be 7dd2 c5be df8c 8bbe 38ab ec3d
00000060: 2690 243e a52b a2bd 4b2a 82be 094e 07bd
00000070: b685 cabc 1bba 713d 21cc b63d ef42 e0be
00000080: e40e 883d 1d00 3dbd 8795 973c 785d c7be
00000090: 2307 263e 37aa b23d 2f26 2bbe 1a73 053e
000000a0: 7da6 f6be 8865 05bf 32ea 07bf 6f4c c5bd
000000b0: d7b8 c8be 76b6 a43d 31a3 0cbf e235 423d
000000c0: b6b6 07bd a17e 07be 0a4c 9fbd d89b e8bd
000000d0: 7438 283d 81ad d2bd 8fb2 a0be b8ae 74bd
000000e0: 5607 c6bc 9257 07be a5c3 e33d 59ca 3cbf
000000f0: f2e7 8b3e 207d 263e d180 38be 30f6 b8be
00000100: 4aab 74be 983f 35be 2b5f a73d e11c 8abe
00000110: 3459 15bd a2ae ddbd f4ea b1be 5d5a debe
00000120: ff01 db3c e5eb 883d 2558 2abf 18fe 07bf
00000130: 8970 93bd 6503 dcbd 217a 4bbc 2fd5 76bb
00000140: 8d7f 2abf e79d 42be c158 8f3d 4115 6bbe
00000150: 333c dabe 4e0d bdbe 8a21 01bd bb74 2a3d
00000160: 2329 c23d 32f4 9abd d7ed cebc 01be cabd
00000170: 624e b03d a66d f33d fd30 37be fdfd 2bbf
00000180: b184 fbbd c00f d63c 9304 26be d039 0dbf
00000190: d010 34bd 98da 23be a4d4 453d 96ac 70bd
000001a0: 507f 2bbf 4c33 86be 5f63 05bf 26b1 39be
000001b0: 91c2 9cbe 80b7 313d b692 dbbd 684f f6ba
000001c0: 3e4d 4cbe 404e 8bbb 8bcb 013e 2b77 a5bc
000001d0: 633b 08bd 9758 7dbe 50b1 7cbe 9eb6 d33c
000001e0: f7e4 3a3e ef4d 7ebc ddd8 a8bd 6eb8 47bf
000001f0: be0c b6bd 0e4a e23c 8563 42be 3eba c9be
00000200: 8dca 73bd a147 f9be 8c4e 2cbe 63c4 593e
00000210: 06d0 01bf b34d 903d e790 633e 3244 873d
00000220: c1fb 3abc ba04 b83c 4c4a 8b3e c77a 913e
00000230: e89c a23c d0b1 d3be 6268 4fbd a4e6 d2bd
00000240: 6042 b13d c70e 353e c9a2 39bd 47a4 42bd
00000250: dd5b 5b3e 0eea 5c3e ded7 50bc 181e 98be
00000260: a27d b6be 6e49 17bf a758 dfbe 0621 323b
00000270: 777e 863d ee3b 1c3e 70c3 cb3e 7d94 983d
00000280: 29c4 973e c8e1 c0be be7b 983b f8ba a13e
00000290: 49f1 18be 8909 3dbe 69e4 ccbe ba54 39bf
000002a0: fd8c 2cbe 279e 123e 0238 be3e 2db2 373d
000002b0: fb89 7f3e 331a ccbe 6065 b7bc c3a7 32bd
000002c0: 50d1 81be 2410 5b3d 5de6 13be 8f4f b9bd
000002d0: 7557 08be 5b0f 423e 9bd3 623e c684 4e3e
000002e0: 463c 04bf c064 20bf e3df ccbe a815 a23e
000002f0: 5dc2 b53d d6c5 0b3e 19db 91be 7bff b23e
00000300: 5b0b edbe a639 e23d cb43 633d 45e4 4dbe
00000310: 72d4 163e 402c 963c 513c d7be 97db 1dbe
00000320: 1820 25be d0eb 4a3d 692a fbbe 31f0 abbe
00000330: d90c afbd d869 6e3e 0c84 9f3d b33f 68be
00000340: 6737 46bf d725 c23d 77c0 103e 43e9 3bbe
00000350: 700e b4be be4f 03bf 025f 80be e2d0 723d
00000360: 4d69 e33d ab3b a7bd 9b7e 42be 186d 0bbe
00000370: c9aa 003e 6855 163d 6487 003d f6f5 37bf
00000380: 5da7 b5bd 9986 023c db82 f3bd 6d57 aebe
00000390: d465 853e eb2b 2abc d12e 953a 3cf5 fc3c
000003a0: 93b7 15bf ed88 a1be 3025 01bf ae77 ffbc
000003b0: 31e0 a2be c27f 433c 9dc7 09bf 3c0d 643d
000003c0: 459c c4bd f973 49bd dd1f 97bd ef1f 24bc
000003d0: 3bd2 5abd 4ce7 84bd e24b 76be b19a 8fbc
000003e0: d0ea 103e 3e6e 9a3d 2488 1e3e e700 1ebf
000003f0: 37ca 383e 0c10 4a3d 83e0 c7bd 9e92 2fbe
-0.35902604 0.0030506745 -0.06473574 -0.094667785 0.09319299 0.023734251 -0.36216143 -0.13771185
-0.037716582 0.047972534 -0.5416433 -0.22907896 -0.11877489 -0.027795993 0.05291017 -0.14793165
-0.71454763 -0.026401797 0.08308737 -0.17859256 -0.38078374 -0.38637152 -0.27255914 0.11556095
0.16070613 -0.07918481 -0.25422892 -0.033033404 -0.024721961 0.059015375 0.08925653 -0.43801066
0.06643465 -0.046142686 0.018503917 -0.38938498 0.1621366 0.08723872 -0.16713785 0.13032189
-0.48173895 -0.5210805 -0.5309173 -0.09633719 -0.39203522 0.08042614 -0.5493651 0.047414668
-0.03313323 -0.13231899 -0.07778175 -0.1135785 0.041069463 -0.102869995 -0.3138623 -0.059736937
-0.02417342 -0.13216999 0.111213006 -0.7374626 0.27325398 0.16258669 -0.1801789 -0.36125326
-0.23893467 -0.1770004 0.08172449 -0.26975158 -0.036462024 -0.10824324 -0.34749568 -0.43428317
0.02673435 0.06685618 -0.6654075 -0.5312209 -0.07199199 -0.10742835 -0.0124192545 -0.0037663688
-0.6660088 -0.19005547 0.0699935 -0.22957326 -0.42624053 -0.36924213 -0.031526126 0.04161523
0.094805025 -0.07566108 -0.025259895 -0.098995216 0.086087 0.11886148 -0.17889781 -0.6718443
-0.12281168 0.026130557 -0.16212682 -0.5516634 -0.043961346 -0.16001356 0.048298493 -0.05875834
-0.6699114 -0.2621101 -0.52104753 -0.18133983 -0.30617192 0.04338789 -0.10721342 -0.0018791975
-0.1995134 -0.0042512715 0.12675302 -0.020198425 -0.03325976 -0.24740826 -0.24677014 0.025843915
0.18251406 -0.0155215105 -0.082444884 -0.7801579 -0.08889149 0.027623203 -0.18983276 -0.39399904
-0.05951934 -0.4868746 -0.16826838 0.21266322 -0.50708044 0.0704607 0.22223245 0.06604804
-0.011412562 0.022463191 0.27205122 0.28413984 0.01985021 -0.41346598 -0.050636657 -0.102978975
0.08655238 0.17681418 -0.04532126 -0.04751995 0.21421762 0.2157366 -0.012746779 -0.2971046
-0.35642725 -0.5909642 -0.43622324 0.0027180328 0.0656709 0.15257236 0.39797544 0.07450197
0.29641846 -0.37672257 0.004653423 0.31587958 -0.14935793 -0.18460669 -0.40018013 -0.7239491
-0.16850658 0.14318143 0.37152106 0.044847656 0.24954979 -0.39863738 -0.022387207 -0.04361702
-0.25355005 0.05348219 -0.14443345 -0.09048378 -0.13314612 0.1895117 0.22151034 0.20167837
-0.5165447 -0.6265373 -0.40014562 0.31657147 0.088749625 0.13649687 -0.2848747 0.3496054
-0.46297726 0.11046152 0.055484574 -0.20106609 0.14729479 0.018331647 -0.42038205 -0.15415798
-0.16125524 0.049541295 -0.49055794 -0.3358169 -0.08547372 0.23282564 0.07788858 -0.2268055
-0.7742829 0.094798736 0.1413592 -0.18350701 -0.35167265 -0.5129355 -0.25072485 0.059281237
0.11104069 -0.08165678 -0.18993609 -0.13615835 0.1256515 0.036702543 0.03137912 -0.7185968
-0.08869813 0.007966661 -0.11890193 -0.34051076 0.2605425 -0.010386447 0.001138175 0.030878656
-0.5848324 -0.3154978 -0.5044737 -0.031184997 -0.3181167 0.011932315 -0.5382021 0.055676684
-0.096001185 -0.049182866 -0.07379124 -0.010017379 -0.053423148 -0.06489429 -0.24052384 -0.017529817
0.14152074 0.07540558 0.15481621 -0.61720127 0.18045889 0.04933171 -0.09759619 -0.17145774

critic.layer2.bias f4 [64]
00000000: c3a6 83bc f625 973d 4092 8b3d fc92 543e
00000010: fbc0 3b3d 0d06 d7bc 1981 c7bd c14c 373d
00000020: 0d14 31be 01e3 0e3e b8bf 1d3e 97a5 a23d
00000030: 2dae 2a3d c562 1f3e c213 3c3e 415a 9cbd
00000040: 097a 983d 88a9 af3d 5e2d 9c3c 6115 803d
00000050: 46dc 3c3d e327 de3c b27f 383d d9bc 0f3e
00000060: c231 e43d 05f9 05be 9b41 9d3b c311 5bbc
00000070: 2f0d 533d 4fa9 4cbd 0b61 2c3d 2c31 ec3b
00000080: 9c7f 613d c9b0 343d 6fe1 be3d a036 813c
00000090: fd53 c33b 3551 ee3d cfd9 fabd abbd 0d3e
000000a0: dfe6 9f3d 4759 d63d 401a 753c 269b ac3d
000000b0: c98d f6bd f724 ccbd d716 6bbd 639c 2b3e
000000c0: b164 b93d a5f9 403c 3496 0c3e fdd1 323d
000000d0: 524c 2dbe 4f7b 14be 9552 293e bdfe a93d
000000e0: 58d2 debd 15d5 75be 1c76 bf3c 6fa6 bdbc
000000f0: acdb bbbc ebf7 4d3e d4ec 853d 448d bc3d
-0.01607073 0.07380287 0.06815004 0.20759195 0.045838337 -0.026248002 -0.0974142 0.044750933
-0.17292805 0.13953783 0.15405166 0.0794174 0.041670013 0.15565021 0.18366912 -0.07634402
0.07445151 0.085772574 0.019064602 0.06254078 0.046108507 0.027118629 0.045043655 0.14036883
0.11142303 -0.13083275 0.0047990805 -0.013370934 0.051526245 -0.049966153 0.042084735 0.00720801
0.05505334 0.044113908 0.09320342 0.015773118 0.00596094 0.11636583 -0.12248575 0.13841884
0.07807707 0.10466247 0.014959872 0.0842803 -0.12038762 -0.09967988 -0.05739483 0.16758876
0.090524085 0.01177827 0.13729173 0.04365729 -0.16923645 -0.14500163 0.16535409 0.083005406
-0.10879964 -0.24007066 0.023371749 -0.02315065 -0.022931896 0.20114104 0.06539312 0.09206632

critic.layer3.weight f4 [1, 64]
00000000: cfb7 d83e 8b5f f63e 7a2c 0a3f 9853 0c3f
00000010: ce52 a03e 0aa1 b33e 8cf7 b63e 5940 b73e
00000020: 4859 943e ad46 023f 1385 0cbf 2edf fbbe
00000030: 7f95 1cbf 1779 10bf 5707 dd3e c12d 29bf
00000040: f679 48be ede9 c4be 0da8 bc3e 1211 c6be
00000050: 0ed3 04bf 4bdc 933e 8a7f 3ebe 75be d4be
00000060: 1d1f 1bbf 394f 13bf 1462 acbe b767 0dbf
00000070: 3dd2 27bf 4548 a33e 2f25 943e 2d1b 533e
00000080: d26a 913e 6cf8 a03e 3ae5 32bf a7af bebd
00000090: 3803 f3be 4542 88be a05a c83e c9d3 9c3e
000000a0: 1757 c3be db92 c7be a1c3 cabe aef8 123f
000000b0: 1750 a13e 3619 05bf 61a0 df3e 92b5 a5be
000000c0: 1f08 d53e 8cb2 25be d3c4 ef3e 1ed5 013f
000000d0: 898a 8c3e 5f75 073e 27bb 01bf cf6e c1be
000000e0: 75c0 793e 05c7 a8be b7a8 07bf 38f6 a33e
000000f0: ca12 93be 1b28 0fbf 374f 073e d820 123f
0.42327735 0.48119769 0.53974116 0.54815054 0.31313175 0.350838 0.35735738 0.3579128
0.28974366 0.5088909 -0.54890555 -0.4919371 -0.6116561 -0.5643477 0.43169662 -0.6608544
-0.19577774 -0.3845972 0.36846963 -0.386849 -0.51884544 0.28879008 -0.1860334 -0.41551557
-0.6059435 -0.5754276 -0.33668578 -0.5523638 -0.65555173 0.31891075 0.2893462 0.20615835
0.2840181 0.3143953 -0.6988102 -0.09310847 -0.47463393 -0.2661306 0.3913164 0.3063033
-0.38152382 -0.3897923 -0.39602378 0.57410705 0.31506416 -0.51991594 0.43677047 -0.3236509
0.41607758 -0.16181391 0.46829852 0.50715816 0.27449444 0.13228367 -0.50676197 -0.37779853
0.24389823 -0.3296434 -0.52991813 0.32023787 -0.28725272 -0.5592057 0.13213812 0.57081366
